Amos/Z01.pth (torch, 185583 bytes, 7 tensors)

fc1.weight f4 [100, 52]
0.105461404 0.061011642 -0.032202024 0.11664651 -0.12245769 0.055266984 0.10079948 0.060447928
0.05975551 0.043473896 -0.022671612 0.082715645 -0.073267184 0.055080757 -0.066749536 0.11847199
0.11255402 0.037940882 0.13305627 -0.124248594 0.07744435 0.0011875151 0.11849969 0.13054131
-0.102800526 -0.13520847 0.074315175 -0.13176759 0.13293417 0.12629396 -0.029523784 -0.13154264
0.0016991182 0.11273985 -0.10599316 0.08424734 0.04400096 0.046737537 0.010208769 -0.06127271
-0.036474664 -0.05450831 -0.13779472 -0.08884701 0.13053796 0.06784149 0.058326952 0.13154547
-0.081118315 0.10686737 -0.13238353 0.11941603 0.11361815 0.13677241 0.10174462 0.016764596
-0.04463216 -0.13232435 -0.0728603 0.0027697324 -0.010309566 0.101509094 -0.04086799 -0.037866317
-0.009237808 0.07681767 -0.044995982 0.0042644115 0.015218174 0.051136937 -0.058491603 -0.0750355
-0.049206194 -0.063467145 0.10135506 0.103741385 -0.070919074 -0.104330756 -0.08216844 0.106176905
-0.072554246 -0.07907598 -0.12282164 0.11337469 0.09779907 0.01742154 0.065836474 -0.020359952
-0.0161866 -0.13690685 0.03185564 0.035302047 0.10300122 -0.041080784 0.0680554 0.07580347
0.007879337 0.014533346 0.05695289 0.08491493 -0.05694214 -0.069172606 0.03978277 -0.020718409
0.009663046 -0.09766747 -0.10213269 -0.054631412 0.06050687 -0.09071885 -0.025562517 0.10415749
0.008891966 -0.059200898 0.017851187 -0.053992245 0.009502086 -0.08668324 0.004704903 0.11419925
-0.12855902 0.11647891 0.033834536 -0.05307082 -0.09568738 0.048443336 0.12971663 0.040151656
0.010339984 0.104172565 -0.04828486 0.13506298 0.081457965 -0.118373275 -0.12409299 0.13437593
0.022968918 -0.011013924 0.11533012 -0.032463815 0.11489631 -0.08785465 -0.12794366 -0.05837845
-0.10611514 -0.097264044 -0.061875436 0.07014343 -0.00779716 0.08421672 0.1245404 0.12752892
-0.00432979 -0.13183518 -0.1060737 0.12570223 -0.107181825 0.10034747 -0.022994127 0.13070582
0.04236596 -0.045355175 0.10650164 0.003406408 -0.11184393 -0.11972369 0.026276108 0.06613089
-0.022989795 -0.08786224 -0.022754477 -0.12464028 -0.06568661 -0.07355138 0.10592721 -0.12460745
0.027351905 0.114224695 0.04555349 -0.027167315 0.06066038 0.011053683 0.0349625 0.085229054
6.112817e-05 0.029888997 0.12099049 -0.04926924 -0.025711376 -0.078076325 -0.08644002 -0.055914845
-0.09745145 0.06315525 -0.040479943 -0.03409472 0.05249407 0.11278961 0.11227165 0.08420022
-0.06324355 0.11779656 0.040408816 0.06066562 -0.0037600128 0.07361883 0.123610824 -0.104998186
0.12095395 0.09526622 -0.060489167 0.08632698 -0.07291398 -0.028020177 0.08781477 -0.06798535
0.009366447 -0.12448908 0.016319131 -0.06513763 -0.07242968 -0.09330907 -0.0017543453 0.09626279
0.06921902 -0.0025622987 -0.053293556 -0.116170354 -0.08327846 0.07823825 0.034243364 -0.082707636
0.06513052 0.07873436 0.052330244 -0.078187205 0.13108483 0.05958818 -0.12977953 -0.12598073
0.12427466 0.11921159 -0.06908124 -0.021495445 -0.08282633 -0.13028613 -0.12987222 -0.06583118
-0.12017498 0.07328371 -0.10769956 0.090512924 0.112713255 0.008512294 0.004347444 -0.01318198
00000000: 26fc d73d 58e7 793d 45e6 03bd 5ee4 ee3d
00000010: 19cb fabd a25f 623d f56f ce3d 3f98 773d
00000020: 32c2 743d af11 323d d1b9 b9bc d266 a93d
00000030: 1b0d 96bd 5c9c 613d fbb3 88bd 71a1 f23d
00000040: b982 e63d e667 1b3d e73f 083e 0c76 febd
00000050: 259b 9e3d 65a6 9b3a f7af f23d 9fac 053e
00000060: 1589 d2bd 1774 0abe 8e32 983d 15ee 06be
00000070: e51f 083e 3453 013e dddb f1bc 1db3 06be
00000080: f2b4 de3a 27e4 e63d f112 d9bd df89 ac3d
00000090: 5a3a 343d dc6f 3f3d ae42 273c 18f9 7abd
000000a0: 7566 15bd 1b44 5fbd 0f1a 0dbe 6cf5 b5bd
000000b0: beab 053e 7bf0 8a3d 3ee8 6e3d dbb3 063e
000000c0: 5c21 a6bd 48dd da3d 8c8f 07be 6490 f43d
000000d0: a2b0 e83d 110e 0c3e 7c5f d03d e855 893c
000000e0: 36d0 36bd 0980 07be c837 95bd 6684 353b
000000f0: 74e9 28bc 00e4 cf3d 3265 27bd b619 1bbd
00000100: 2d5a 17bc 9552 9d3d b54d 38bd 7abc 8b3b
00000110: a655 793c f774 513d e494 6fbd 36ac 99bd
00000120: 6f8c 49bd 10fb 81bd 3e93 cf3d 5d76 d43d
00000130: 053e 91bd 5dab d5bd ed47 a8bd 4773 d93d
00000140: 5297 94bd 96f2 a1bd e989 fbbd fd30 e83d
00000150: e14a c83d 9eb7 8e3c 46d5 863d eac9 a6bc
00000160: c399 84bc 4f31 0cbe 0f7b 023d e198 103d
00000170: 4ef2 d23d 5344 28bd a160 8b3d da3e 9b3d
00000180: 5618 013c 451d 6e3c 6f47 693d e1e7 ad3d
00000190: 293c 69bd 5eaa 8dbd 42f3 223d a7b9 a9bc
000001a0: c151 1e3c e205 c8bd f22a d1bd 30c5 5fbd
000001b0: 0dd6 773d ceca b9bd 7c68 d1bc 8650 d53d
000001c0: 9caf 113c a47c 72bd a73c 923c f926 5dbd
000001d0: a3ae 1b3c fc86 b1bd 962b 9a3b 4ce1 e93d
000001e0: faa4 03be 7f8c ee3d 1596 0a3d ca60 59bd
000001f0: bff7 c3bd 856c 463d 70d4 043e 1076 243d
00000200: 0969 293c 6d58 d53d 58c6 45bd f34d 0a3e
00000210: 6fd3 a63d b06d f2bd 7724 febd d899 093e
00000220: 5029 bc3c bf73 34bc 3332 ec3d c7f8 04bd
00000230: c24e eb3d 24ed b3bd aa03 03be 3e1e 6fbd
00000240: e552 d9bd 5f32 c7bd 1971 7dbd 5ca7 8f3d
00000250: 527f ffbb d179 ac3d 0a0f ff3d f196 023e
00000260: e9e0 8dbb cdff 06be 2b3d d9bd 16b8 003e
00000270: 2582 dbbd f982 cd3d 2e5e bcbc bfd7 053e
00000280: ee87 2d3d 59c6 39bd 881d da3d 0b3e 5f3b
00000290: 6e0e e5bd b231 f5bd fe40 d73c a26f 873d
000002a0: 1855 bcbc 1ef1 b3bd 9967 babc 6743 ffbd
000002b0: b486 86bd 1ba2 96bd 5df0 d83d 3132 ffbd
000002c0: 1a11 e03c a3ee e93d 4c96 3a3d fd8d debc
000002d0: 0577 783d 821a 353c d734 0f3d 928c ae3d
000002e0: f031 8038 c5d9 f43c ddc9 f73d 8bce 49bd
000002f0: aaa0 d2bc 7be6 9fbd 7707 b1bd f706 65bd
00000300: a094 c7bd 8a57 813d 4cce 25bd e8a6 0bbd
00000310: 0604 573d 3dfe e63d aeee e53d 2a71 ac3d
00000320: d685 81bd 533f f13d b783 253d 837c 783d
00000330: 8c6a 76bb 78c5 963d ac27 fd3d 4a09 d7bd
00000340: b4b6 f73d f01a c33d 7dc3 77bd 33cc b03d
00000350: ed53 95bd 928a e5bc 3bd8 b33d e73b 8bbd
00000360: ba75 193c 21f4 febd b3af 853c e166 85bd
00000370: 0356 94bd d318 bfbd 0ff2 e5ba 6d25 c53d
00000380: b4c2 8d3d 3dec 27bb 584a 5abd b9ea edbd
00000390: e68d aabd 603b a03d c542 0c3d 9f62 a9bd
000003a0: 2663 853d 7b3f a13d 3d58 563d 9d20 a0bd
000003b0: 1a3b 063e bc12 743d ede4 04be 1801 01be
000003c0: b783 fe3d 3525 f43d 777a 8dbd 3717 b0bc
000003d0: daa0 a9bd ba69 05be 39fd 04be 7fd2 86bd
000003e0: 4d1e f6bd c515 963d 9691 dcbd d75e b93d
000003f0: 35d6 e63d 2677 0b3c 0175 8e3b 3bf9 57bc

fc1.bias f4 [100]
0.03553056 -0.1347591 -0.10263608 0.042792995 0.08696708 0.09677671 -0.019631216 0.05142414
-0.123407446 0.12871778 -0.0376727 0.020452198 0.027775425 -0.13855717 -0.0672114 -0.045962233
-0.045940325 -0.06597437 0.08483002 -0.06988381 -0.045673054 0.06419624 0.11900342 0.09504995
0.027022544 -0.10467638 0.044959117 -0.120212466 0.10521574 0.05855483 -0.12536646 0.023092106
0.11333429 0.11190956 0.10554424 -0.069250025 -0.005574603 0.057416607 -0.096254036 -0.0062502315
-0.050864764 -0.10581071 0.12726118 -0.08641076 -0.11625547 -0.13529259 0.13469294 -0.046026595
0.011599854 -0.032397572 0.1308286 -0.08869744 -0.06049426 -0.01944995 0.010344962 -0.08899854
0.04714414 -0.08643464 -0.07369842 0.05667746 -0.07080683 0.107399724 -0.121691994 -0.054259393
0.057886083 -0.015401746 0.08435125 0.012140712 -0.0650525 0.12929115 -0.0435824 0.067674406
0.019987507 0.04259872 -0.026459156 -0.13574514 0.05173727 0.08901548 0.09124513 0.14024176
-0.13395971 0.06901393 0.13255873 0.1197242 -0.084375896 0.1362035 0.12242234 -0.13502808
-0.0783426 -0.053286407 0.0189152 0.073191024 0.0021608684 0.029120676 0.051662326 0.017871799
0.06267118 0.13157332 0.049895328 0.10764111
00000000: 7e88 113d 4afe 09be dd32 d2bd b547 2f3d
00000010: cc1b b23d de32 c63d a5d1 a0bc 1ea2 523d
00000020: 0bbd fcbd 98ce 033e b04e 1abd 5e8b a73c
00000030: 4a89 e33c eee1 0dbe 21a6 89bd e542 3cbd
00000040: ec2b 3cbd 921d 87bd 5dbb ad3d 3e1f 8fbd
00000050: ab13 3bbd 5179 833d 11b8 f33d 8ca9 c23d
00000060: 625e dd3c 9260 d6bd 0d27 383d f431 f6bd
00000070: 5a7b d73d 30d7 6f3d 1160 00be a82b bd3c
00000080: cf1b e83d d730 e53d 9427 d83d f5d2 8dbd
00000090: 29ab b6bb ad2d 6b3d d620 c5bd bece ccbb
000000a0: 9257 50bd 49b3 d8bd c150 023e 20f8 b0bd
000000b0: 5917 eebd 248a 0abe f2ec 093e 6286 3cbd
000000c0: 500d 3e3c 51b3 04bd eff7 053e 01a7 b5bd
000000d0: d4c8 77bd 8055 9fbc ea7d 293c de44 b6bd
000000e0: 371a 413d a504 b1bd 32ef 96bd a026 683d
000000f0: 2c03 91bd 63f4 db3d a739 f9bd 193f 5ebd
00000100: f519 6d3d 9b57 7cbc 59c0 ac3d d6e9 463c
00000110: 3f3a 85bd e664 043e 7583 32bd e198 8a3d
00000120: d7bc a33c ff7b 2e3d dfc0 d8bc c600 0bbe
00000130: 76ea 533d bf4d b63d bade ba3d 899b 0f3e
00000140: bc2c 09be 2d57 8d3d 7abd 073e f631 f53d
00000150: 45cd acbd ee78 0b3e 90b8 fa3d cd44 0abe
00000160: 1672 a0bd d942 5abd 0df4 9a3c 2de5 953d
00000170: 5b9d 0d3b 7c8e ee3c e09b 533d e167 923c
00000180: bf59 803d 28bb 063e 0b5f 4c3d f172 dc3d

fc2.weight f4 [200, 100]
0.049724277 0.003038763 -0.017463109 0.038284108 0.063955046 -0.03707312 0.08056242 -0.08755759
0.07764137 -0.0058558085 -0.026043696 0.02345235 0.08284402 0.02039467 -0.051173627 0.060193166
-0.09631689 0.051216204 -0.056475233 -0.061351158 0.09165366 -0.068458416 0.038908485 -0.011152851
0.02722837 0.069678135 -0.045260526 -0.07747106 -0.064960904 -0.014989489 0.07845859 0.04709393
-0.023710864 -0.050273366 -0.09166724 0.04088627 -0.030383931 -0.009484833 -0.083620675 0.08314561
-0.09893846 -0.014583298 -0.04026796 -0.00063945237 -0.09291789 0.025091305 0.02202181 0.09653532
-0.066729225 -0.054023907 -0.08287178 -0.0008766026 0.08578901 -0.090430655 -0.07305232 0.049491614
-0.037313655 0.055384353 -0.075610735 -0.07957969 -0.027180841 -0.08218435 0.05326115 -0.049200695
0.045405738 -0.038971566 -0.09890495 -0.05229119 -0.013709199 -0.06475401 0.08992106 -0.0340177
-0.09336021 -0.06630614 0.022883082 -0.06344479 -0.017345857 0.057775687 -0.07115678 -0.060769822
-0.024701418 0.0024227584 -0.001544844 -0.036726855 -0.090967044 -0.043371156 -0.020599665 -0.048181668
-0.055690482 0.015567916 0.0028331683 0.0015697286 -0.09708392 -0.09674867 -0.04933342 0.08873072
-0.09641372 -0.0788321 -0.07527053 -0.08048175 -0.0019713936 0.014928505 -0.05030079 -0.020720642
-0.076177955 -0.06608456 0.08024335 0.09488922 0.05805914 0.05982755 -0.001499028 -0.079891406
0.05493248 0.06658425 -0.06416528 -0.08975907 -0.09831289 0.01137418 -0.09039941 0.057191323
-0.095866874 -0.06747366 -0.07826408 -0.09842562 -0.022301162 0.043984305 0.08830937 0.011064886
-0.03821676 0.07664578 0.024195107 0.033573095 -0.019994795 -0.008116872 0.07533126 -0.0040690866
-0.019792119 0.02645452 -0.040567055 -0.06572941 -0.055271294 0.026671277 -0.0770499 -0.00378987
0.067955896 -0.04884377 -0.08409885 -0.010624849 0.08386986 0.05840509 -0.017666677 0.06687154
0.05658129 0.06561213 0.019262945 -0.024053322 -0.008094422 0.052540757 -0.002352947 -0.03244324
0.07546961 0.093330376 -0.041970044 -0.03688001 -0.058205232 -0.07048296 0.061294086 0.08363799
0.013612239 -0.014044394 0.08923917 -0.06286105 0.041635104 0.06636516 0.012845071 0.021832412
-0.09945077 0.023542406 -0.08449313 0.06302863 -0.0024381122 0.041554146 0.08459579 0.09348987
0.01658819 0.021796802 0.02537879 0.017875066 -0.028989187 -0.06886565 0.0068160077 -0.0297518
0.04033984 -0.03254309 -0.013709944 0.09684449 0.012916973 0.05280576 0.027909664 -0.01852685
0.06560575 0.077404164 -0.098797075 -0.09713924 0.07759362 -0.024176877 -0.050742716 -0.035707034
-0.00805426 0.04753354 -0.0774244 0.085843585 -0.029015604 -0.074554525 -0.005795814 -0.062267274
0.05806344 -0.0662422 0.04314674 -0.04155873 0.098907776 0.028051898 -0.07409531 -0.06594709
0.03640868 -0.024274377 0.07393326 -0.06313204 0.02747951 0.082282275 0.059997927 0.018973222
-0.076673724 -0.018415667 0.088853806 0.075273156 -0.01771273 0.08641194 0.06924206 -0.04494948
0.024926942 0.02029876 0.08457909 0.09523797 0.087116174 -0.046445988 -0.023032458 -0.020154882
-0.070936345 0.09790591 -0.0026817366 0.06929534 0.053343855 -0.07494309 0.007843236 0.027064187
00000000: afab 4b3d fc25 473b cb0e 8fbc cccf 1c3d
00000010: ddfa 823d fcd9 17bd e9fd a43d 6551 b3bd
00000020: 7002 9f3d 15e2 bfbb 9759 d5bc 251f c03c
00000030: 20aa a93d b912 a73c 709b 51bd 1c8d 763d
00000040: ca41 c5bd 15c8 513d 9352 67bd 5a4b 7bbd
00000050: eab4 bb3d ed33 8cbd 815e 1f3d 73ba 36bc
00000060: 080e df3c 69b3 8e3d 1a63 39bd 26a9 9ebd
00000070: 390a 85bd 7996 75bc e6ae a03d 91e5 403d
00000080: 493d c2bc 72eb 4dbd 09bc bbbd 5d78 273d
00000090: b9e7 f8bc 4666 1bbc 5141 abbd 3f48 aa3d
000000a0: 3fa0 cabd c9ee 6ebc 04f0 24bd eca0 27ba
000000b0: bc4b bebd 488c cd3c 1567 b43c 4fb4 c53d
000000c0: 55a9 88bd 2c48 5dbd aeb8 a9bd cecb 65ba
000000d0: 26b2 af3d b533 b9bd 749c 95bd b8b7 4a3d
000000e0: 34d6 18bd b4da 623d cdd9 9abd adfa a2bd
000000f0: 5baa debc 4550 a8bd 5d28 5a3d ab86 49bd
00000100: 5efb 393d a6a0 1fbd ae8e cabd 492f 56bd
00000110: 8c9c 60bc c09d 84bd 8828 b83d 2556 0bbd
00000120: a333 bfbd 83cb 87bd 4d75 bb3c 58ef 81bd
00000130: e618 8ebc 33a6 6c3d a5ba 91bd c7e9 78bd
00000140: a15a cabc 24c7 1e3b 5d7c caba e66e 16bd
00000150: ee4c babd f4a5 31bd a1c0 a8bc 245a 45bd
00000160: b41b 64bd 9310 7f3c adac 393b 5abf cd3a
00000170: efd3 c6bd 2b24 c6bd d711 4abd 74b8 b53d
00000180: 8e74 c5bd b972 a1bd 7027 9abd 9ed3 a4bd
00000190: 7f32 01bb b096 743c 3408 4ebd 56be a9bc
000001a0: 3003 9cbd 5757 87bd a056 a43d 4855 c23d
000001b0: 6ccf 6d3d bc0d 753d 087b c4ba 1b9e a3bd
000001c0: e100 613d 535d 883d 1669 83bd 9ad3 b7bd
000001d0: 4558 c9bd c55a 3a3c 5323 b9bd 7341 6a3d
000001e0: da55 c4bd a12f 8abd eb48 a0bd 5f93 c9bd
000001f0: edb0 b6bc e328 343d 8bdb b43d 7f49 353c
00000200: 2d89 1cbd 76f8 9c3d d134 c63c f183 093d
00000210: 20cc a3bc a1fc 04bc 4747 9a3d f955 85bb
00000220: 1523 a2bc 26b7 d83c a429 26bd 249d 86bd
00000230: 2764 62bd b97d da3c 57cc 9dbd 785f 78bb
00000240: 762c 8b3d 6810 48bd 053c acbd d913 2ebc
00000250: f6c3 ab3d 2d3a 6f3d b5b9 90bc f2f3 883d
00000260: c8c1 673d a75f 863d 53cd 9d3c 790b c5bc
00000270: 779e 04bc fa34 573d e633 1abb 34e3 04bd
00000280: d08f 9a3d ff23 bf3d c8e8 2bbd 7e0f 17bd
00000290: 9c68 6ebd 5f59 90bd 820f 7b3d 654a ab3d
000002a0: de05 5f3c 751a 66bc 07c3 b63d 4bbd 80bd
000002b0: 9289 2a3d 75ea 873d 2274 523c e3d9 b23c
000002c0: d8ac cbbd 01dc c03c bc0a adbd 2815 813d
000002d0: bcc8 1fbb ae34 2a3d 8f40 ad3d 9e77 bf3d
000002e0: f5e3 873c 358f b23c 2ee7 cf3c bb6e 923c
000002f0: bb7a edbc 6f09 8dbd d158 df3b 0cba f3bc
00000300: 633b 253d e74b 05bd ac9f 60bc 6756 c63d
00000310: b6a1 533c da4a 583d cfa2 e43c 9fc5 97bc
00000320: 4f5c 863d 1386 9e3d 1f56 cabd f0f0 c6bd
00000330: 67e9 9e3d 960e c6bc 98d7 4fbd 8a41 12bd
00000340: 04f6 03bc 87b2 423d af90 9ebd c3ce af3d
00000350: 22b2 edbc 0bb0 98bd d0ea bdbb f80b 7fbd
00000360: eed3 6d3d fea9 87bd a3ba 303d 7d39 2abd
00000370: 2990 ca3d 18cd e53c 48bf 97bd 450f 87bd
00000380: 4521 153d 0fdb c6bc 526a 973d 5f4b 81bd
00000390: b61c e13c 9c83 a83d 63c0 753d bb6d 9b3c
000003a0: 1d07 9dbd 74dc 96bc fcf8 b53d d028 9a3d
000003b0: 4a1a 91bc bef8 b03d c8ce 8d3d f21c 38bd
000003c0: 9633 cc3c 9649 a63c cd37 ad3d 200c c33d
000003d0: f769 b23d 263e 3ebd 91ae bcbc da1b a5bc
000003e0: 1347 91bd e582 c83d 13c0 2fbb b7ea 8d3d
000003f0: 167f 5a3d c37b 99bd eb80 003c b7b5 dd3c

fc2.bias f4 [200]
0.091439486 -0.09804031 -0.09557942 0.07907277 0.017742475 -0.026150772 0.083340555 -0.030526107
0.08842234 0.065771155 -0.042950325 0.03253876 -0.029145546 -0.013906192 -0.032830756 -0.05296953
0.024266724 0.08986925 -0.039525714 0.04373985 -0.010986037 0.017234573 0.008334291 -0.02925811
0.011390999 -0.005089671 -0.026862318 0.019012682 -0.09598293 0.02209075 0.020955758 0.016499966
0.015008733 0.03897129 0.046928722 0.002584035 0.048513204 0.10587367 0.059268482 0.04695198
0.04621537 0.004524218 0.031067934 -0.065577395 0.027070593 0.047591005 0.06287701 0.07238472
-0.045236055 0.01669896 0.037154663 0.045908585 -0.020123977 -0.007151037 0.08779896 0.044081047
0.086113125 0.037339583 0.014192865 -0.07195175 -0.03063853 -0.06510191 0.023849528 0.04878548
0.018004006 0.01420055 0.027579859 0.073002346 -0.03555475 0.038561933 -0.057017542 -0.09636763
-0.013059601 -0.039964847 -0.0017606493 0.07488477 0.052814033 0.034263022 -0.075610295 -0.032631047
-0.09774235 0.07321994 0.015528646 0.016813956 -0.013962583 -0.026288137 -0.017479338 -0.027425805
0.08734189 -0.08734735 -0.03928753 0.025048029 -0.023730028 0.08852145 -0.09229964 0.018096028
-0.016732676 -0.017368982 -0.06671629 0.032719646 0.08549382 0.005866732 0.0024872401 -0.019983316
-0.07632511 0.000819126 -0.023690665 -0.06717999 0.048845705 -0.0869064 -0.10136117 -0.06798777
-0.02183963 -0.05568251 0.07020564 -0.09269359 0.0064475243 0.050824396 -0.064393155 0.09795579
-0.00086390995 0.028195275 0.002079418 0.047126163 0.06514444 -0.084148526 -0.034802612 0.080879025
-0.04926335 -0.022446863 0.012530867 0.056683723 -0.08209192 0.09061322 -0.054152217 -0.05207971
-0.004106165 0.012655151 -0.014267331 -0.024213731 -0.046080615 0.061714254 0.015214859 0.06627496
0.09534883 0.09904136 0.067459494 0.08443015 -0.07151794 -0.060805254 -0.06790135 0.024620973
0.08203983 -0.018077135 -0.09491057 -0.08822024 0.019492665 -0.015975881 -0.08550189 -0.03946308
0.0071334005 0.059602335 0.06533152 -0.007150688 -0.0025453053 0.068061054 -0.04721176 -0.014475699
-0.0491955 -0.045384333 0.01760857 -0.021612 0.09527725 0.066593476 0.04877716 0.036574885
0.07808951 0.020029612 0.031933248 -0.015421332 0.07865189 0.086694784 0.07343832 0.076694936
-0.031618584 0.024108423 -0.07410542 0.0660501 -0.028583447 0.058231182 0.069419086 -0.026597159
-0.05521583 -0.013882428 -0.06460151 0.088638514 0.04569035 -0.056867022 -0.06831198 -0.08057749
00000000: a044 bb3d 5cc9 c8bd 25bf c3bd e8f0 a13d
00000010: ab58 913c 253a d6bc 74ae aa3d e311 fabc
00000020: c616 b53d 07b3 863d aeec 2fbd 5d47 053d
00000030: a4c2 eebc ccd6 63bc 8b79 06bd 94f6 58bd
00000040: 02cb c63c 5f0d b83d b7e5 21bd 8f28 333d
00000050: c7fe 33bc 852f 8d3c 8d8c 083c b4ae efbc
00000060: 50a1 3a3c 41c7 a6bb 5d0e dcbc 7cc0 9b3c
00000070: b392 c4bd a9f7 b43c 69ab ab3c f02a 873c
00000080: 30e7 753c 5ca0 1f3d 5538 403d ea58 293b
00000090: c8b5 463d 4bd4 d83d 82c3 723d b850 403d
000000a0: 544c 3d3d e43f 943b 2e82 fe3c 714d 86bd
000000b0: 26c3 dd3c c9ee 423d a9c5 803d 713e 943d
000000c0: 7149 39bd 42cc 883c 7d2f 183d a40a 3c3d
000000d0: 0adb a4bc 3f53 eabb f1cf b33d 548e 343d
000000e0: 145c b03d 64f1 183d 3189 683c 705b 93bd
000000f0: a8fd fabc 2654 85bd 1660 c33c 49d3 473d
00000100: 237d 933c 6ca9 683c 28ef e13c 4182 953d
00000110: dca1 11bd 1ef3 1d3d 3a8b 69bd 645c c5bd
00000120: f0f7 55bc 2eb2 23bd 96c5 e6ba 305d 993d
00000130: 8753 583d 6257 0c3d 92d9 9abd 22a8 05bd
00000140: 242d c8bd 56f4 953d dd6b 7e3c 6cbd 893c
00000150: 51c3 64bc 385a d7bc d430 8fbc 15ac e0bc
00000160: 4ee0 b23d 2be3 b2bd f6eb 20bd 8631 cd3c
00000170: 7a65 c2bc bc4a b53d 9807 bdbd 1f3e 943c
00000180: f712 89bc 6549 8ebc 8da2 88bd 0905 063d
00000190: 6217 af3d b73d c03b f700 233b 0db4 a3bc
000001a0: 5750 9cbd 9eba 563a ed12 c2bc aa95 89bd
000001b0: 6f12 483d fcfb b1bd 7296 cfbd 2c3d 8bbd
000001c0: 06e9 b2bc 5813 64bd f9c7 8f3d 23d6 bdbd
000001d0: c145 d33b 3e2d 503d 8fe0 83bd 0c9d c83d
000001e0: 0478 62ba c7f9 e63c d846 083b 5d07 413d
000001f0: 736a 853d 1056 acbd 2f8d 0ebd e7a3 a53d
00000200: 5ec8 49bd 7ce2 b7bc 444e 4d3c 312d 683d
00000210: cf1f a8bd 6d93 b93d b7ce 5dbd 8951 55bd
00000220: 028d 86bb 8d57 4f3c 86c1 69bc e05b c6bc
00000230: 07bf 3cbd 16c8 7c3d be47 793c 2bbb 873d
00000240: 3f46 c33d 32d6 ca3d 3428 8a3d b7e9 ac3d
00000250: ff77 92bd ee0e 79bd dd0f 8bbd ecb1 c93c
00000260: 8004 a83d 8016 94bc 7960 c2bd d0ac b4bd
00000270: 15af 9f3c dadf 82bc 9d1b afbd 0aa4 21bd
00000280: 4dbf e93b 9421 743d 88cc 853d 5250 eabb
00000290: 23cf 26bb 9863 8b3d 1e61 41bd 7b2b 6dbc
000002a0: 3881 49bd ece4 39bd d93f 903c a60b b1bc
000002b0: b820 c33d 2962 883d 8fca 473d 8ccf 153d
000002c0: 65ed 9f3d 2415 a43c 70cc 023d c1a9 7cbc
000002d0: 3e14 a13d 098d b13d d466 963d 3c12 9d3d
000002e0: 7d82 01bd 077f c53c 95c4 97bd 4645 873d
000002f0: d527 eabc d283 6e3d 982b 8e3d 49e2 d9bc
00000300: ff29 62bd 2073 63bc cc4d 84bd 1c88 b53d
00000310: ce25 3b3d 65ed 68bd 27e7 8bbd d005 a5bd

fc3.weight f4 [100, 200]
0.038657546 0.043177962 0.032727376 -0.042393498 0.05327688 0.012468292 0.05210695 0.0057223756
-0.027064268 -0.006412641 -0.011644986 -0.011260714 -0.022206424 0.010651892 0.04104956 0.04609167
0.04697156 0.06853064 -0.036608815 -0.009666937 0.00016473368 0.020072605 0.019519933 -0.029853793
-0.018052032 -0.021741724 -0.05963566 0.03828417 0.013048546 0.058401924 -0.06228306 -0.031319264
0.019461934 -0.06496475 -0.02417919 -0.05981147 -0.07082735 -0.06716031 -0.03590937 0.0151467165
0.027627626 0.018031891 0.040837593 -0.011288428 0.03132769 0.05936436 0.007114278 0.055009544
0.037417617 0.06277313 -0.066939704 -0.034677625 -0.015073151 0.063533716 -0.06530353 0.0068730456
-0.02794533 0.01538862 -0.05251733 -0.016413424 0.05822359 -0.06673282 0.01746174 -0.056741737
0.0063021965 0.054214187 -0.033654876 0.040844206 -0.008914484 -0.02898973 -0.02591779 0.00028699875
-0.06539585 -0.06443447 -0.058055457 -0.011338148 0.017148256 -0.0079579 -0.051066976 -0.047364462
-0.023537511 0.04061075 0.04509843 0.06769249 0.0057096817 0.011014196 -0.0116844075 0.032296408
0.01413328 -0.062186282 -0.03631606 0.0073502595 0.03904476 0.0060953535 -0.0130328955 0.02587412
0.0014882584 0.0668267 0.060285524 0.027579844 0.031673018 0.045215778 -0.07077652 -0.045961905
0.018571539 -0.059641834 0.061487515 0.016079392 -0.05387779 -0.021518061 0.04010734 0.053743735
0.044388156 0.047824197 -0.022370437 -0.03595777 -0.034376655 0.027989019 -0.051768262 -0.012239131
-0.07038944 -0.062376037 0.061663937 -0.0503034 0.0129750315 0.005409477 -0.06707218 0.046537884
-0.03474098 -0.05836951 -0.033298314 -0.048776545 -0.07064739 0.03840066 -0.039733425 -0.057660967
0.010571325 0.047327053 -0.051783025 -0.036918927 -0.016154055 -0.057152793 -0.046981253 -0.053030565
-0.052017827 -0.036473762 -0.029201565 -0.018992214 0.038610294 0.0052452562 -0.02050163 -0.030533174
-0.030167643 0.036047406 0.06564934 -0.04540098 0.040972307 0.07025348 -0.06782789 -0.010394242
0.029131252 0.037121955 -0.04724522 0.04346484 -0.049450256 -0.04138439 0.047484785 0.03426698
-0.04256345 -0.06889496 0.03646822 0.035964087 9.1114496e-05 -0.0151660545 0.05806251 0.030896485
0.034916922 -0.041827686 0.043656442 0.0045244014 0.012369951 0.03319254 -0.03545995 0.0096093025
-0.058104374 -0.066819206 0.052050985 -0.04886867 -0.024360865 -0.028703615 -0.051426165 -0.056489944
-0.03664622 0.00092395424 -0.008502095 0.0044102618 -0.050873492 -0.04283008 -0.042212248 -0.033790283
0.01541645 -0.0096063195 0.036588084 0.045195717 0.03053467 -0.02094751 0.04318676 0.024673747
-0.0065246206 -0.043108687 0.00030085977 -0.01819188 0.037690878 0.061933666 -0.020246748 -0.049902525
-0.009092238 0.0034748125 0.06844512 -0.04124208 -0.043256126 -0.07031657 0.05579103 -0.06438648
0.05049513 -0.05648738 -0.057760157 0.02570847 -0.014155789 -0.06680548 -0.040746596 -0.003763122
-0.06676763 -0.0013930039 -0.049495913 -0.017623698 0.05734935 -0.06394619 -0.0025516634 0.04519958
0.056825805 -0.053008094 0.029917184 0.04836501 0.015761584 0.002927351 0.017555906 -0.01111657
0.048984047 -0.008260267 0.045702122 0.0464383 -0.01735795 -0.06950843 0.061987642 -0.04221503
00000000: 6057 1e3d 60db 303d 240d 063d cea4 2dbd
00000010: dc38 5a3d cf47 4c3c 196e 553d c482 bb3b
00000020: e2b5 ddbc 2221 d2bb 9dca 3ebc dc7e 38bc
00000030: 3fea b5bc 4685 2e3c 9523 283d 9eca 3c3d
00000040: 4065 403d cb59 8c3d 20f3 15bd 1362 1ebc
00000050: 5cbc 2c39 4e6f a43c 44e8 9f3c f18f f4bc
00000060: dbe1 93bc b31b b2bc 8644 74bd ddcf 1c3d
00000070: 92c9 553c db36 6f3d 861c 7fbd a148 00bd
00000080: a26e 9f3c 3d0c 85bd 7013 c6bc dffc 74bd
00000090: ee0d 91bd 588b 89bd b415 13bd ef29 783c
000000a0: 5553 e23c 9eb7 933c 5245 273d 19f3 38bc
000000b0: 7751 003d 0b28 733d e41e e93b b051 613d
000000c0: 3743 193d 338f 803d af17 89bd 200a 0ebd
000000d0: 61f5 76bc f71d 823d dbbd 85bd 4937 e13b
000000e0: 9bed e4bc 8d20 7c3c 691c 57bd 7275 86bc
000000f0: dc7b 6e3d 37ab 88bd ec0b 8f3c 066a 68bd
00000100: a882 ce3b b20f 5e3d b2d9 09bd 414c 273d
00000110: 0e0e 12bc df7b edbc 8c51 d4bc 5278 9639
00000120: 42ee 85bd 38f6 83bd 8fcb 6dbd a4c3 39bc
00000130: 807a 8c3c da61 02bc 9b2b 51bd 3d01 42bd
00000140: bdd1 c0bc 7557 263d 22b9 383d 5ca2 8a3d
00000150: 4818 bb3b e374 343c f56f 3fbc 3d49 043d
00000160: 468f 673c 0bb7 7ebd 26c0 14bd 72da f03b
00000170: 66ed 1f3d 88bb c73b ed87 55bc f6f5 d33c
00000180: aa11 c33a 70dc 883d f4ed 763d 20ef e13c
00000190: 91bb 013d 2e34 393d 48f3 90bd 8d42 3cbd
000001a0: 5723 983c ff4a 74bd 55da 7b3d eeb8 833c
000001b0: f5ae 5cbd a546 b0bc 9847 243d 6422 5c3d
000001c0: 5bd0 353d 4ee3 433d 3542 b7bc 7448 13bd
000001d0: 89ce 0cbd 3a49 e53c f50a 54bd a386 48bc
000001e0: 5728 90bd 047e 7fbd 5393 7c3d f00a 4ebd
000001f0: 3a95 543c fb41 b13b 245d 89bd 829e 3e3d
00000200: 8f4c 0ebd de14 6fbd d063 08bd eac9 47bd
00000210: 94af 90bd 034a 1d3d 84bf 22bd e82d 6cbd
00000220: 5a33 2d3c 03da 413d 701a 54bd 4d38 17bd
00000230: 8255 84bc 0c19 6abd 6a6f 40bd 9436 59bd
00000240: a510 55bd 8365 15bd 1f38 efbc 8f95 9bbc
00000250: d425 1e3d 66e0 ab3b 09f3 a7bc b520 fabc
00000260: 2222 f7bc 72a6 133d 2973 863d 61f6 39bd
00000270: 94d2 273d 0ee1 8f3d 59e9 8abd 9c4c 2abc
00000280: aaa4 ee3c 310d 183d 3484 41bd 3008 323d
00000290: 5a8c 4abd ae82 29bd 687f 423d 885b 0c3d
000002a0: 0357 2ebd cd18 8dbd b35f 153d 144f 133d
000002b0: b914 bf38 0b7b 78bc f4d2 6d3d a01a fd3c
000002c0: 0c05 0f3d 8253 2bbd 19d1 323d 6e41 943b
000002d0: 56ab 4a3c e7f4 073d 743e 11bd 5670 1d3c
000002e0: dafe 6dbd 82d8 88bd 6a33 553d 842a 48bd
000002f0: 7090 c7bc d823 ebbc 3ea4 52bd 0062 67bd
00000300: 591a 16bd 8535 723a 5f4c 0bbc f583 903b
00000310: b960 50bd 986e 2fbd c0e6 2cbd ae67 0abd
00000320: 4795 7c3c d363 1dbc 63dd 153d 251f 393d
00000330: d823 fa3c 1d9a abbc 9ae4 303d 9920 ca3c
00000340: 7ccc d5bb bc92 30bd b7bc 9d39 2307 95bc
00000350: c061 1a3d 28ae 7d3d 82dc a5bc 9766 4cbd
00000360: 9cf7 14bc aeb9 633b f42c 8c3d 75ed 28bd
00000370: 562d 31bd 2202 90bd 2385 643d 0fdd 83bd
00000380: fbd3 4e3d 505f 67bd ea95 6cbd 929a d23c
00000390: afed 67bc 50d1 88bd e7e5 26bd b69e 76bb
000003a0: 78bd 88bd 7495 b6ba 3abc 4abd 935f 90bc
000003b0: 27e7 6a3d 38f6 82bd cf39 27bb 3223 393d
000003c0: 2dc2 683d 041f 59bd e214 f53c 641a 463d
000003d0: 701e 813c cdd8 3f3b 67d1 8f3c 4622 36bc
000003e0: 7fa3 483d 1256 07bc 2632 3b3d 1636 3e3d
000003f0: 4232 8ebc 705a 8ebd c1e6 7d3d abe9 2cbd

fc3.bias f4 [100]
0.03120393 -0.045672704 -0.02757718 -0.015241106 0.05315812 -0.053148653 0.059321005 -0.005761224
0.01688813 0.0075059156 -0.03467582 -0.015013659 0.02034154 0.06653185 -0.026926713 0.0011324891
-0.037055604 0.024459293 0.04876299 -0.008405744 -0.045236498 0.00031293932 0.020964514 0.012984877
-0.027669286 0.044472676 0.0067498814 -0.02028761 0.01894684 0.064019375 0.013632671 0.045983795
0.05207087 0.07404106 -0.063327506 -0.04095724 -0.008896342 0.041504413 -0.067081735 0.03586612
-0.04109826 0.027680457 -0.0026363789 -0.045123234 -0.0030458434 0.051423393 0.06307956 -0.07025713
0.038809363 0.02583819 -0.045914568 0.016636735 -0.04248435 -0.06134555 -0.030321782 0.06473872
0.032612134 0.003271129 0.041901417 -0.019564388 0.019575613 0.031257357 -0.07384147 0.024634615
0.006425128 -0.036007054 0.009124968 -0.059421863 -0.06987025 0.009175351 0.01802175 -0.025874177
-0.0034049107 -0.038993467 0.07423076 0.011954733 -0.02500076 -0.03647228 -0.0029039758 -0.033673752
-0.0681522 -0.028983658 0.049797468 0.03626542 0.0056456635 0.012055164 0.08433521 -0.042795938
-0.020689279 -0.04693598 -0.04326847 0.06617875 0.025138915 -0.06484719 -0.021477375 0.072576545
0.056630388 -0.019369619 0.046688724 0.02697615
00000000: 629f ff3c 4d13 3bbd 8ae9 e1bc d5b5 79bc
00000010: 54bc 593d 67b2 59bd 95fa 723d a6c8 bcbb
00000020: fa58 8a3c 2ff4 f53b 3c08 0ebd dafb 75bc
00000030: 4da3 a63c da41 883d 6995 dcbc 0770 943a
00000040: 9ec7 17bd db5e c83c b3bb 473d 3fb8 09bc
00000050: e849 39bd 0112 a439 c6bd ab3c 86be 543c
00000060: b3aa e2bc fb28 363d 1c2e dd3b 3432 a6bc
00000070: 6736 9b3c 971c 833d 915b 5f3c 8159 3c3d
00000080: 4448 553d d7a2 973d dab1 81bd c7c2 27bd
00000090: f6c1 11bc 8800 2a3d 2662 89bd 5ae8 123d
000000a0: a656 28bd 20c2 e23c 19c7 2cbb 24d3 38bd
000000b0: c69c 47bb 56a1 523d db2f 813d f8e2 8fbd
000000c0: 91f6 1e3d 9daa d33c ea10 3cbd c349 883c
000000d0: 1204 2ebd 7945 7bbd 6365 f8bc bc95 843d
000000e0: 4d94 053d 7060 563b d2a0 2b3d 7f45 a0bc
000000f0: 095d a03c b707 003d 323a 97bd 88ce c93c
00000100: e189 d23b 227c 13bd e480 153c 5764 73bd
00000110: 2218 8fbd 3654 163c 59a2 933c 15f6 d3bc
00000120: ec24 5fbb 9db7 1fbd 4c06 983d c9dd 433c
00000130: 65ce ccbc f563 15bd a150 3ebb 7ded 09bd
00000140: 6193 8bbd 236f edbc 6ef8 4b3d 0d8b 143d
00000150: 42ff b83b 0683 453c f0b7 ac3d cb4a 2fbd
00000160: 907c a9bc f13f 40bd 473a 31bd b988 873d
00000170: 20f0 cd3c 9bce 84bd 52f1 afbc 03a3 943d
00000180: 44f5 673d 09ad 9ebc ad3c 3f3d 16fd dc3c

fc7.weight f4 [1, 100]
-0.04825116 0.07521721 0.0098374775 -0.090974584 0.099141344 -0.082939394 -0.09315842 -0.03191275
-0.06791893 -0.051502522 -0.09400688 0.03443433 0.08665126 0.06113071 -0.074099995 0.09543933
0.017248968 -0.02781463 0.07197639 0.06316786 0.03737676 0.084846295 0.088836536 0.07346726
-0.0025098778 -0.041173074 -0.025583137 0.04156282 0.05818165 0.026028398 0.093625486 0.001379494
-0.03950157 0.05355066 0.027241377 -0.052076202 0.083560295 -0.055744667 0.092159964 -0.04116192
0.08643643 0.09348125 0.015251428 -0.08821371 0.073942274 0.07577654 0.11457063 0.098468326
0.049833685 -0.05573127 -0.05470433 -0.03876213 0.0027974215 -0.08762861 0.0029361427 0.06264143
0.039186902 0.030559456 -0.06530005 0.043899786 0.08535246 -0.061624836 -0.033076253 0.027078187
0.08301114 0.08827507 -0.07806338 -0.057249047 0.09931632 -0.023734855 0.102334894 -0.055396363
0.077900045 0.068055354 0.04480264 -0.089947015 -0.06656273 -0.004651477 0.056011796 -0.038322512
-0.054204166 0.021227285 0.0033294137 -0.060545836 -0.06292583 -0.038377166 0.1099948 0.045125686
0.018685311 -0.06201503 -0.03441282 0.12500426 -0.04899445 -0.07796791 -0.05666427 0.10462981
-0.046844047 -0.059194952 0.0020750258 0.015622146
00000000: 02a3 45bd 7b0b 9a3d 5f2d 213c e250 babd
00000010: 9e0a cb3d 21dc a9bd d7c9 bebd f2b6 02bd
00000020: 1419 8bbd 4ff4 52bd ae86 c0bd 030b 0d3d
00000030: 3776 b13d 3264 7a3d bdc1 97bd b275 c33d
00000040: b54d 8d3c 82db e3bc 5c68 933d 275e 813d
00000050: 6018 193d e5c3 ad3d eeef b53d 0176 963d
00000060: c37c 24bb 19a5 28bd ba93 d1bc c73d 2a3d
00000070: e24f 6e3d 8239 d53c b8be bf3d 23d0 b43a
00000080: 66cc 21bd f057 5b3d 4f29 df3c db4d 55bd
00000090: a921 ab3d 8554 64bd 5dbe bc3d 6799 28bd
000000a0: 9505 b13d 1973 bf3d 20e1 793c 64a9 b4bd
000000b0: 0c6f 973d bb30 9b3d 02a4 ea3d c3a9 c93d
000000c0: 681e 4c3d 7946 64bd a611 60bd 0ac5 1ebd
000000d0: f254 373b a176 b3bd 4d6c 403b 264a 803d
000000e0: 7282 203d d357 fa3c 08bc 85bd 43d0 333d
000000f0: 45cd ae3d 536a 7cbd f77a 07bd 13d3 dd3c
00000100: bf01 aa3d 8fc9 b43d b2df 9fbd fa7d 6abd
00000110: 5b66 cb3d 996f c2bc f594 d13d 4ce7 62bd
00000120: 0f8a 9f3d 9b60 8b3d f982 373d 2436 b8bd
00000130: 0a52 88bd 6b6b 98bb a06c 653d 11f8 1cbd
00000140: 3005 5ebd d8e4 ad3c 4b32 5a3b e9fe 77bd
00000150: 42df 80bd 6031 1dbd f444 e13d b6d5 383d
00000160: f011 993c 7903 7ebd 75f4 0cbd 1e01 003e
00000170: 68ae 48bd a4ad 9fbd cb18 68bd 2748 d63d
00000180: 8bdf 3fbd 6876 72bd 28fd 073b 08f4 7f3c
