Amos/Z02.pth (torch, 185583 bytes, 7 tensors)

fc1.weight f4 [100, 52]
0	0x3dd70771	0.10499466
1	0x3d77f6cc	0.0605381
2	0xbd072b18	-0.03300008
3	0x3dee8292	0.11645998
4	0xbdfacbff	-0.122459404
5	0x3d625aad	0.055262256
6	0x3dcf2b04	0.101156265
7	0x3d787d97	0.060666647
8	0x3d73f5d3	0.059560608
9	0x3d30d701	0.043173794
10	0xbcba635c	-0.022752456
11	0x3da982f0	0.082769275
12	0xbd95ea9c	-0.07320139
13	0x3d60eb5f	0.054911967
14	0xbd886b65	-0.06661109
15	0x3df25166	0.11831932
16	0x3de6ff28	0.11279136
17	0x3d1c2790	0.038123667
18	0x3e07f8c2	0.13278487
19	0xbdfe8796	-0.12428205
20	0x3d9e53e0	0.07730842
21	0x3a8c1f01	0.0010690392
22	0x3df246b4	0.11829892
23	0x3e05f83a	0.13082972
24	0xbdd164cf	-0.10224306
25	0xbe09db1c	-0.1346249
26	0x3d981a63	0.07426908
27	0xbe06eb36	-0.13175663
28	0x3e0812aa	0.1328837
29	0x3e014749	0.1262485
30	0xbcf1ef53	-0.029533064
31	0xbe068e6b	-0.13140266
32	0x3aea8d57	0.0017894906
33	0x3de6df67	0.11273079
34	0xbdd91a52	-0.10600723
35	0x3dac7131	0.08420027
36	0x3d343f62	0.04400576
37	0x3d3f091f	0.046639558
38	0x3c22239a	0.009896183
39	0xbd7b5c67	-0.06136742
40	0xbd15a1cd	-0.03653126
41	0xbd60a264	-0.054842368
42	0xbe0d1ec2	-0.13781264
43	0xbdb61dda	-0.088924125
44	0x3e058d9d	0.13042302
45	0x3d8a825b	0.067631446
46	0x3d6ec728	0.0582954
47	0x3e06b928	0.13156569
48	0xbda61614	-0.0810968
49	0x3dda55f4	0.106609255
50	0xbe076e41	-0.13225652
51	0x3df4ba11	0.11949552
52	0x3de8989f	0.11357235
53	0x3e0c1016	0.13678011
54	0x3dd08b26	0.101827905
55	0x3c8adf0e	0.016952064
56	0xbd371162	-0.044694312
57	0xbe07546f	-0.13215803
58	0xbd953b70	-0.072867274
59	0x3b26cbf8	0.0025451165
60	0xbc23af42	-0.009990515
61	0x3dd02d1e	0.101648554
62	0xbd2841a5	-0.04107823
63	0xbd1aa8e0	-0.037758708
64	0xbc12fe15	-0.008971711
65	0x3d9d4a92	0.07680239
66	0xbd389140	-0.045060396
67	0x3b82a328	0.003986735
68	0x3c77c273	0.015122044
69	0x3d50d06e	0.050980024
70	0xbd6f19b1	-0.05837411
71	0xbd9976b4	-0.07493344
72	0xbd4a6306	-0.049410842
73	0xbd823f14	-0.063596874
74	0x3dcf69a1	0.10127569
75	0x3dd490c6	0.10379176
76	0xbd90be78	-0.07067579
77	0xbdd5f911	-0.10447896
78	0xbda8428d	-0.082158186
79	0x3dd96ca6	0.10616426
80	0xbd948fb0	-0.07253969
81	0xbda1e8b0	-0.0790571
82	0xbdfb83f9	-0.12281031
83	0x3de81ce5	0.11333636
84	0x3dc83015	0.09774796
85	0x3c8eb1ab	0.017418703
86	0x3d86d76a	0.06584056
87	0xbca6c589	-0.020357864
88	0xbc848121	-0.016174855
89	0xbe0c622a	-0.13709322
90	0x3d02fd2c	0.031979725
91	0x3d10ae77	0.035322633
92	0x3dd2ed1f	0.102991335
93	0xbd2856ec	-0.04109852
94	0x3d8b639d	0.06806109
95	0x3d9b3094	0.07577625
96	0x3c01a4ee	0.007912857
97	0x3c6de7fc	0.014520641
98	0x3d694a14	0.056955412
99	0x3dadd5e0	0.08488059
100	0xbd691797	-0.056907263
101	0xbd8d37fc	-0.06895444
102	0x3d234d2c	0.03986852
103	0xbca7a742	-0.020465497
104	0x3c27bb38	0.0102375075
105	0xbdc6c3a0	-0.09705281
106	0xbdcedc07	-0.10100561
107	0xbd5fc986	-0.054635547
108	0x3d78cf98	0.06074485
109	0xbdb8a395	-0.09015576
110	0xbcd79f06	-0.026320945
111	0x3dd58062	0.10424878
112	0x3c085c57	0.008322797
113	0xbd6f2f8e	-0.05839496
114	0x3c91929a	0.0177701
115	0xbd5e9e65	-0.054350276
116	0x3c1b0daa	0.009463707
117	0xbdb014b9	-0.085977025
118	0x3b9f653e	0.004864364
119	0x3de8e162	0.11371113
120	0xbe039858	-0.12851083
121	0x3ded67d7	0.115920715
122	0x3d0a6c78	0.03379485
123	0xbd566403	-0.052341472
124	0xbdc277cb	-0.09495505
125	0x3d469c01	0.04848862
126	0x3e052067	0.13000642
127	0x3d22b481	0.039722923
128	0x3c2e72c1	0.010647477
129	0x3dd48816	0.10377519
130	0xbd45bd7a	-0.048276402
131	0x3e0a483a	0.13504115
132	0x3da6c643	0.08143284
133	0xbdf27b0e	-0.11839877
134	0xbdfe011b	-0.124025546
135	0x3e09aae6	0.13444099
136	0x3cbce29c	0.023057275
137	0xbc344572	-0.011002885
138	0x3dec09e5	0.11525325
139	0xbd0512d9	-0.032488678
140	0x3deb5b6c	0.11492047
141	0xbdb3e56b	-0.087839924
142	0xbe036b96	-0.1283401
143	0xbd713cc0	-0.058895826
144	0xbdda5ade	-0.10661863
145	0xbdc7ec8d	-0.09761915
146	0xbd7f2a8e	-0.062296443
147	0x3d8eada9	0.06966717
148	0xbc060ffa	-0.00818252
149	0x3dab326d	0.08359227
150	0x3dff1a49	0.12456185
151	0x3e0289a4	0.12747818
152	0xbb8dd8ce	-0.0043288236
153	0xbe071a6d	-0.13193674
154	0xbdd86110	-0.10565388
155	0x3e00e63b	0.12587826
156	0xbdd90595	-0.10596768
157	0x3dce3054	0.100678116
158	0xbcb7034b	-0.022340437
159	0x3e05b6f8	0.13058078
160	0x3d2beccc	0.041973874
161	0xbd3cbe2e	-0.046079807
162	0x3dd73ab3	0.10509243
163	0x3b5fb1cd	0.0034133077
164	0xbde3b7cc	-0.11119041
165	0xbdf36623	-0.118847154
166	0x3cd7062e	0.026248064
167	0x3d87f6dd	0.06638882
168	0xbcbeb01a	-0.023277331
169	0xbdb3b0b3	-0.08773937
170	0xbcbea99f	-0.023274241
171	0xbdffcc43	-0.12490132
172	0xbd86d8ea	-0.06584342
173	0xbd95b84e	-0.07310544
174	0x3dd8fd98	0.10595244
175	0xbdffa4f8	-0.12482637
176	0x3ce59e75	0.02802966
177	0x3de8598b	0.11345204
178	0x3d3b0d1d	0.045666803
179	0xbce42ccd	-0.027853394
180	0x3d764082	0.060120113
181	0x3c2b0fd4	0.010440785
182	0x3d0ef269	0.03489915
183	0x3dae9b0f	0.08525669
184	0x38e53706	0.0001092982
185	0x3cf4fedc	0.029906683
186	0x3df7b995	0.12095944
187	0xbd49ee33	-0.04929943
188	0xbcd3430c	-0.025788806
189	0xbd9fe7de	-0.07807897
190	0xbdb0f18e	-0.08639823
191	0xbd650842	-0.05591608
192	0xbdc78dfc	-0.09743878
193	0x3d81f8fe	0.063463196
194	0xbd272d98	-0.040814966
195	0xbd0cdfea	-0.03439323
196	0x3d557292	0.052111216
197	0x3de69c05	0.11260227
198	0x3de57c93	0.11205401
199	0x3dabe27e	0.08392809
200	0xbd8197b0	-0.0632776
201	0x3df01b51	0.1172396
202	0x3d25c336	0.04046937
203	0x3d7837f4	0.060600236
204	0xbb764e9d	-0.0037583478
205	0x3d9762cd	0.07391892
206	0x3dfeb20d	0.12436304
207	0xbdd89377	-0.10575002
208	0x3dfa3219	0.122165866
209	0x3dc38bd4	0.095481545
210	0xbd76dbd0	-0.060268223
211	0x3db10d4d	0.08645115
212	0xbd951ff0	-0.07281482
213	0xbce43b11	-0.027860196
214	0x3db39e41	0.08770419
215	0xbd8b86a9	-0.06812794
216	0x3c16faad	0.009215039
217	0xbdfd6435	-0.123726286
218	0x3c88e625	0.016711304
219	0xbd85eb2b	-0.06538995
220	0xbd93f75d	-0.07224915
221	0xbdbf3661	-0.09336544
222	0xbb1173c5	-0.0022194248
223	0x3dc3971d	0.09550307
224	0x3d8defb0	0.069304824
225	0xbb2eb173	-0.002665606
226	0xbd5964ec	-0.053074762
227	0xbdede80a	-0.116165236
228	0xbda9da61	-0.082936056
229	0x3d9fa7ef	0.07795703
230	0x3d09fd7e	0.033689015
231	0xbdaab1e2	-0.0833471
232	0x3d852d0b	0.06502732
233	0x3da03085	0.07821754
234	0x3d5604af	0.05225056
235	0xbda010ac	-0.0781568
236	0x3e063a4b	0.13108175
237	0x3d74451c	0.05963622
238	0xbe04e1f0	-0.12976813
239	0xbe0101c5	-0.12598331
240	0x3dfe5da5	0.12420205
241	0x3df40709	0.11915404
242	0xbd8d6edd	-0.06905911
243	0xbcb03a71	-0.021512242
244	0xbda99cd2	-0.08281864
245	0xbe053dde	-0.13011882
246	0xbe050b0c	-0.12992495
247	0xbd870502	-0.06592752
248	0xbdf6733b	-0.12033697
249	0x3d95b06c	0.073090404
250	0xbddce950	-0.10786688
251	0x3db938de	0.0904405
252	0x3de6ddfa	0.112728074
253	0x3c079a8b	0.008276592
254	0x3b8fc923	0.004387991
255	0xbc591c67	-0.013251401

fc1.bias f4 [100]
0	0x3d106418	0.035251707
1	0xbe09e5b4	-0.13466531
2	0xbdd46235	-0.10370294
3	0x3d2cae4a	0.042158403
4	0x3db14166	0.08655052
5	0x3dc64b4a	0.09682329
6	0xbca3de3a	-0.020003427
7	0x3d53a378	0.051669568
8	0xbdfd2a37	-0.123615675
9	0x3e03e239	0.12879266
10	0xbd1a6109	-0.037690196
11	0x3ca869bb	0.020558229
12	0x3ce36fcc	0.02776327
13	0xbe0dde4c	-0.13854331
14	0xbd899f77	-0.06719869
15	0xbd3aab7c	-0.045573696
16	0xbd3cf10b	-0.046128314
17	0xbd864b23	-0.065573
18	0x3dadffd1	0.08496059
19	0xbd8ecf19	-0.069730945
20	0xbd39963a	-0.045309283
21	0x3d848c07	0.064720206
22	0x3df38299	0.11890144
23	0x3dc28a69	0.09499056
24	0x3cdf57f9	0.027263628
25	0xbdd466e0	-0.10371184
26	0x3d363b0c	0.044489905
27	0xbdf602c9	-0.1201225
28	0x3dd778fd	0.105211236
29	0x3d6e297a	0.058145024
30	0xbe0025e7	-0.12514459
31	0x3cc65f4e	0.024215367
32	0x3de8090d	0.11329851
33	0x3de4becd	0.11169205
34	0x3dd84035	0.105591215
35	0xbd8d8b31	-0.06911314
36	0xbbb2b686	-0.0054538874
37	0x3d69cb12	0.05707843
38	0xbdc509d5	-0.09621016
39	0xbbcec6d4	-0.0063103233
40	0xbd4fbfce	-0.05072003
41	0xbdd8a2ae	-0.10577904
42	0x3e023066	0.12713775
43	0xbdb0e5f3	-0.08637609
44	0xbded9036	-0.11599772
45	0xbe0a7f87	-0.1352521
46	0x3e0a24b5	0.13490565
47	0xbd3c60a1	-0.04599059
48	0x3c3f732e	0.011685176
49	0xbd04a166	-0.032380484
50	0x3e0611a1	0.13092662
51	0xbdb5ea31	-0.08882559
52	0xbd7a76ee	-0.061148576
53	0xbc9bb39d	-0.019006545
54	0x3c2fefed	0.010738355
55	0xbdb64977	-0.08900731
56	0x3d4161b7	0.04721233
57	0xbdb04a5c	-0.08607933
58	0xbd95cdf2	-0.073146716
59	0x3d6704fd	0.05640124
60	0xbd90a0c0	-0.07061911
61	0x3ddd4f10	0.108060956
62	0xbdf9d470	-0.12198722
63	0xbd6032e8	-0.054736048
64	0x3d6b79d3	0.057489228
65	0xbc7b8e21	-0.01535371
66	0x3dacba4d	0.084339716
67	0x3c462f05	0.012096171
68	0xbd84cb01	-0.064840324
69	0x3e03fd08	0.12889493
70	0xbd337051	-0.043808285
71	0x3d8a50be	0.067536816
72	0x3ca74764	0.020419784
73	0x3d2f9f8b	0.04287676
74	0xbcd860e1	-0.026413383
75	0xbe0acbfa	-0.13554373
76	0x3d543285	0.05180599
77	0x3db57eca	0.08862074
78	0x3dbb7cb8	0.091546476
79	0x3e0fdee6	0.14049873
80	0xbe09333d	-0.13398452
81	0x3d8d8ddd	0.06911824
82	0x3e082b09	0.13297667
83	0x3df571c7	0.11984592
84	0xbdacb427	-0.08432799
85	0x3e0ae9fd	0.13565822
86	0x3dfaa13a	0.12237783
87	0xbe0a35f1	-0.1349714
88	0xbda0eaad	-0.07857261
89	0xbd5aa889	-0.053383384
90	0x3c98f402	0.01867104
91	0x3d963ddc	0.073360175
92	0x3ad953ce	0.0016580762
93	0x3cebbeb1	0.028777452
94	0x3d539f9a	0.05166588
95	0x3c9395d0	0.018015772
96	0x3d80b83d	0.06285141
97	0x3e070d4a	0.13188663
98	0x3d4acb86	0.0495105
99	0x3ddcb7f3	0.10777273

fc2.weight f4 [200, 100]
0	0x3d4bd3bd	0.049762476
1	0x3b477061	0.0030431973
2	0xbc8f037d	-0.017457718
3	0x3d1d0cf6	0.03834244
4	0x3d82f924	0.06395176
5	0xbd17db35	-0.037074286
6	0x3da51d3f	0.08062219
7	0xbdb339cc	-0.08751258
8	0x3d9f1733	0.07768097
9	0xbbbeb350	-0.0058197156
10	0xbcd4fef2	-0.026000474
11	0x3cc03b20	0.023465693
12	0x3da9984a	0.08281
13	0x3ca7060d	0.020388627
14	0xbd519a67	-0.05117264
15	0x3d769928	0.060204655
16	0xbdc53eec	-0.09631142
17	0x3d51bfcc	0.051208302
18	0xbd675996	-0.05648192
19	0xbd7b2a26	-0.061319493
20	0x3dbbb47d	0.09165285
21	0xbd8c1dbe	-0.0684161
22	0x3d1f8b33	0.03895111
23	0xbc368ade	-0.011141507
24	0x3cdf186e	0.027233329
25	0x3d8ebfb0	0.06970155
26	0xbd395d13	-0.045254778
27	0xbd9ea54b	-0.07746371
28	0xbd850374	-0.06494799
29	0xbc75874c	-0.014985871
30	0x3da0ac47	0.07845359
31	0x3d4114ae	0.047138862
32	0xbcc2346e	-0.023706641
33	0xbd4de05d	-0.050262798
34	0xbdbbac19	-0.091636844
35	0x3d278ada	0.040903904
36	0xbcf8a12d	-0.030350292
37	0xbc1b3ca8	-0.009474911
38	0xbdab3c38	-0.08361095
39	0x3daa5987	0.08317857
40	0xbdca918c	-0.09891042
41	0xbc6e86e5	-0.014558529
42	0xbd24d85f	-0.04024541
43	0xba278c4f	-0.0006391452
44	0xbdbe41c8	-0.092898905
45	0x3ccd914a	0.025093693
46	0x3cb45e52	0.022017632
47	0x3dc5c0cd	0.096559145
48	0xbd88a3a2	-0.066718355
49	0xbd5d441d	-0.054020036
50	0xbda9baf8	-0.082876146
51	0xba61d950	-0.0008615451
52	0x3dafaf4c	0.08578357
53	0xbdb92de1	-0.09041954
54	0xbd959536	-0.0730385
55	0x3d4ab25e	0.04948651
56	0xbd18cde1	-0.037305716
57	0x3d62d3d7	0.055377807
58	0xbd9acb40	-0.07558298
59	0xbda2f7c4	-0.07957414
60	0xbcde7f82	-0.02716041
61	0xbda84c62	-0.08217694
62	0x3d5a1d97	0.053250875
63	0xbd49456a	-0.049138464
64	0x3d39f343	0.045398008
65	0xbd1f7c02	-0.038936622
66	0xbdca88d0	-0.09889376
67	0xbd56263c	-0.052282557
68	0xbc6030a5	-0.013683473
69	0xbd8497dc	-0.064742774
70	0x3db82a47	0.08992439
71	0xbd0b3e75	-0.03399511
72	0xbdbf303e	-0.09335373
73	0xbd87c22e	-0.06628834
74	0x3cbb6990	0.022877485
75	0xbd81e13a	-0.06341787
76	0xbc8de7a0	-0.017322361
77	0x3d6ca384	0.05777313
78	0xbd91b2b4	-0.07114163
79	0xbd78b11f	-0.06071579
80	0xbcca3b0d	-0.02468636
81	0x3b1fc141	0.0024376663
82	0xbabd7b35	-0.0014456274
83	0xbd166242	-0.0367148
84	0xbdba4be7	-0.090965085
85	0xbd31a14e	-0.043366723
86	0xbca8fb28	-0.020627573
87	0xbd4545cf	-0.048162278
88	0xbd640be5	-0.055675406
89	0x3c7f8890	0.015596524
90	0x3b3a3618	0.002841359
91	0x3ad16f47	0.0015978598
92	0xbdc6c8e6	-0.09706287
93	0xbdc60f51	-0.0967089
94	0xbd49f3f5	-0.04930492
95	0x3db5c6ee	0.088758335
96	0xbdc56d8d	-0.09640036
97	0xbda15a3e	-0.078785405
98	0xbd9a2351	-0.07526267
99	0xbda4c337	-0.08045047
100	0xbaf41b01	-0.001862377
101	0x3c773116	0.015087387
102	0xbd4e126f	-0.05031055
103	0xbca8d7d7	-0.020610733
104	0xbd9bf4c8	-0.07615048
105	0xbd872fd8	-0.06600922
106	0x3da4aba0	0.08040547
107	0x3dc284e2	0.09498002
108	0x3d6dd495	0.058064062
109	0x3d75e981	0.06003714
110	0xbac39a3e	-0.0014923287
111	0xbda3a611	-0.07990659
112	0x3d6180e2	0.055054553
113	0x3d885315	0.06656472
114	0xbd8333f6	-0.06406395
115	0xbdb7bd2d	-0.08971629
116	0xbdc8ed44	-0.0981088
117	0x3c3c83da	0.011506045
118	0xbdb8ff91	-0.090331204
119	0x3d6a4503	0.05719472
120	0xbdc4210a	-0.09576614
121	0xbd89e140	-0.06732416
122	0xbda00980	-0.07814312
123	0xbdc972f8	-0.09836382
124	0xbcb6c715	-0.022311727
125	0x3d34295b	0.043984752
126	0x3db4fd05	0.08837322
127	0x3c3669a6	0.011133587
128	0xbd1c9063	-0.038223635
129	0x3d9d46bd	0.07679508
130	0x3cc6cd9e	0.024267968
131	0x3d09d3d7	0.03364929
132	0xbca3b2a9	-0.019982653
133	0xbc046f39	-0.008083158
134	0x3d9a5782	0.07536222
135	0xbb83f835	-0.0040273913
136	0xbca29faa	-0.019851524
137	0x3cd8d9f9	0.026471125
138	0xbd25f765	-0.040519137
139	0xbd865b7d	-0.06560419
140	0xbd62089e	-0.055184
141	0x3cdca9d7	0.026936455
142	0xbd9db34c	-0.07700214
143	0xbb736796	-0.00371406
144	0x3d8b06e8	0.06788427
145	0xbd47d78e	-0.048789553
146	0xbdabd47b	-0.08390137
147	0xbc2d8994	-0.010591883
148	0x3dabebb4	0.08394566
149	0x3d6f273e	0.058387034
150	0xbc8fd65a	-0.017558265
151	0x3d892a90	0.06697571
152	0x3d6791c9	0.056535516
153	0x3d868aff	0.0656948
154	0x3c9d7786	0.019222032
155	0xbcc4d14e	-0.024025586
156	0xbc038ac7	-0.008028693
157	0x3d57a723	0.05264963
158	0xbb194f92	-0.0023393375
159	0xbd0474c4	-0.03233792
160	0x3d9a864e	0.07545148
161	0x3dbf3492	0.09336199
162	0xbd2bac9c	-0.04191266
163	0xbd171eb5	-0.03689452
164	0xbd6e131e	-0.0581237
165	0xbd905a24	-0.07048443
166	0x3d7b7ec9	0.06140021
167	0x3dab752b	0.083719574
168	0x3c603a90	0.013685837
169	0xbc661d38	-0.014045052
170	0x3db71473	0.08939447
171	0xbd808432	-0.06275214
172	0x3d2aa930	0.041665256
173	0x3d882ce7	0.066491894
174	0x3c54f863	0.012998673
175	0x3cb344b7	0.021883352
176	0xbdcb925b	-0.099400245
177	0x3cc1a227	0.02363689
178	0xbdacf159	-0.08444471
179	0x3d816ff1	0.06320179
180	0xbb1b959f	-0.0023740304
181	0x3d2a74db	0.04161535
182	0x3dad3009	0.084564276
183	0x3dbf8e85	0.09353355
184	0x3c879dcd	0.016554737
185	0x3cb27feb	0.021789512
186	0x3ccf7bfa	0.025327671
187	0x3c92edd3	0.017935669
188	0xbced0628	-0.0289336
189	0xbd8cebd5	-0.06880919
190	0x3be1b5f9	0.006888148
191	0xbcf29d03	-0.029615885
192	0x3d25dc2e	0.040493183
193	0xbd0479a5	-0.03234257
194	0xbc6042e8	-0.013687827
195	0x3dc68026	0.09692411
196	0x3c54da45	0.012991493
197	0x3d58b2a9	0.05290476
198	0x3ce5f8cc	0.028072737
199	0xbc97aae6	-0.018514108
200	0x3d86313e	0.06552361
201	0x3d9e1f8b	0.0772086
202	0xbdca2acd	-0.09871445
203	0xbdc6fb61	-0.097159155
204	0x3d9efc71	0.07762993
205	0xbcc6ddd9	-0.024275707
206	0xbd51559a	-0.051107027
207	0xbd12d33e	-0.035845987
208	0xbc0396f5	-0.008031596
209	0x3d422402	0.04739762
210	0xbd9eb5ec	-0.077495426
211	0x3dafd3cf	0.08585321
212	0xbcedbb10	-0.029019862
213	0xbd98b527	-0.07456427
214	0xbbbe1307	-0.005800608
215	0xbd7f702c	-0.062362835
216	0x3d6d6211	0.05795485
217	0xbd87f04e	-0.06637631
218	0x3d308fd0	0.0431059
219	0xbd2a6788	-0.04160264
220	0x3dca4172	0.09875764
221	0x3ce457d1	0.027873905
222	0xbd97fff7	-0.07421868
223	0xbd87338a	-0.06601627
224	0x3d14e588	0.03635171
225	0xbcc63408	-0.024194732
226	0x3d9769bd	0.07393215
227	0xbd8138ef	-0.06309687
228	0x3ce0fde9	0.027464824
229	0x3da85bec	0.08220658
230	0x3d752ff1	0.059860174
231	0x3c9ab91b	0.018887093
232	0xbd9d56b2	-0.076825514
233	0xbc966244	-0.018357404
234	0x3db63fd2	0.088988915
235	0x3d9a002d	0.07519565
236	0xbc903c4d	-0.017606879
237	0x3db0e48b	0.08637341
238	0x3d8dab4f	0.0691744
239	0xbd37b188	-0.04484704
240	0x3cca2fec	0.024681054
241	0x3ca4cbc4	0.020116694
242	0x3dace8d1	0.08442844
243	0x3dc2b949	0.095079966
244	0x3db27252	0.08713211
245	0xbd3e72a1	-0.046496037
246	0xbcbeacae	-0.0232757
247	0xbca4a328	-0.02009733
248	0xbd91717e	-0.07101725
249	0x3dc8b2e9	0.097997494
250	0xbb32b9d5	-0.002727141
251	0x3d8db230	0.06918752
252	0x3d5ae82d	0.053444076
253	0xbd9982f8	-0.074956834
254	0x3c00ca19	0.007860684
255	0x3cdde5a4	0.02708704

fc2.bias f4 [200]
0	0x3dbb5bee	0.091483936
1	0xbdc8605d	-0.09784005
2	0xbdc3b436	-0.09555857
3	0x3da28cba	0.07936998
4	0x3c85c661	0.016329946
5	0xbcd6e359	-0.026231455
6	0x3daaafbc	0.083343
7	0xbcf98a93	-0.030461585
8	0x3db62110	0.08893025
9	0x3d892c62	0.066979185
10	0xbd2f3b5f	-0.04278123
11	0x3d03f920	0.032220006
12	0xbcee3b69	-0.029081063
13	0xbc6c3c2e	-0.014418645
14	0xbd0497db	-0.032371383
15	0xbd57bc1c	-0.05266963
16	0x3cc730e6	0.024315309
17	0x3db77ea0	0.08959699
18	0xbd210ba3	-0.03931774
19	0x3d34d27b	0.044146042
20	0xbc2c7332	-0.010525512
21	0x3c946dd0	0.018118769
22	0x3c00a5db	0.007852043
23	0xbcf06618	-0.029345557
24	0x3c3bb36a	0.01145635
25	0xbba420a4	-0.005008774
26	0xbce22d87	-0.0276096
27	0x3ca4d414	0.020120658
28	0xbdc2f204	-0.09518817
29	0x3cb3209d	0.021866137
30	0x3cac974b	0.021068236
31	0x3c82fd91	0.01599005
32	0x3c77d36f	0.015126093
33	0x3d224a82	0.039621837
34	0x3d3f5a5a	0.046717025
35	0x3b41f323	0.0029594384
36	0x3d3e2313	0.046420168
37	0x3dd9cfc1	0.10635329
38	0x3d71c8ee	0.059029512
39	0x3d4340e0	0.04766929
40	0x3d3f72fa	0.04674051
41	0x3b860915	0.004090438
42	0x3cff043a	0.031129945
43	0xbd869250	-0.06570876
44	0x3ce32455	0.027727285
45	0x3d41e535	0.04733773
46	0x3d80a808	0.062820494
47	0x3d947548	0.07248932
48	0xbd3ac437	-0.04559728
49	0x3c94b3b9	0.018152105
50	0x3d19d9a1	0.037561063
51	0x3d3bd133	0.045853805
52	0xbca4a40a	-0.020097751
53	0xbbebe49d	-0.0071988837
54	0x3db52cb4	0.08846417
55	0x3d3322c1	0.043734316
56	0x3daf5e14	0.08562866
57	0x3d1ca843	0.038246404
58	0x3c672b44	0.014109436
59	0xbd92a58e	-0.07160483
60	0xbcfa2326	-0.030534338
61	0xbd8662c6	-0.06561808
62	0x3cbeb3e9	0.023279147
63	0x3d494582	0.049138553
64	0x3c91fe7c	0.017821543
65	0x3c697088	0.014248021
66	0x3ce2f63d	0.027705306
67	0x3d95de2c	0.073177665
68	0xbd10e6d4	-0.035376385
69	0x3d1d9d6f	0.03848022
70	0xbd66a706	-0.05631163
71	0xbdc3cd34	-0.09560624
72	0xbc54c5f1	-0.012986646
73	0xbd24c3ff	-0.04022598
74	0xbaf9f863	-0.0019071217
75	0x3d9a867c	0.07545182
76	0x3d563cfe	0.05230426
77	0x3d0efce4	0.034909144
78	0xbd9a52e2	-0.0753534
79	0xbd05f614	-0.03270538
80	0xbdc83e98	-0.09777564
81	0x3d96ab90	0.07356942
82	0x3c76912e	0.015049262
83	0x3c897b4a	0.016782422
84	0xbc5ef4ec	-0.013608199
85	0xbcdf10e6	-0.027229737
86	0xbc928f94	-0.017890729
87	0xbce07abc	-0.027402274
88	0x3db42b65	0.08797339
89	0xbdb3905d	-0.087677695
90	0xbd214b30	-0.039378345
91	0x3ccca8e5	0.024982879
92	0xbcc29535	-0.023752788
93	0x3db47e6a	0.08813174
94	0xbdbc3301	-0.09189416
95	0x3c89559e	0.016764458
96	0xbc8500e0	-0.016235769
97	0xbc8f3335	-0.017480472
98	0xbd883ac8	-0.06651837
99	0x3d06e644	0.032934442
100	0x3dafd413	0.08585372
101	0x3bc4b30d	0.00600279
102	0x3b24b775	0.0025133763
103	0xbc9b5652	-0.01896206
104	0xbd9aebb7	-0.0756449
105	0x3b019e40	0.0019778162
106	0xbcc2ee4a	-0.023795266
107	0xbd89c680	-0.06727314
108	0x3d48a670	0.048986852
109	0xbdb21468	-0.086952984
110	0xbdcfc8f0	-0.10145748
111	0xbd8b9f9d	-0.06817553
112	0xbcb0916d	-0.02155372
113	0xbd640538	-0.05566904
114	0x3d8fffc3	0.070312046
115	0xbdbd8512	-0.09253897
116	0x3beebce5	0.0072857016
117	0x3d4f6fee	0.050643854
118	0xbd840ac4	-0.06447366
119	0x3dc7e8f8	0.09761232
120	0xbaaaab84	-0.0013021086
121	0x3ce12de7	0.027487708
122	0x3b118f2e	0.0022210586
123	0x3d49bc42	0.049251802
124	0x3d841b48	0.06450516
125	0xbdacb59d	-0.084330775
126	0xbd0cc9c6	-0.034372114
127	0x3da5c0a7	0.08093386
128	0xbd49536d	-0.049151827
129	0xbcb5661e	-0.02214342
130	0x3c4cf0bb	0.0125085665
131	0x3d687668	0.056753546
132	0xbda7e94f	-0.08198797
133	0x3dba67df	0.09101843
134	0xbd5ee6a8	-0.05441919
135	0xbd54efba	-0.051986434
136	0xbb8e0ce7	-0.004335034
137	0x3c472d27	0.012156761
138	0xbc717e8d	-0.014739645
139	0xbcc00551	-0.023440035
140	0xbd3f4480	-0.046696186
141	0x3d7c15e7	0.061544325
142	0x3c80af29	0.015708523
143	0x3d893134	0.06698838
144	0x3dc33a29	0.095325775
145	0x3dcbc566	0.0994976
146	0x3d8a7ba9	0.067618676
147	0x3dab956a	0.08378108
148	0xbd91b08c	-0.07113752
149	0xbd7967a7	-0.060889866
150	0xbd8af29a	-0.06784554
151	0x3cc977e4	0.024593301
152	0x3da80349	0.082037516
153	0xbc930f9d	-0.01795178
154	0xbdc276ad	-0.09495292
155	0xbdb423c7	-0.087958865
156	0x3c9dd147	0.01926483
157	0xbc8427fb	-0.016132345
158	0xbdaf4df7	-0.085597925
159	0xbd2136cf	-0.03935891
160	0x3bdbf133	0.006712103
161	0x3d7187c4	0.058967367
162	0x3d85dfb0	0.06536806
163	0xbbe60850	-0.007020034
164	0xbb2acf86	-0.0026063635
165	0x3d8c298c	0.06843862
166	0xbd430d6e	-0.04762023
167	0xbc61fe9c	-0.013793614
168	0xbd4c6eab	-0.04991023
169	0xbd3af760	-0.04564607
170	0x3c8cc035	0.017181495
171	0xbcb08800	-0.021549225
172	0x3dc372b8	0.09543365
173	0x3d88c2fb	0.066778146
174	0x3d4a00d0	0.04931718
175	0x3d171ea4	0.036894456
176	0x3d9f635f	0.077826254
177	0x3ca3cf12	0.0199962
178	0x3d034138	0.03204462
179	0xbc78828e	-0.015167845
180	0x3da27ca8	0.079339325
181	0x3db24e06	0.08706288
182	0x3d95cd9a	0.07314606
183	0x3d9cb13a	0.07650991
184	0xbd01f466	-0.031727217
185	0x3cc758d1	0.024334343
186	0xbd97931e	-0.07401107
187	0x3d877d1e	0.06615661
188	0xbceaabb9	-0.028646337
189	0x3d705212	0.05867202
190	0x3d8ffdc3	0.07030823
191	0xbcd8386b	-0.02639409
192	0xbd64bfee	-0.0558471
193	0xbc64c410	-0.013962761
194	0xbd82f8dd	-0.06395123
195	0x3db61213	0.08890166
196	0x3d3b1c3e	0.04568123
197	0xbd69f6d0	-0.057120144
198	0xbd8bcb07	-0.06825834
199	0xbda4b5d5	-0.08042494

fc3.weight f4 [100, 200]
0	0x3d1e5188	0.038651973
1	0x3d30aa3c	0.0431311
2	0x3d05c781	0.032660965
3	0xbd2e7fe9	-0.042602453
4	0x3d59932c	0.05311887
5	0x3c4ccf5d	0.012500611
6	0x3d54e180	0.051972866
7	0x3bbb7397	0.0057205665
8	0xbcde9d9a	-0.02717476
9	0xbbd8510a	-0.0066014575
10	0xbc3ebfde	-0.011642424
11	0xbc35e3b9	-0.011101657
12	0xbcb623ca	-0.022233862
13	0x3c2d5d59	0.010581338
14	0x3d284cad	0.04108875
15	0x3d3cdd32	0.046109386
16	0x3d4053ba	0.046954848
17	0x3d8c7ba3	0.06859519
18	0xbd16253c	-0.036656603
19	0xbc1f523a	-0.009724194
20	0x3602c25a	1.9484637e-06
21	0x3ca4b13f	0.020104049
22	0x3c9f5ede	0.019454416
23	0xbcf5d6ca	-0.030009646
24	0xbc93c774	-0.018039443
25	0xbcb25917	-0.021770997
26	0xbd7463f0	-0.05966562
27	0x3d1c6077	0.038177934
28	0x3c576c41	0.013148368
29	0x3d6ee781	0.058326248
30	0xbd7fa78a	-0.062415637
31	0xbd0052a3	-0.03132881
32	0x3c9e9ca7	0.019361807
33	0xbd856c5a	-0.06514807
34	0xbcc64b29	-0.024205761
35	0xbd752af9	-0.059855435
36	0xbd915f05	-0.07098202
37	0xbd897962	-0.06712605
38	0xbd13271f	-0.03592598
39	0x3c753b69	0.014967778
40	0x3ce222c0	0.02760446
41	0x3c915e3c	0.01774513
42	0x3d275467	0.040851977
43	0xbc39538f	-0.011311426
44	0x3d005ace	0.031336598
45	0x3d72920f	0.059221324
46	0x3be2a2a8	0.006916363
47	0x3d622ac4	0.055216566
48	0x3d191cd9	0.037381027
49	0x3d809032	0.06277503
50	0xbd893c55	-0.067009605
51	0xbd0e547f	-0.03474855
52	0xbc7907c8	-0.015199609
53	0x3d823258	0.063572586
54	0xbd857c16	-0.06517808
55	0x3bdd43af	0.0067524533
56	0xbce677b1	-0.028133245
57	0x3c7bc376	0.015366426
58	0xbd571e64	-0.052519217
59	0xbc8662f8	-0.016404614
60	0x3d6ea19d	0.058259595
61	0xbd88972a	-0.06669457
62	0x3c8c251a	0.017107535
63	0xbd68473a	-0.056708552
64	0x3bce7802	0.006300927
65	0x3d5df329	0.054186974
66	0xbd0a1d93	-0.03371961
67	0x3d263836	0.04058095
68	0xbc1401d2	-0.009033637
69	0xbcef35f5	-0.029200533
70	0xbcd463a2	-0.025926415
71	0x38f1ab66	0.00011523701
72	0xbd85daf0	-0.065359
73	0xbd83eb5f	-0.06441378
74	0xbd6d784b	-0.05797605
75	0xbc38e2b0	-0.011284515
76	0x3c8b4e04	0.017004974
77	0xbc048435	-0.008088161
78	0xbd519067	-0.051163103
79	0xbd41bf33	-0.047301482
80	0xbcc0b6a8	-0.023524597
81	0x3d25e48b	0.04050116
82	0x3d38475d	0.044989932
83	0x3d8a397f	0.06749248
84	0x3bb8a049	0.005634342
85	0x3c3334e5	0.010937904
86	0xbc3f6c7a	-0.011683578
87	0x3d04062f	0.03223246
88	0x3c673247	0.014111108
89	0xbd7ea9e5	-0.062173743
90	0xbd14a239	-0.03628752
91	0x3beeec46	0.0072913496
92	0x3d1f2e4e	0.03886252
93	0x3bc53755	0.006018559
94	0xbc559c08	-0.013037689
95	0x3cd2f70c	0.025752567
96	0x3ac193c8	0.0014768774
97	0x3d88ca27	0.066791825
98	0x3d76f3d3	0.060291123
99	0x3ce13c36	0.027494531
100	0x3d018666	0.031622313
101	0x3d3950d9	0.045243118
102	0xbd914c5b	-0.07094642
103	0xbd3c7661	-0.046011332
104	0x3c975f10	0.018477947
105	0xbd74a2be	-0.059725516
106	0x3d7bb564	0.061452284
107	0x3c834336	0.01602326
108	0xbd5bfadc	-0.053706035
109	0xbcb05021	-0.021522583
110	0x3d23fe99	0.040037725
111	0x3d5b813d	0.053590048
112	0x3d35b820	0.04436505
113	0x3d43ea51	0.047830883
114	0xbcb79421	-0.0224095
115	0xbd1331c6	-0.03593614
116	0xbd0d26ac	-0.03446071
117	0x3ce5cb93	0.028051173
118	0xbd53fde8	-0.051755816
119	0xbc4ae0f1	-0.012382732
120	0xbd902fff	-0.070404045
121	0xbd801fe9	-0.062560864
122	0x3d7cbc18	0.061702818
123	0xbd4e80d9	-0.050415847
124	0x3c5319b3	0.012884545
125	0x3baaa1b9	0.005207267
126	0xbd897c39	-0.06713147
127	0x3d3d7084	0.04624988
128	0xbd0e5a88	-0.034754306
129	0xbd6f2469	-0.058384333
130	0xbd0951fc	-0.033525452
131	0xbd47c7db	-0.04877458
132	0xbd908641	-0.07056857
133	0x3d1cd551	0.038289372
134	0xbd2333a5	-0.039844174
135	0xbd6c555e	-0.0576986
136	0x3c2db02c	0.010601085
137	0x3d414595	0.0471855
138	0xbd540d31	-0.051770393
139	0xbd16f92f	-0.036858734
140	0xbc83c329	-0.01608427
141	0xbd6a6621	-0.057226304
142	0xbd40dca3	-0.047085416
143	0xbd598d32	-0.05311317
144	0xbd5482c3	-0.051882517
145	0xbd160606	-0.03662684
146	0xbcefcb0a	-0.029271621
147	0xbc9f0c43	-0.019415027
148	0x3d1e2a0f	0.03861433
149	0x3babfdaf	0.0052487473
150	0xbca805c0	-0.020510554
151	0xbcfa0a39	-0.030522453
152	0xbcf75904	-0.030193813
153	0x3d13f6be	0.036123984
154	0x3d86667e	0.065625176
155	0xbd3a3db3	-0.045468997
156	0x3d27dbae	0.040980987
157	0x3d8fe03c	0.07025191
158	0xbd8af748	-0.067854464
159	0xbc2b7e8a	-0.010467181
160	0x3cee5d1d	0.029097134
161	0x3d174c54	0.036938027
162	0xbd41dce6	-0.047329806
163	0x3d31ea35	0.043436248
164	0xbd4a9e74	-0.04946752
165	0xbd2a1921	-0.04152787
166	0x3d421cfc	0.047390923
167	0x3d0b9514	0.03407772
168	0xbd2e6600	-0.042577744
169	0xbd8d0a63	-0.06886747
170	0x3d159bbf	0.036525484
171	0x3d135726	0.035971783
172	0x3848f75f	4.7914098e-05
173	0xbc7794a8	-0.015111126
174	0x3d6d6de0	0.057966113
175	0x3cfba4b3	0.030718183
176	0x3d0e9f1e	0.034819715
177	0xbd2bbf29	-0.04193035
178	0x3d31ea71	0.04343647
179	0x3b95ee5f	0.004575535
180	0x3c495507	0.0122883385
181	0x3d07dd2d	0.033169914
182	0xbd10f841	-0.035393003
183	0x3c1e783d	0.009672222
184	0xbd6e1526	-0.058125637
185	0xbd88dca4	-0.06682709
186	0x3d55771c	0.052115545
187	0xbd48ac06	-0.04899218
188	0xbcc7fa40	-0.02441132
189	0xbcecbd6d	-0.028898919
190	0xbd52cf91	-0.051467482
191	0xbd67b0a6	-0.05656495
192	0xbd15fd36	-0.036618434
193	0x3a6f5bf6	0.000913083
194	0xbc0ca39f	-0.008583932
195	0x3b900a28	0.004395742
196	0xbd5035f9	-0.050832722
197	0xbd2f39c8	-0.042779714
198	0xbd2cc327	-0.0421783
199	0xbd0b0c23	-0.03394712
200	0x3c7c80e4	0.015411589
201	0xbc1f5179	-0.009724014
202	0x3d148a55	0.036264736
203	0x3d39a7bb	0.045325976
204	0x3cfdf88f	0.031002311
205	0xbcabefbd	-0.02098834
206	0x3d30ced9	0.043166015
207	0x3cca4235	0.024689773
208	0xbbccd585	-0.0062510394
209	0xbd311c91	-0.043240134
210	0x39326736	0.00017013852
211	0xbc9890df	-0.018623767
212	0x3d194e04	0.037427917
213	0x3d7d8881	0.06189776
214	0xbca7f410	-0.02050212
215	0xbd4cd308	-0.050005943
216	0xbc15cd9f	-0.009143262
217	0x3b44450d	0.0029948384
218	0x3d8c1601	0.068401344
219	0xbd288d75	-0.04115053
220	0xbd3316ae	-0.0437228
221	0xbd90a289	-0.07062251
222	0x3d651771	0.05593056
223	0xbd8400ca	-0.06445463
224	0x3d4e3883	0.050346863
225	0xbd67dc31	-0.056606475
226	0xbd6c4831	-0.057686035
227	0x3cd034fb	0.025415888
228	0xbc6e9b8f	-0.014563455
229	0xbd88b276	-0.06674664
230	0xbd2852a1	-0.041094426
231	0xbb701a60	-0.0036636814
232	0xbd88b1c7	-0.06674533
233	0xba7253da	-0.0009244062
234	0xbd4b08f1	-0.049569074
235	0xbc918b2c	-0.017766558
236	0x3d6cc698	0.05780658
237	0xbd8407e5	-0.06446818
238	0xbb215206	-0.002461554
239	0x3d39aaf6	0.045329057
240	0x3d6533f2	0.055957742
241	0xbd58efea	-0.052963175
242	0x3cf37169	0.029717164
243	0x3d45e474	0.048313573
244	0x3c7d4bcd	0.015459967
245	0x3b5c237f	0.0033590493
246	0x3c8a7304	0.016900547
247	0xbc46f5dc	-0.012143578
248	0x3d48f6ac	0.04906337
249	0xbc0a3098	-0.008434437
250	0x3d3af64b	0.04564504
251	0x3d3da0b8	0.04629585
252	0xbc903e18	-0.017607734
253	0xbd8e83eb	-0.06958755
254	0x3d7bd9bb	0.06148694
255	0xbd2ca786	-0.04215195

fc3.bias f4 [100]
0	0x3cf6a100	0.030106068
1	0xbd36f45f	-0.044666644
2	0xbce31758	-0.027721092
3	0xbc719fed	-0.014747602
4	0x3d5f9b6e	0.05459159
5	0xbd5a3ca2	-0.05328048
6	0x3d696ced	0.056988645
7	0xbbbd61d2	-0.0057794834
8	0x3c7e7c68	0.01553259
9	0x3c05a986	0.008158093
10	0xbd0caf66	-0.03434696
11	0xbc6f9cd5	-0.014624794
12	0x3c9ca3d2	0.019121084
13	0x3d8b27a8	0.06794673
14	0xbcdab2a9	-0.02669652
15	0x3b43647a	0.0029814527
16	0xbd17bade	-0.037043445
17	0x3cc051ef	0.023476569
18	0x3d4d95cb	0.05019168
19	0xbbe4ac77	-0.006978567
20	0xbd3a8437	-0.045536246
21	0x3af72822	0.0018856565
22	0x3cc5dc2a	0.024152834
23	0x3c4fb2e9	0.012676933
24	0xbce2c567	-0.02768202
25	0x3d31326c	0.043260977
26	0x3bde34ca	0.0067811953
27	0xbc9e2f49	-0.019309657
28	0x3c995a2c	0.018719755
29	0x3d846838	0.06465191
30	0x3c600d9e	0.013675122
31	0x3d3c795f	0.046014186
32	0x3d52a3dc	0.0514258
33	0x3d99f934	0.07518235
34	0xbd830eaf	-0.06399285
35	0xbd215137	-0.039384093
36	0xbc0f4783	-0.008745077
37	0x3d214bf6	0.039379083
38	0xbd8daed3	-0.06918111
39	0x3d1051b6	0.035234176
40	0xbd284957	-0.041085567
41	0x3cf188ef	0.02948424
42	0xbb264728	-0.0025372002
43	0xbd392305	-0.045199413
44	0xbae565ad	-0.0017501615
45	0x3d5844c5	0.05279996
46	0x3d861018	0.065460384
47	0xbd8fe2f8	-0.07025713
48	0x3d215906	0.03939154
49	0x3cd2ff84	0.025756605
50	0xbd3b3ed7	-0.045714226
51	0x3c810893	0.015751159
52	0xbd2dff82	-0.04248
53	0xbd7917df	-0.06081378
54	0xbcf8668d	-0.030322338
55	0x3d872f64	0.06600836
56	0x3d0788ee	0.03308957
57	0x3b46f431	0.0030357952
58	0x3d200dbf	0.03907561
59	0xbc96d649	-0.018412726
60	0x3cae467b	0.021273842
61	0x3cf33791	0.029689582
62	0xbd96c5ea	-0.07361968
63	0x3cce1b90	0.025159627
64	0x3bea2bac	0.0071463194
65	0xbd0e352e	-0.034718685
66	0x3c25fa18	0.010130428
67	0xbd779419	-0.06044397
68	0xbd8f0f6f	-0.069853656
69	0x3c0e83dc	0.00869843
70	0x3ca0c401	0.019624712
71	0xbcd76611	-0.026293786
72	0xbb3125a1	-0.0027030485
73	0xbd215d4c	-0.039395615
74	0x3d9b6622	0.0758784
75	0x3c596428	0.013268508
76	0xbccd3eb1	-0.025054308
77	0xbd14e361	-0.036349658
78	0xbb58eb55	-0.0033099253
79	0xbd0a2a4a	-0.033731736
80	0xbd8b9361	-0.0681522
81	0xbceb6b28	-0.02873762
82	0x3d4c20b8	0.04983589
83	0x3d0be321	0.034152154
84	0x3bc14934	0.005898619
85	0x3c2d102a	0.010562936
86	0x3db1c6d2	0.086805
87	0xbd338c03	-0.043834697
88	0xbca9fd4f	-0.02075067
89	0xbd3d3efa	-0.046202637
90	0xbd315ff2	-0.04330439
91	0x3d8c9ba6	0.06865625
92	0x3cbe6757	0.023242636
93	0xbd85bea3	-0.06530502
94	0xbcb10bc5	-0.021612057
95	0x3d98d6f3	0.07462873
96	0x3d650343	0.055911314
97	0xbcb80c3c	-0.022466771
98	0x3d3f3ddd	0.046689857
99	0x3cdd1834	0.02698908

fc7.weight f4 [1, 100]
0	0xbd454cf9	-0.04816911
1	0x3d8f57e0	0.06999183
2	0x3bea1bf6	0.0071444465
3	0xbdba705e	-0.091034636
4	0x3dc38a32	0.09547843
5	0xbdaa2fa5	-0.08309869
6	0xbdbdebad	-0.09273467
7	0xbd02bea9	-0.03192011
8	0xbd8b73c2	-0.068091884
9	0xbd58891c	-0.052865133
10	0xbdc04dfe	-0.09389876
11	0x3cf07d4e	0.029356625
12	0x3dae1594	0.085002095
13	0x3d751182	0.05983115
14	0xbd975dfb	-0.07390972
15	0x3db52dfe	0.08846663
16	0x3c8f1723	0.017467087
17	0xbcdeccdd	-0.027197296
18	0x3d8fdf29	0.07024986
19	0x3d80e592	0.06293787
20	0x3d12fce2	0.0358857
21	0x3da63ccc	0.08117065
22	0x3db70d0e	0.08938037
23	0x3d96027e	0.07324694
24	0xbb6b5a86	-0.003591211
25	0xbd261739	-0.04054949
26	0xbcd198ce	-0.025585558
27	0x3d2cd86b	0.04219858
28	0x3d648b75	0.05579706
29	0x3cd40f2c	0.02588614
30	0x3dbd4e98	0.09243506
31	0x3ab25bf6	0.0013607729
32	0xbd1ffc6e	-0.039059095
33	0x3d58a20b	0.05288891
34	0x3cbc753d	0.023005122
35	0xbd60b10d	-0.05485635
36	0x3dab2c86	0.083581015
37	0xbd62fb6c	-0.055415556
38	0x3db87ae0	0.090078115
39	0xbd27ebdc	-0.040996417
40	0x3db10c58	0.086449325
41	0x3dbc59de	0.09196828
42	0x3c5c3239	0.013439708
43	0xbdb4bb48	-0.088247836
44	0x3d9471be	0.07248257
45	0x3d9504ae	0.07276283
46	0x3dea3548	0.11435944
47	0x3dc9a9c3	0.098468326
48	0x3d3df8f8	0.046380013
49	0xbd678635	-0.056524474
50	0xbd605668	-0.054769903
51	0xbd1b61e5	-0.037935156
52	0x3af15939	0.0018413431
53	0xbdbc9c89	-0.09209544
54	0xba3cd19c	-0.0007202865
55	0x3d7d7de8	0.06188765
56	0x3d0e4e57	0.03474268
57	0x3cf868c2	0.03032339
58	0xbd826a8e	-0.0636798
59	0x3d357626	0.04430213
60	0x3dab6faa	0.083709076
61	0xbd7d5d1c	-0.061856374
62	0xbd0b695b	-0.03403602
63	0x3cd488a6	0.025944065
64	0x3da166b0	0.07880914
65	0x3da617e7	0.08110028
66	0xbda0e647	-0.07856422
67	0xbd65196a	-0.05593244
68	0x3dcb6c7e	0.099328026
69	0xbce71d2c	-0.028212152
70	0x3dcb131b	0.099157535
71	0xbd60c1af	-0.05487221
72	0x3d966ac4	0.07344583
73	0x3d86e3cd	0.06586418
74	0x3d49276e	0.04910987
75	0xbdbdc8fa	-0.09266849
76	0xbd8847de	-0.066543326
77	0xbc19de00	-0.009391308
78	0x3d637097	0.055527296
79	0xbd1fad82	-0.03898383
80	0xbd5e0530	-0.054204166
81	0x3cad88bf	0.02118337
82	0x39bdfebc	0.0003623868
83	0xbd707fe9	-0.058715735
84	0xbd80e345	-0.06293348
85	0xbd213d13	-0.039364886
86	0x3ddb2b4e	0.10701619
87	0x3d2505ef	0.04028886
88	0x3c962e24	0.018332548
89	0xbd839b5d	-0.064261176
90	0xbd0cd74b	-0.034385007
91	0x3df60157	0.12011974
92	0xbd38fa3d	-0.04516052
93	0xbda0a706	-0.07844357
94	0xbd682086	-0.05667164
95	0x3dcd701a	0.10031147
96	0xbd416e63	-0.047224414
97	0xbd6c8ca8	-0.057751328
98	0x39d78cc6	0.0004111288
99	0x3c7d17fd	0.015447614
