Amos/Z03.pth (torch, 185583 bytes, 7 tensors)

fc1.weight f4 [100, 52]
00000000: f342 d63d ffcb 753d ecb4 06bd 0db5 eb3d
00000010: dadf f8bd 5eb1 623d 1944 ce3d cdce 763d
00000020: 6ace 713d fe30 2f3d c6d9 b5bc 9fc3 a93d
00000030: dcb7 94bd 975f 623d 4b87 89bd 1601 f13d
00000040: 1916 e73d 1c22 1d3d 136f 073e 8c59 fcbd
00000050: 4319 9e3d 852e 913a 5db5 f23d 24d7 053e
00000060: 2275 d0bd 5216 08be b60d 983d 01f1 06be
00000070: c6f7 073e 0b38 013e 9e63 f1bc b354 06be
00000080: 7aec 023b 55c8 e63d 5137 d9bd 153e ac3d
00000090: ae88 343d 1284 313d 21cf 133c dc17 80bd
000000a0: 3419 1abd b626 65bd 1c21 0ebe c2df b7bd
000000b0: dc76 043e a1f3 873d c9d2 6e3d e8b5 063e
000000c0: 9d3a a6bd 08b7 d93d f540 08be 9cf1 f43d
000000d0: cef4 e83d 4704 0c3e 4243 cf3d fd61 8a3c
000000e0: f7d9 36bd 7e93 07be d6b9 95bd 33fc 263b
000000f0: a69d 21bc 466c d03d 90d5 28bd 609f 1cbd
00000100: f3e2 0cbc 9cc8 9d3d f65f 38bd 1b3c 913b
00000110: bba5 7d3c 8b8d 503d 7089 6fbd 61dc 99bd
00000120: 22d5 49bd f1dc 81bd 31ac cf3d 2651 d43d
00000130: 8895 99bd 74df d5bd 4c3f a8bd 307b d93d
00000140: 9c7e 94bd d5d0 a1bd d695 fbbd eed2 e73d
00000150: d0d3 c73d 9853 8e3c d2e7 863d 4b69 a6bc
00000160: a6b5 84bc 7b21 0ebe 1cbb 053d 0b8b 123d
00000170: 07e4 d33d 5e2b 26bd 6a62 8d3d 0cb7 9c3d
00000180: 23f0 0b3c 23da 773c 0312 693d 23ca ad3d
00000190: a8f2 68bd 7bae 8dbd 606f 233d 0a20 a5bc
000001a0: ff21 223c d74d c6bd 393f cebd 66e5 5fbd
000001b0: 7a5d 763d 4ef3 b6bd 688e d9bc ba39 d63d
000001c0: 80f7 0d3c 6c2c 6ebd e792 903c 71bf 5cbd
000001d0: c92e 103c 54cc afbd bc84 993b 3ae6 e63d
000001e0: 7187 04be 69b5 ed3d 9e69 0c3d a330 58bd
000001f0: a0f5 c3bd 66ff 3f3d 682e 043e c0d6 223d
00000200: 8051 5f3c f20c d53d 7a71 45bd 4e3f 0a3e
00000210: cac1 a63d 8b73 f2bd ddec fdbd 6398 093e
00000220: 79e5 bc3c 9078 33bc 9700 ec3d 6fdf 04bd
00000230: ea4f eb3d e6fa b6bd 899b 03be 30ca 70bd
00000240: f4d9 d9bd 540e c8bd c4b3 7fbd b0fc 8d3d
00000250: 5f7f 04bc 1d77 ab3d 5b22 ff3d cf9f 023e
00000260: 8815 8cbb fca4 06be 9ace d7bd 38cc 003e
00000270: 076a d9bd e4d5 ce3d 3ee1 b4bc cdcc 053e
00000280: 5dba 2e3d 4886 3dbd 8af4 d63d a2fc 773b
00000290: 5ce4 e2bd fef4 f2bd ab3b da3c b0e8 893d
000002a0: d050 c0bc 4d0c b4bd 1631 c2bc a71a 00be
000002b0: 9a8d 87bd ec83 95bd f73c d93d 7653 ffbd
000002c0: 7ad5 e63c e4bf e93d 1cc0 3a3d 4bae e7bc
000002d0: 7387 823d 7b91 293c a9df 0e3d 5890 ae3d
000002e0: 9bb6 2939 d45b f53c 52b3 f73d 3394 4abd
000002f0: 1b52 d4bc 54e2 9fbd 87bc b0bd 68d2 64bd
00000300: efb0 c7bd f9d2 7f3d 3ab3 23bd 88fc 09bd
00000310: a43c 573d 5622 e83d b2df e63d 1936 ad3d
00000320: 75a7 80bd c3b2 f13d cc99 253d 3e35 783d
00000330: 26ef 79bb 70c4 973d f6b5 fe3d 7624 d9bd
00000340: ae08 fb3d 159e c43d 6c16 76bd a385 b13d
00000350: 4573 97bd 9542 e1bc a6c2 b33d d038 8cbd
00000360: 4a41 0b3c 8245 fdbd 41b7 873c 3303 84bd
00000370: e28c 94bd 2ff0 bebd 887d dbba a6dc c23d
00000380: 0318 8c3d d17b 37bb 5ddd 56bd a4c1 edbd
00000390: 088b aabd 8597 9e3d e03d 0a3d b5bd a8bd
000003a0: de84 8d3d a9e6 9f3d 2c0b 563d 9107 a0bd
000003b0: 8c46 063e e286 743d 71e3 04be 0b29 01be
000003c0: 5909 fe3d 240b f43d ba52 8dbd 988b afbc
000003d0: d6b5 a9bd ef04 07be 9181 04be d1dd 85bd
000003e0: e706 f5bd 5dbf 963d 3ebb dbbd bf43 ba3d
000003f0: c975 e83d abbd 113c a2e7 8f3b e5d0 58bc
0.10461988 0.060009 -0.032887384 0.11509142 -0.12152071 0.05534493 0.10071582 0.060255814
0.059034742 0.042771332 -0.022198569 0.08289265 -0.07261631 0.055266943 -0.06715258 0.11767785
0.11283512 0.038362607 0.13225965 -0.12321767 0.07719662 0.0011076486 0.118509986 0.13070351
-0.10178591 -0.13289765 0.0742449 -0.13177873 0.13278112 0.12619035 -0.029466446 -0.13118248
0.0019977377 0.11268679 -0.10606254 0.08410279 0.04407566 0.043338843 0.009021551 -0.06254551
-0.03762169 -0.05594512 -0.13879818 -0.08978225 0.12935966 0.066382654 0.05830649 0.13155329
-0.08116648 0.106306136 -0.13306029 0.11960146 0.11374818 0.13673507 0.1012025 0.016892428
-0.04464146 -0.13239858 -0.07310836 0.0025479912 -0.0098642465 0.101769015 -0.041219294 -0.03823793
-0.008599031 0.07704279 -0.04501339 0.004432214 0.015481408 0.050916236 -0.05848068 -0.07512737
-0.049275525 -0.06340969 0.10140265 0.1036704 -0.07499224 -0.10443011 -0.08215198 0.10619199
-0.07250711 -0.0790116 -0.12284438 0.113195285 0.09757197 0.017373845 0.06587185 -0.02031388
-0.016199898 -0.1387996 0.032649145 0.035777133 0.10346227 -0.040568702 0.069035366 0.07652101
0.00854114 0.015127691 0.056901943 0.0848582 -0.05687204 -0.06918045 0.039901137 -0.020156879
0.009895801 -0.096828155 -0.100706525 -0.05466213 0.06014774 -0.089331254 -0.026557162 0.10460229
0.008664966 -0.058147833 0.017648173 -0.05389351 0.008800217 -0.08583894 0.0046850126 0.11274381
-0.12942292 0.11606867 0.034280412 -0.05278076 -0.095683336 0.046874426 0.12908328 0.039755583
0.013630271 0.1040286 -0.048203923 0.13500711 0.08142431 -0.11838444 -0.12398694 0.13437037
0.02305864 -0.010954037 0.1152355 -0.032439645 0.11489852 -0.08934574 -0.128523 -0.05878657
-0.106372744 -0.09768358 -0.062427297 0.06932962 -0.008087008 0.083723284 0.12457725 0.12756275
-0.0042750277 -0.13148874 -0.10537453 0.12577903 -0.10615926 0.1009939 -0.02208006 0.13066407
0.0426582 -0.04627064 0.10495861 0.003783979 -0.11078712 -0.11863135 0.02663978 0.06733835
-0.023476034 -0.08791409 -0.023705047 -0.12510167 -0.06618805 -0.07300553 0.10607331 -0.12467091
0.028177965 0.11413553 0.045593366 -0.028281352 0.06373491 0.010349627 0.034881268 0.08523625
0.00016185122 0.029951014 0.120947495 -0.04945774 -0.025918057 -0.078068405 -0.08629709 -0.05586472
-0.09750544 0.06245706 -0.039965846 -0.0336881 0.052548066 0.11334674 0.11273135 0.08457584
-0.0628194 0.11801674 0.040429875 0.06059765 -0.0038136928 0.07410514 0.1243705 -0.106026575
0.12257515 0.09600464 -0.060079977 0.08668067 -0.07395033 -0.02749757 0.087773606 -0.068467736
0.008499453 -0.12366773 0.016566874 -0.06445923 -0.07253434 -0.09323155 -0.0016745785 0.095147416
0.06840517 -0.0027997384 -0.052457202 -0.116092 -0.08327299 0.07743744 0.033750415 -0.08239309
0.06910108 0.07807667 0.052256748 -0.07813943 0.13112849 0.059698947 -0.12977387 -0.12613313
0.12404127 0.119161874 -0.069005445 -0.021428868 -0.082866356 -0.13185476 -0.1294005 -0.06536449
-0.11964207 0.073607184 -0.10729073 0.09094953 0.11350591 0.008895318 0.0043916265 -0.013233398

fc1.bias f4 [100]
00000000: 94ee 073d ce86 08be 7745 d4bd 7a73 323d
00000010: 46b0 b33d 5be0 c63d 3da8 a5bc c468 533d
00000020: dcdc fdbd 6976 033e 82f5 1fbd 89d6 aa3c
00000030: d7aa da3c feac 0ebe 304e 8bbd 20f8 3fbd
00000040: 355f 40bd 4719 85bd 799b af3d 8f47 8bbd
00000050: 11fc 39bd 7ba1 7f3d 30f1 f33d f572 c13d
00000060: 9602 d63c 6588 d7bd 02a1 363d e2ac f6bd
00000070: e487 d83d f81e 6d3d aa3e 02be d753 c43c
00000080: d4c2 e93d 3cc1 e33d 138f d83d 5a96 8fbd
00000090: 83a9 bdbb ef4f 6f3d 9347 c5bd 670a a8bb
000000a0: ba5b 57bd 0bd4 d8bd 35fb 003e 6210 b0bd
000000b0: 07d2 eebd 1ed3 09be fcd7 053e 2b9d 38bd
000000c0: a321 343c 2666 05bd e971 073e 6dc6 b6bd
000000d0: 0810 70bd 4018 88bc 6dc1 283c 5aaf b5bd
000000e0: 3ff6 3e3d 4d1e b2bd 136d 98bd 91a4 663d
000000f0: ec81 92bd 6d05 d93d 16aa f9bd 6f09 61bd
00000100: b76e 6d3d c2b5 85bc fb1d ae3d 5515 523c
00000110: 208d 86bd 3caa 033e 8c8c 36bd 8ef5 883d
00000120: dd69 a13c 1b22 293d a70f ddbc ddb5 0bbe
00000130: 3e3b 583d 9f5b b63d 6d11 bb3d fca4 0d3e
00000140: ecc1 09be c321 903d a70b 093e b8fb f53d
00000150: 0cf7 abbd b29f 0a3e 711d f93d e3ed 0abe
00000160: 0cf8 9fbd 529b 57bd a280 8e3c 0439 943d
00000170: c69a d73a e586 ee3c 8e9b 553d 3cdf 843c
00000180: 0f3e 7f3d d751 063e 1f17 4e3d 8161 d93d
0.03318651 -0.13332674 -0.10364812 0.04356716 0.08773856 0.09710761 -0.020221824 0.051613584
-0.12395641 0.12838139 -0.039052494 0.020854251 0.02669279 -0.13933179 -0.068020225 -0.04686749
-0.046965797 -0.06498962 0.08574576 -0.06800758 -0.045406405 0.06240986 0.11911237 0.094457544
0.02612428 -0.10524062 0.044587143 -0.120446935 0.10572794 0.057890862 -0.12719217 0.02396576
0.11414114 0.11120841 0.10574164 -0.07011099 -0.0057880296 0.05842584 -0.09632792 -0.005128193
-0.05257771 -0.10587319 0.12595828 -0.08596875 -0.11661153 -0.13459441 0.13070673 -0.045071762
0.010994348 -0.03256812 0.13227047 -0.089245655 -0.05860904 -0.016613126 0.010300023 -0.08871336
0.046621557 -0.08697186 -0.07442679 0.056309287 -0.07153687 0.10596738 -0.121906444 -0.054940637
0.057966914 -0.01632202 0.08501812 0.012822469 -0.06569886 0.12857908 -0.04456763 0.06687461
0.0197038 0.04129229 -0.026985003 -0.13643594 0.052790873 0.08904194 0.09134183 0.13832468
-0.13452882 0.070376895 0.13383351 0.12010902 -0.0839673 0.13537481 0.12163819 -0.13567309
-0.07810983 -0.05263836 0.017395321 0.07237437 0.0016449324 0.029117057 0.0521503 0.016219728
0.062315043 0.13117157 0.05031502 0.106143005

fc2.weight f4 [200, 100]
00000000: 2d86 4c3d cf49 473b 9204 8fbc 9afa 1c3d
00000010: e2fd 823d 79e2 17bd 1687 a53d 312b b3bd
00000020: eb18 9f3d 7ff2 b8bb cb08 d4bc 003a c03c
00000030: cb5a a93d eecc a63c 5097 51bd 8402 773d
00000040: 7513 c5bd 63a0 513d 8591 67bd 454d 7bbd
00000050: a3b1 bb3d cc37 8cbd 4db1 1f3d 799b 36bc
00000060: 15be de3c 50fd 8e3d 0254 39bd 8785 9ebd
00000070: af01 85bd fd9c 71bc 4e9c a03d d361 413d
00000080: 8b6e c2bc 11f4 4dbd 1154 bbbd e855 283d
00000090: 9463 f8bc 9f2f 1bbc 6e1e abbd dffa aa3d
000000a0: 896d cabd 000a 6dbc 7e8d 24bd 1f75 26ba
000000b0: 7a4d bebd 900c ce3c 01d6 b43c 1a00 c63d
000000c0: c289 88bd 2608 5dbd a6b2 a9bd a52b 64ba
000000d0: ecf0 af3d 1619 b9bd 1972 95bd 50d4 4a3d
000000e0: e499 18bd fff3 623d 08b7 9abd e1be a2bd
000000f0: bdb3 debc 9033 a8bd 381e 5a3d 1717 49bd
00000100: c8f0 393d e87e 1fbd 0d6d cabd 0324 56bd
00000110: a674 5fbc 09a9 84bd 1c2f b83d 44e4 0abd
00000120: 6a49 bfbd accb 87bd f704 bb3c a4bd 81bd
00000130: e440 8dbc 3496 6c3d de9d 91bd 225e 78bd
00000140: 4f63 cabc 03a4 263b 5617 91ba 2144 16bd
00000150: c123 babd a96a 31bd f10f a8bc ac01 45bd
00000160: 2fcc 63bd ba1f 813c 6298 3f3b 263b df3a
00000170: 9bb6 c6bd 9fd3 c5bd bb63 49bd 1926 b63d
00000180: 9d49 c5bd ac4d a1bd 4d44 9abd 88d5 a4bd
00000190: b754 9dba 7828 743c c69a 4ebd 86fa a3bc
000001a0: 477f 9bbd 798b 86bd a861 a53d 2523 c23d
000001b0: 5f2f 6e3d 7814 783d fd77 caba 7093 a3bd
000001c0: 9908 633d c1f3 873d c055 83bd 1e77 b7bd
000001d0: d6ae c7bd a975 403c cb2b b9bd 96d2 693d
000001e0: c264 c4bd d330 89bd 0f0f a0bd fd9e c9bd
000001f0: a306 b6bc 00ed 353d aace b43d 4d3a 3b3c
00000200: 2664 1dbd f622 9f3d a258 c63c 6020 0a3d
00000210: 6b0b a5bc 4625 05bc e6c6 9b3d 33c6 66bb
00000220: 204b a0bc b24e d63c 400d 25bd 3800 85bd
00000230: d5bd 5fbd 3ffa e23c 83a3 9dbd b624 66bb
00000240: 3453 8a3d 351d 48bd 9fa5 aabd 8c2c 2bbc
00000250: 34fc ab3d cc74 6f3d 9d6b 91bc bf26 893d
00000260: 35e9 683d 9890 863d b177 9e3c ec51 c5bc
00000270: c072 00bc 006f 593d 9d74 25bb 3baa 04bd
00000280: f446 9a3d 4bc5 bf3d 5306 2cbd 4af6 16bd
00000290: 0383 6ebd 07fa 8fbd a6e4 7a3d 8b88 ab3d
000002a0: d260 613c 88ac 63bc 6ed1 b63d d0a8 7fbd
000002b0: 3dd0 2a3d ed97 883d beda 593c 6d1a b73c
000002c0: 3773 cbbd 52d3 c13c 72fc acbd 08ed 813d
000002d0: 0a69 12bb eece 293d 592f ae3d d708 c03d
000002e0: 3d81 8a3c 1c65 b33c a735 d43c 2a69 933c
000002f0: a3e0 ebbc 1930 8cbd 5752 e93b 52a8 efbc
00000300: 3026 273d ced4 03bd f67b 5bbc 7620 c73d
00000310: 83cf 543c 5a58 593d 2858 e53c 6f3c 95bc
00000320: 362e 853d 8324 9d3d d86d cabd 972e c8bd
00000330: d2b2 9e3d 68dc c7bc 5d69 53bd 32cb 13bd
00000340: 6ea5 06bc 9462 403d d9b3 9fbd 5baa af3d
00000350: 511a f0bc 2d52 99bd 4fe6 ccbb a5ac 80bd
00000360: e13f 6b3d c6b5 88bd a53d 2e3d 743b 2cbd
00000370: 78c2 c83d 498b e03c fa76 98bd a30b 87bd
00000380: 87a5 133d a431 c8bc 4fbc 963d 5884 81bd
00000390: db3a df3c 2a7d a83d 5002 743d 312e 953c
000003a0: 983a 9ebd 3219 98bc bbff b43d 164a 993d
000003b0: 3246 93bc 4c50 b03d 0f9d 8c3d 2bf6 38bd
000003c0: 2713 c73c 6a61 a23c 3b1e ac3d e8fa c13d
000003d0: 719a b13d 47d3 3ebd ca0d bfbc 2f6c a9bc
000003e0: c08b 92bd 2a70 c83d 2916 3cbb c724 8d3d
000003f0: 6988 5a3d 089d 9abd 9845 f73b 8f07 dc3c
0.049932647 0.0030408984 -0.017458234 0.03832493 0.063960806 -0.037081216 0.08082406 -0.087484725
0.077684246 -0.005644142 -0.025883099 0.023465157 0.082692705 0.02036139 -0.051169693 0.060305133
-0.09622852 0.051178347 -0.056535263 -0.061352987 0.09164741 -0.0684658 0.038987447 -0.011145466
0.027190248 0.06981909 -0.04524613 -0.07740312 -0.06494462 -0.014746902 0.07842313 0.047212433
-0.023734352 -0.050281588 -0.09146894 0.04109755 -0.03032092 -0.009471803 -0.083554134 0.08348631
-0.098841734 -0.014467716 -0.040174 -0.000634985 -0.09292121 0.025152475 0.022074701 0.09667988
-0.066669 -0.05396285 -0.082860276 -0.00087040133 0.08590874 -0.09037988 -0.07297153 0.049518883
-0.037256137 0.055408474 -0.07554442 -0.079465635 -0.027185315 -0.0821296 0.053251475 -0.049094286
0.045395643 -0.038939387 -0.09884081 -0.052280437 -0.013638651 -0.064775534 0.089933604 -0.033909097
-0.093401745 -0.06630644 0.022829516 -0.06334999 -0.017242856 0.057760432 -0.07110189 -0.060636647
-0.024705557 0.0025427348 -0.0011069577 -0.036686067 -0.09088851 -0.04331461 -0.020515414 -0.048097298
-0.055614647 0.015762199 0.0029235114 0.0017031177 -0.09702798 -0.09659504 -0.049167376 0.08893985
-0.09633181 -0.07876143 -0.075325586 -0.0804854 -0.0012003396 0.014902227 -0.050440572 -0.02001692
-0.075926356 -0.06569571 0.08075267 0.094793595 0.058150645 0.060566396 -0.0015447136 -0.07987106
0.05542812 0.06638289 -0.0641284 -0.08958267 -0.09750144 0.011746802 -0.09041556 0.057085596
-0.095895305 -0.066987656 -0.07815372 -0.09844778 -0.022219962 0.044415474 0.088284805 0.011427474
-0.038425587 0.0777034 0.024212185 0.03372228 -0.020147046 -0.008126562 0.07606296 -0.003521335
-0.019567072 0.026160572 -0.04029584 -0.06494182 -0.054624397 0.027707217 -0.07697203 -0.0035117096
0.06754151 -0.04885598 -0.08332371 -0.0104476325 0.08397713 0.058460996 -0.01775151 0.06696843
0.05686303 0.06570548 0.019344183 -0.024086915 -0.0078398585 0.053084373 -0.002524651 -0.032388907
0.075330645 0.093638025 -0.04199822 -0.036855973 -0.05823041 -0.07030111 0.061253212 0.08375653
0.013755994 -0.013896115 0.08926664 -0.06241685 0.041702498 0.066696025 0.013296781 0.022351468
-0.09934085 0.023660336 -0.084465876 0.06344038 -0.002234044 0.04145711 0.085051246 0.09376686
0.016907329 0.021898799 0.02590449 0.017994482 -0.028793639 -0.068451114 0.0071204114 -0.029255066
0.040807903 -0.03218537 -0.013396254 0.09722988 0.012988928 0.053062774 0.027996138 -0.018217294
0.06502955 0.0767298 -0.09884232 -0.09774511 0.07748951 -0.02439709 -0.051614154 -0.036082454
-0.008218152 0.04696901 -0.07797975 0.085774146 -0.029309424 -0.07486377 -0.006253041 -0.06282929
0.057433967 -0.066752955 0.042539258 -0.042048886 0.09802717 0.027410166 -0.07444568 -0.065940164
0.03604653 -0.024437733 0.07360136 -0.06324071 0.027249744 0.08226998 0.059572518 0.018210502
-0.077260196 -0.018566702 0.08837839 0.07484834 -0.017977808 0.086090654 0.06865894 -0.04515664
0.024301125 0.019821841 0.084042035 0.09471685 0.086720355 -0.04658821 -0.023322005 -0.020681469
-0.071555614 0.097870186 -0.0028699732 0.0689178 0.053352747 -0.075494826 0.007546138 0.026859073

fc2.bias f4 [200]
00000000: a0ce bb3d 9c99 c6bd bff6 c6bd 762e 9e3d
00000010: 9c0e 983c 3c1b ddbc ae8a b03d 80a3 f5bc
00000020: d514 b53d a2de 6d3d dc9f 30bd e11b 053d
00000030: 4f05 f5bc f066 3fbc 2675 e9bc decd 52bd
00000040: 8a3c e63c 2020 b63d 0ab9 27bd 6e0e 363d
00000050: 06cf c3bb 61ae 9f3c 64c3 473c 004c e0bc
00000060: c8e2 283c 1706 72bb 3878 e0bc acd7 813c
00000070: 88c1 bcbd 0bc8 bf3c 0bc7 753c 8264 8f3c
00000080: 609b 8b3c 6c44 083d 313f 453d b112 b13b
00000090: bb9d 563d c1e3 c93d 3260 673d 99aa 393d
000000a0: d472 3a3d 1398 aa3b df0b 043d 4458 88bd
000000b0: 9d55 d03c c6a0 5a3d 09e0 6f3d 4431 903d
000000c0: d213 3abd 58e0 f13b 4398 163d 938b 393d
000000d0: 89ab 9bbc 912b f0bb 5b91 a63d eb53 3d3d
000000e0: a916 ba3d 09ef 173d 7563 613c 70ce 94bd
000000f0: a37a f7bc e602 88bd eebd c63c 42a1 403d
00000100: 9a36 8e3c 1e3a 6c3c 2295 dd3c 0832 903d
00000110: 5846 01bd 8c89 233d a7d7 60bd 91bc c5bd
00000120: 89f4 21bc 96c1 1dbd f73f 5d39 d817 943d
00000130: ddde 583d 51e8 1a3d 00c8 9dbd bc94 09bd
00000140: 21d4 c8bd 3646 973d 67ca 833c d835 753c
00000150: 8440 52bc 9504 ccbc ddc8 95bc d7fe d8bc
00000160: 8c56 a73d 2fee b4bd bc8d 22bd a1b6 ca3c
00000170: e14f c1bc 2074 b63d a13b bdbd b710 b23c
00000180: d168 8fbc b5b1 8abc 8315 86bd 77d5 123d
00000190: 6dae a63d debd f33b 7bfa d73a 3cea a0bc
000001a0: 361e 9bbd 842f 00bb 767e bfbc d240 89bd
000001b0: 9946 353d a5f9 b1bd 75ad cbbd 0de6 84bd
000001c0: 1efd abbc d49e 57bd 0ac4 8f3d 80df babd
000001d0: 531b af3a 6db5 573d 4bbf 88bd d83a cc3d
000001e0: f938 2dba f1b6 e83c 2cd0 3e3b 26d0 103d
000001f0: cfb8 863d 4505 acbd b440 11bd 4eb3 a53d
00000200: 2f0c 45bd 096a d0bc 73ea 863c 8d60 663d
00000210: 6a82 a4bd 23e6 bd3d 4bab 5fbd 5036 58bd
00000220: dce5 d5bb 6890 863c 0817 80bc fc03 e0bc
00000230: 2090 42bd 566f 803d f150 813c b9b2 6f3d
00000240: f843 c63d b582 c93d 53c5 863d 6e9c ae3d
00000250: 1185 91bd e72c 6ebd 3ac0 88bd 5aca c73c
00000260: b8e9 9d3d 0139 a9bc 3c26 c1bd 62f3 b9bd
00000270: 26c0 b33c befc 7bbc 90b0 b0bd 79e0 2ebd
00000280: 1d6f e23b 5d62 753d 42e1 863d a657 b7bb
00000290: 571c a0ba 9fbd 843d 6ff0 45bd 087f b0bc
000002a0: d361 50bd a56b 2dbd f846 7a3c 0af6 bfbc
000002b0: c444 c73d 67b3 833d 9591 333d 4fca 063d
000002c0: 5ce2 a73d 32a5 ac3c 9c81 f33c b0ee 76bc
000002d0: d1d7 a13d 6365 a33d 08e0 943d ac4f 9a3d
000002e0: 4dc3 03bd b70f c63c 177c 98bd bc4c 853d
000002f0: 2c57 fbbc c54f 633d 0f67 8f3d eb19 ccbc
00000300: c4c6 65bd d8e2 39bc 38aa 84bd 0cdb b43d
00000310: e109 473d 5dfe 63bd bb05 8cbd 7b6b b3bd
0.0917027 -0.096972674 -0.09715032 0.077237055 0.018561654 -0.026990525 0.08620201 -0.02998519
0.08841864 0.058073647 -0.043121204 0.03249729 -0.029909758 -0.011682257 -0.028498244 -0.05146586
0.02810504 0.08892846 -0.04094795 0.044447355 -0.005975607 0.01949233 0.012192581 -0.02737999
0.010307975 -0.00369299 -0.027401075 0.01584991 -0.09216601 0.023410818 0.015001069 0.01750398
0.017041862 0.033268377 0.048155967 0.0054038395 0.052396517 0.09857894 0.056488223 0.04532871
0.045519665 0.005206117 0.032237884 -0.0665746 0.025431449 0.05337598 0.058563266 0.07040647
-0.04542906 0.00738148 0.0367663 0.045299124 -0.019002693 -0.0073294123 0.08133193 0.04622261
0.09086353 0.037093196 0.013756623 -0.07265937 -0.030209845 -0.06641178 0.024260487 0.047028787
0.01736002 0.014418153 0.027048651 0.07040793 -0.031561226 0.039926097 -0.054893162 -0.09655107
-0.009884962 -0.038514696 0.00021100031 0.0723111 0.052946914 0.03781921 -0.077041626 -0.03358911
-0.098060854 0.073864385 0.016087724 0.014966451 -0.012832765 -0.024904529 -0.018284256 -0.026488705
0.081708044 -0.088344924 -0.03968595 0.024745287 -0.02359766 0.08908868 -0.09239889 0.021736486
-0.017506035 -0.01693044 -0.06547072 0.035848107 0.08138738 0.0074384054 0.0016477847 -0.019642942
-0.07574122 -0.0019559572 -0.023375731 -0.067018166 0.04425678 -0.08690194 -0.09945194 -0.06489191
-0.02099472 -0.052641705 0.07019813 -0.091246605 0.0013359584 0.052663255 -0.06677111 0.09972161
-0.0006607916 0.028407546 0.002911578 0.035354756 0.06578218 -0.083994426 -0.035462096 0.0809084
-0.048107322 -0.025441187 0.016469216 0.05624442 -0.08032687 0.09272411 -0.054606717 -0.05278617
-0.0065276455 0.01642628 -0.015635982 -0.02734565 -0.04750073 0.06271236 0.015785666 0.058520053
0.09680933 0.098393835 0.06580605 0.0852593 -0.071054585 -0.05814829 -0.06677289 0.024388481
0.07710594 -0.020657064 -0.09431121 -0.09079625 0.02194221 -0.015380083 -0.086274266 -0.042694543
0.0069102184 0.05990826 0.06585933 -0.0055951653 -0.0012215477 0.0648148 -0.048325 -0.021544948
-0.050874542 -0.042338986 0.015275709 -0.02343275 0.09729913 0.06430703 0.04384001 0.03290778
0.081974715 0.021074865 0.029724889 -0.015071556 0.07902492 0.07978322 0.07269293 0.075347275
-0.032168675 0.024177415 -0.07445543 0.065087765 -0.030681215 0.055495996 0.07002079 -0.024914702
-0.05609776 -0.011345588 -0.06477779 0.088308424 0.048593406 -0.0556625 -0.068370305 -0.08760735

fc3.weight f4 [100, 200]
00000000: da9b 1e3d f712 333d 8150 093d 8d4b 2abd
00000010: 5eca 5c3d e400 543c edaa 5b3d 55b9 b83b
00000020: 8384 dbbc 1cec 61bb f8a9 3ebc 9450 32bc
00000030: c638 b2bc 261d 433c 0d65 293d 3e72 3d3d
00000040: 8112 473d 65c9 8e3d b599 0bbd c38c 1bbc
00000050: d63d 1a3b e2f3 ac3c 107c a33c b117 f1bc
00000060: 2f0a 90bc 33f9 adbc a4dd 73bd 308a 223d
00000070: 3dca 653c c336 703d eda1 79bd 25a4 ffbc
00000080: 4b34 a53c 60c2 82bd 7138 bdbc 61dd 72bd
00000090: 862a 8fbd 03f6 85bd ba27 11bd 38fd 803c
000000a0: 6e3d f43c 6259 9f3c 2051 263d 5ddd 2bbc
000000b0: ff1a 003d ded8 7b3d 12f8 f73b cc7f 673d
000000c0: 54ff 173d 8274 863d 2e15 88bd 345b 0cbd
000000d0: c488 6bbc 8a8b 823d b67c 81bd bbba f23b
000000e0: 70b8 d9bc 63cd 8c3c 631b 57bd e5f9 83bc
000000f0: 0a0e 6e3d 4da8 88bd a831 9a3c e787 65bd
00000100: 58b2 c13b f9bb 5e3d 1df3 09bd b0a0 303d
00000110: c5e9 e0bb 2fc9 e5bc f20b d6bc 6dce 4c3a
00000120: 8b01 85bd a563 83bd 47a4 69bd 9bdc 1cbc
00000130: caba 8e3c 82e8 02bc 0e26 4dbd c9ef 3ebd
00000140: 0d20 c0bc 494e 293d 79c9 3a3d a9f1 8c3d
00000150: 4219 e53b ed5e 4d3c 366d 41bc 7d41 093d
00000160: 0c28 7f3c 6776 7ebd 4932 12bd 0801 e93b
00000170: 4dca 243d fe6d 003c eac5 52bc c55b db3c
00000180: 4e07 ee3a 9044 8c3d a5e1 763d e631 ea3c
00000190: 93c3 093d 3d39 3b3d 34e6 91bd cf98 39bd
000001a0: 026a a53c 53e8 71bd cd85 7c3d d103 853c
000001b0: 16f5 59bd 570b b0bc 1c39 2a3d 172f 5f3d
000001c0: 505a 363d 6132 463d 2d9b b7bc cc42 12bd
000001d0: 67e4 febc d924 e93c 6dcd 4cbd 3385 23bc
000001e0: 29ee 8fbd 4507 81bd 8b9f 7d3d 3e0b 48bd
000001f0: bd3a 5c3c 6963 b63b a0e4 88bd 9361 473d
00000200: f092 0cbd e8e2 64bd 78b3 04bd 3303 47bd
00000210: f359 8cbd 60c3 243d 02be 21bd 7639 6cbd
00000220: 04d4 3c3c 6a30 473d 5750 4fbd bb29 11bd
00000230: 9520 7fbc 53aa 6abd b9f2 3abd bfab 51bd
00000240: 7f9d 46bd 4882 11bd 43b9 e6bc 6781 93bc
00000250: de28 1e3d fe03 d23b c594 a6bc c329 fabc
00000260: e846 efbc c2e6 173d fa0f 873d 493e 36bd
00000270: 802d 323d 22db 8f3d 09cc 8abd 06a3 15bc
00000280: 4a2e ee3c cede 1c3d 922b 3fbd de68 383d
00000290: 934f 49bd d41a 23bd cb2b 483d 795c 163d
000002a0: b0be 2dbd 05ef 8dbd 217a 1d3d f7b3 143d
000002b0: 1eff 1a3b 17c9 70bc 5158 743d 326b 023d
000002c0: 4ac9 113d ec1e 2bbd e5ee 373d 5b05 993b
000002d0: 73e2 443c 163a 113d ffe7 0ebd 6230 2a3c
000002e0: b8e3 6cbd ecca 88bd 4b9d 563d b3de 42bd
000002f0: 4383 c5bc 04ef d3bc 4845 52bd 0e49 66bd
00000300: 8524 14bd d4f5 f73a f514 dfbb 5e46 8f3b
00000310: fd0a 4ebd 54ed 2cbd 350e 2dbd 072d 07bd
00000320: 89a8 7b3c dd61 28bc d892 0e3d c150 343d
00000330: 6157 f23c 7532 b1bc 63ac 253d 915a cb3c
00000340: ce95 d0bb cbec 42bd 3e11 f038 2ef7 9cbc
00000350: 4566 153d ccc6 753d 55ad aebc ae6a 4dbd
00000360: 740b 33bc e664 373a 389d 833d 9af5 2abd
00000370: c54e 42bd 566d 92bd 1184 623d 13a1 85bd
00000380: 7986 4b3d cb00 6abd aa68 6cbd 26c9 be3c
00000390: a79b 79bc c1f6 88bd 3a5a 33bd 4da9 80bb
000003a0: 274b 8bbd 3001 3ebb 80ab 4ebd 12a0 97bc
000003b0: ec9d 653d 7684 88bd e953 54bb 6ff2 343d
000003c0: 5144 573d 310d 62bd 810d f63c 9c8b 423d
000003d0: fe19 753c 41b3 fbb8 82ae 753c b9c6 5dbc
000003e0: ecfc 493d cc84 48bc 3f0b 363d 8a30 3a3d
000003f0: cfbb 97bc 0438 8fbd 97a8 6f3d a848 30bd
0.03872285 0.04371926 0.03352404 -0.041575957 0.05390393 0.0129396655 0.053629804 0.0056373277
-0.026796585 -0.0034473008 -0.011637203 -0.010883469 -0.021755587 0.011908805 0.041356135 0.046251528
0.04860163 0.06972007 -0.034082133 -0.009494009 0.0023535392 0.021112386 0.019956619 -0.029430242
-0.01758298 -0.021236992 -0.059537545 0.039682567 0.014025268 0.058645975 -0.06094544 -0.0312062
0.020166537 -0.0638473 -0.023098202 -0.059293155 -0.069905326 -0.06541064 -0.035438277 0.015745744
0.029814448 0.0194518 0.04060471 -0.010489789 0.031275745 0.061486118 0.007567414 0.05651836
0.037108734 0.06565191 -0.06644665 -0.034266666 -0.014375869 0.06374271 -0.06322615 0.007407514
-0.026577204 0.01718778 -0.052516352 -0.01611037 0.058118857 -0.06672726 0.018822506 -0.05603781
0.005911153 0.054378483 -0.033679117 0.043121994 -0.006863805 -0.028050033 -0.026128743 0.0007812742
-0.06494435 -0.0641549 -0.057041433 -0.009574081 0.017423052 -0.0079900045 -0.05008512 -0.046615396
-0.023452783 0.041334424 0.045602296 0.068820305 0.0069915364 0.012534839 -0.011805823 0.03350972
0.015573513 -0.062124636 -0.035692487 0.0071107186 0.04023199 0.007838724 -0.012864569 0.026777158
0.0018160136 0.06849015 0.060273785 0.028588247 0.03363378 0.045708884 -0.07123986 -0.045311745
0.02019215 -0.059059452 0.06165104 0.016237171 -0.053212248 -0.021489782 0.04155837 0.054488268
0.044519722 0.04838789 -0.02241286 -0.035708234 -0.03111477 0.028459953 -0.050000597 -0.009980488
-0.07027847 -0.06300215 0.06191973 -0.048838846 0.013441739 0.00556605 -0.06684232 0.04867704
-0.034319818 -0.055880457 -0.032397717 -0.048587035 -0.06853094 0.040225387 -0.039487846 -0.057671987
0.011525158 0.048630156 -0.050613727 -0.035440188 -0.015571733 -0.05729134 -0.045641635 -0.05118918
-0.048490044 -0.035524637 -0.028164512 -0.01800604 0.038613193 0.0064091673 -0.02033461 -0.030537492
-0.029208615 0.037085302 0.06594844 -0.044492994 0.043500423 0.07024218 -0.06777198 -0.009133106
0.029074807 0.03829842 -0.04667241 0.045021884 -0.049148154 -0.039820507 0.04886989 0.036709283
-0.042418182 -0.06930355 0.03844655 0.03630444 0.0023650597 -0.014696381 0.059654538 0.03184051
0.035592355 -0.041777536 0.044905562 0.004669828 0.01201688 0.035455786 -0.034889217 0.010387512
-0.057834357 -0.06679329 0.0523961 -0.047575664 -0.024110442 -0.025870807 -0.051335603 -0.056222014
-0.03616764 0.0018917867 -0.006807918 0.004372402 -0.050303448 -0.04221852 -0.042249877 -0.033001926
0.015360006 -0.010277239 0.03480801 0.044022325 0.029582681 -0.021630505 0.040447604 0.024823459
-0.0063655144 -0.047589105 0.000114473034 -0.019160833 0.036474485 0.06000404 -0.021322886 -0.050150566
-0.010928024 0.0006995931 0.064264715 -0.04173813 -0.0474384 -0.071497604 0.05530173 -0.06524863
0.04968879 -0.057129662 -0.057717003 0.023289274 -0.015234864 -0.066876896 -0.04378722 -0.003926432
-0.068014435 -0.0028992407 -0.050456524 -0.018508945 0.05605881 -0.0666589 -0.0032398647 0.044176515
0.052555386 -0.05518836 0.030035736 0.047496423 0.01495981 -0.00012002001 0.014995219 -0.013536149
0.04931347 -0.0122386925 0.04444432 0.045456447 -0.018522171 -0.06993106 0.05851039 -0.04303804

fc3.bias f4 [100]
00000000: fbdd 2a3d b8c3 78bd 1466 e7bc 9167 63bc
00000010: d6bb 163d 5bc5 37bd bca9 873d 43b5 42bb
00000020: d639 033d 18be 983c c118 04bd e17c a5bc
00000030: b764 473c 29b2 653d 62c6 c4bc 3e82 8bbc
00000040: f08e 1dbd fa58 cf3c c6f0 143d 2e18 a9bc
00000050: 7fdf 45bd 0e34 84bc ac54 833b 5ce4 d63b
00000060: f825 e2bc 2234 573d 0c80 df3b d109 a1bc
00000070: 585f 663c f801 7a3d d2f8 a33b cf85 4c3d
00000080: 2f7e 533d 12f2 823d 911b 87bd 2860 efbc
00000090: 4d7a 17bc e33f 5a3d 5d2f 93bd bacf 443d
000000a0: 279d 2abd 8d64 933c c942 a0bb f3d6 30bd
000000b0: db6a 94bc 1f89 243d e4fd 173d f8e2 8fbd
000000c0: e0ee fd3c 8457 0c3d 9389 3bbd 5b1c a53c
000000d0: bcc3 2cbd 247b 17bd 49f5 eebc e68f 533d
000000e0: 97a2 e33c 9b9d 4d3b e2cb 603d 59fe a9bc
000000f0: 9855 ad3b 8901 2c3d 3aeb 88bd 6f00 ba3c
00000100: 41ee 41bb 17ae 46bd 4999 653c 0111 61bd
00000110: 95a8 8ebd 1abc 973c c2b7 07bc 10a7 8abc
00000120: e5f6 7ebc 4fa9 40bd 6d2e 8d3d 1bf0 103d
00000130: 2e19 b6bc 5165 0ebd c19e bfbb f7ae c8bc
00000140: 6193 8bbd 8209 eabc 98ee 593d 1f09 383d
00000150: 3891 dd3b 996e c33c 1ad7 803d e958 47bd
00000160: f24f adbc d5c7 1fbd 0af3 30bd e6ff 283d
00000170: 4f83 1b3d 507c 7abd 2e8e adbc 50e1 553d
00000180: 3d7c 8d3d f3ae 5dbc 3afe 433d 0a12 cf3c
0.041715603 -0.060733527 -0.028246917 -0.013879673 0.036800228 -0.044865947 0.06624171 -0.0029710091
0.03203758 0.018645331 -0.03225017 -0.020201148 0.012170008 0.05607811 -0.024020378 -0.017029878
-0.038466394 0.025310982 0.036362432 -0.020641413 -0.048308846 -0.016138103 0.0040078964 0.0065579843
-0.027605996 0.052539952 0.0068206843 -0.019658001 0.014060818 0.061037034 0.005004027 0.049932297
0.05163401 0.063938275 -0.06597055 -0.029220656 -0.009245467 0.053283583 -0.07186768 0.048049666
-0.04165378 0.017992282 -0.004890774 -0.04317374 -0.018117359 0.04016983 0.037107363 -0.07025713
0.030997694 0.03426315 -0.045785498 0.020155123 -0.042178854 -0.03698267 -0.029169695 0.051650904
0.02778749 0.0031374458 0.054881938 -0.020751165 0.0052897446 0.04199365 -0.06685491 0.022705285
-0.0029591473 -0.04850587 0.014013597 -0.054947857 -0.06965748 0.018522311 -0.008283557 -0.016925365
-0.015561794 -0.047036465 0.06893621 0.035385232 -0.022228803 -0.03476459 -0.0058477824 -0.024497492
-0.0681522 -0.028568987 0.053206056 0.044930574 0.006761696 0.023856448 0.06291027 -0.048668776
-0.021156285 -0.039008934 -0.04320053 0.04125967 0.037967023 -0.06115371 -0.02118596 0.052216828
0.06908462 -0.013530481 0.04784987 0.025277156

fc7.weight f4 [1, 100]
00000000: 5949 6dbd bb24 4a3d 0d56 993b 74dd bbbd
00000010: 5a60 9f3d a0de adbd 7842 c8bd 89fc 0fbd
00000020: d516 abbd d6ba 7bbd 5f94 c0bd acf6 bc3c
00000030: 1508 a93d dc10 4d3d d6a6 98bd 2fda 693d
00000040: 4ccb 7f3c 52bf ebbc c973 fe3c 73e2 dd3c
00000050: 2651 083d 22b2 703d 4cbd a23d b673 903d
00000060: 2635 b5bb f356 42bd e4ad d1bc f6c7 313d
00000070: 2a8e 753d 243e 67bb 8f36 b93d 37bc d8bc
00000080: b042 17bd 333d 023d 7c88 583c b1f5 8bbd
00000090: f1d8 aa3d 547a 70bd 434d b63d b2d8 6cbd
000000a0: 2dde b03d b3c5 b23d 270a 943b a9ba b6bd
000000b0: e230 273d 15a9 693d d2ef c13d c3a9 c93d
000000c0: 9c18 003d 0639 64bd c649 60bd e083 34bd
000000d0: b851 2dbb e4e0 f0bd f02c 07bc e94f 313d
000000e0: 864a 7d3a 8db2 f93c d138 99bd e91e 323d
000000f0: c775 4e3d 0a59 82bd 66bf 33bd eeab 45bc
00000100: 8ffb 973d be35 933d a59e a3bd 0bfe 7bbd
00000110: 2448 cb3d 0d89 37bd 9c86 9c3d 5e5d 78bd
00000120: b9e0 7d3d da92 843d 4a14 1b3d c45f d6bd
00000130: fb9b 87bd a457 36bc 65ae 5e3d 402c 52bd
00000140: 3005 5ebd 5ea1 b73c f3fe c9bc 09cc 88bd
00000150: 1471 8abd 115e 44bd a41c a03d 4af9 153d
00000160: 796f 8f3c 6473 95bd 5fc7 0cbd 4ec9 ad3d
00000170: 2169 80bd 6b14 aebd 1866 68bd 11d3 9f3d
00000180: 6357 68bd ad0d 82bd bdd0 41bc 6a46 163c
-0.057931278 0.049351435 0.0046794475 -0.09173098 0.077820495 -0.08489728 -0.09778303 -0.035152946
-0.08353964 -0.061457478 -0.094032995 0.023066841 0.08253495 0.050064906 -0.074536964 0.05709284
0.015612435 -0.028777752 0.03106107 0.027085518 0.033280514 0.05876363 0.07946262 0.0705332
-0.0055300174 -0.047446202 -0.025595613 0.04340359 0.05995003 -0.0035284841 0.09043609 -0.026456935
-0.036928833 0.031796645 0.013216134 -0.06833971 0.083421595 -0.05871041 0.08901455 -0.057823844
0.08636127 0.087291144 0.004517812 -0.08922321 0.040818103 0.057046015 0.0946957 0.098468326
0.03127347 -0.055718444 -0.054757856 -0.04407108 -0.0026446413 -0.117616445 -0.00825046 0.0432891
0.0009662289 0.030480647 -0.0748154 0.04348651 0.05040529 -0.06364639 -0.043883704 -0.012064917
0.07421028 0.07187985 -0.079892434 -0.06152157 0.09925869 -0.044808436 0.07642862 -0.060635917
0.06198189 0.06473322 0.037861146 -0.104674846 -0.06621548 -0.011129294 0.054365534 -0.05131173
-0.054204166 0.022415813 -0.024657702 -0.066795416 -0.06759849 -0.04794127 0.07817963 0.036614694
0.017509209 -0.072974 -0.034369823 0.084856614 -0.06270052 -0.08499988 -0.05673799 0.078039296
-0.056723963 -0.06350265 -0.011829552 0.009172061
