Amos/Z04.pth (torch, 185583 bytes, 7 tensors)

fc1.weight f4 [100, 52]
0.103822194 0.059987083 -0.032913435 0.11495199 -0.121529706 0.055341143 0.10066775 0.060162246
0.05898968 0.042791232 -0.022094633 0.08289791 -0.07256829 0.055229068 -0.06718856 0.11756262
0.112859204 0.03833849 0.13218485 -0.12315925 0.07721006 0.0010975983 0.11849391 0.13060291
-0.10176313 -0.13275677 0.07431549 -0.13177866 0.13276115 0.12609543 -0.029395398 -0.13105091
0.0021734803 0.11268695 -0.10612608 0.084062144 0.0441226 0.043301247 0.008851659 -0.06270697
-0.03780247 -0.05610461 -0.13893667 -0.08992364 0.1291782 0.06622042 0.058301125 0.13155329
-0.08116567 0.10623966 -0.13324617 0.119552255 0.11275777 0.13635093 0.10091714 0.016868858
-0.044631436 -0.13234994 -0.07311453 0.0024270855 -0.0098468885 0.101722196 -0.041113608 -0.03828406
-0.008643464 0.07710277 -0.044948544 0.004534505 0.015521295 0.05076297 -0.058610313 -0.07511052
-0.04919438 -0.06338081 0.1012639 0.10364809 -0.074780114 -0.10432626 -0.08207183 0.106153406
-0.07258854 -0.07909692 -0.12275487 0.11334969 0.0978101 0.017397095 0.06577387 -0.020370184
-0.016124006 -0.13868442 0.032413114 0.0355562 0.103235304 -0.04081636 0.06881989 0.07629751
0.008341896 0.014946059 0.056895506 0.0848567 -0.05686368 -0.06925838 0.03978259 -0.02001063
0.011181148 -0.09640476 -0.100505285 -0.054492135 0.060061466 -0.089197226 -0.026645914 0.10456644
0.008720724 -0.05821471 0.017409261 -0.053870637 0.008644532 -0.0856999 0.004667084 0.112550534
-0.12918423 0.11606919 0.034212776 -0.052763216 -0.09552763 0.046909183 0.12908398 0.0398397
0.01358877 0.10374411 -0.04828727 0.13500711 0.081442505 -0.11829825 -0.12406599 0.13423565
0.02287051 -0.010982391 0.11531377 -0.032403357 0.1148162 -0.08898195 -0.12870948 -0.058995977
-0.106561765 -0.09787677 -0.06266003 0.06909503 -0.008324727 0.083448075 0.1245738 0.12756266
-0.00427749 -0.13125852 -0.105053805 0.1255707 -0.10726006 0.1006518 -0.022275168 0.13052066
0.04257965 -0.0461526 0.10494494 0.0037097908 -0.11075885 -0.11850599 0.02673236 0.0673303
-0.02340848 -0.08783677 -0.023656704 -0.12499663 -0.06610783 -0.07308232 0.10596961 -0.12462281
0.028179493 0.1140504 0.0454799 -0.028329628 0.063652314 0.010421653 0.0349563 0.08517833
8.772989e-05 0.029846884 0.121029444 -0.04929473 -0.025663694 -0.0780444 -0.08638077 -0.05591104
-0.09742324 0.06229645 -0.040122192 -0.03386657 0.052368943 0.11315617 0.112566195 0.08439978
-0.06293973 0.1178584 0.04042305 0.06059135 -0.003815197 0.07407983 0.12412688 -0.10588927
0.124434315 0.09650398 -0.059887648 0.08692879 -0.07395173 -0.02740609 0.08771571 -0.06830229
0.008645323 -0.12383126 0.01642781 -0.06450205 -0.07272642 -0.09314406 -0.0016832413 0.09517699
0.068455555 -0.0026613951 -0.052478023 -0.11604203 -0.08314287 0.07753599 0.033777565 -0.082204275
0.06910684 0.077808365 0.052122433 -0.078057654 0.13126656 0.059855096 -0.12993781 -0.12632574
0.1236338 0.11908125 -0.06883763 -0.021343078 -0.08295856 -0.13147615 -0.12915836 -0.06513343
-0.119400464 0.0737977 -0.107094705 0.09115733 0.11366801 0.009066092 0.0043941867 -0.013237369
00000000: bba0 d43d 04b5 753d 3dd0 06bd f36b eb3d
00000010: 91e4 f8bd 65ad 623d e52a ce3d b06c 763d
00000020: 2a9f 713d dc45 2f3d ceff b4bc 61c6 a93d
00000030: af9e 94bd e037 623d 289a 89bd acc4 f03d
00000040: ba22 e73d d208 1d3d 775b 073e eb3a fcbd
00000050: 4f20 9e3d 4add 8f3a efac f23d c5bc 053e
00000060: 3069 d0bd 64f1 07be b832 983d fcf0 06be
00000070: 8af2 073e 291f 013e 9ece f0bc 3632 06be
00000080: f370 0e3b 6ac8 e63d a158 d9bd c628 ac3d
00000090: e6b9 343d a65c 313d 8c06 113c 836c 80bd
000000a0: c3d6 1abd f3cd 65bd 6a45 0ebe e329 b8bd
000000b0: 4a47 043e 929e 873d 29cd 6e3d e8b5 063e
000000c0: 303a a6bd 2e94 d93d af71 08be d0d7 f43d
000000d0: 8ced e63d 949f 0b3e a5ad ce3d 8f30 8a3c
000000e0: 74cf 36bd be86 07be 12bd 95bd bd0f 1f3b
000000f0: d854 21bc ba53 d03d be66 28bd bfcf 1cbd
00000100: 519d 0dbc 0fe8 9d3d f71b 38bd 2f96 943b
00000110: 084d 7e3c d5ec 4f3d 5e11 70bd 8bd3 99bd
00000120: 0c80 49bd cccd 81bd 7363 cf3d 7345 d43d
00000130: 5126 99bd 02a9 d5bd 4715 a8bd f566 d93d
00000140: 4da9 94bd 91fd a1bd e866 fbbd e223 e83d
00000150: a950 c83d 5a84 8e3c 73b4 863d 5fdf a6bc
00000160: 7e16 84bc 4a03 0ebe 9dc3 043d 61a3 113d
00000170: 086d d33d 0e2f 27bd 71f1 8c3d de41 9c3d
00000180: 73ac 083c 51e0 743c 430b 693d 59c9 ad3d
00000190: e4e9 68bd 56d7 8dbd 12f3 223d 55ed a3bc
000001a0: 2231 373c dc6f c5bd b7d5 cdbd 2533 5fbd
000001b0: 0303 763d 09ad b6bd 8848 dabc ee26 d63d
000001c0: 5ee1 0e3c 8c72 6ebd de9d 8e3c 75a7 5cbd
000001d0: cca1 0d3c 6e83 afbd 57ee 983b e580 e63d
000001e0: df48 04be afb5 ed3d b222 0c3d 3e1e 58bd
000001f0: fda3 c3bd d823 403d 972e 043e f42e 233d
00000200: 6fa3 5e3c cb77 d43d dfc8 45bd 4e3f 0a3e
00000210: 54cb a63d 5a46 f2bd 4f16 febd 1275 093e
00000220: f05a bb3c 7def 33bc a029 ec3d 62b9 04bd
00000230: c224 eb3d 2b3c b6bd 6bcc 03be c4a5 71bd
00000240: 0e3d dabd 9e73 c8bd e753 80bd b281 8d3d
00000250: 7064 08bc d3e6 aa3d 8c20 ff3d c99f 023e
00000260: 302a 8cbb a268 06be 7326 d7bd 9b95 003e
00000270: 2aab dbbd 8822 ce3d 6a7a b6bc 35a7 053e
00000280: 0068 2e3d 820a 3dbd 5fed d63d f61f 733b
00000290: 89d5 e2bd 45b3 f2bd d2fd da3c 78e4 893d
000002a0: 24c3 bfbc c4e3 b3bd b4cb c1bc 3cfe ffbd
000002b0: 8b63 87bd 2fac 95bd 9806 d93d 3e3a ffbd
000002c0: aed8 e63c 4293 e93d 2249 3a3d 8913 e8bc
000002d0: 255c 823d 95bf 2a3c 562e 0f3d fa71 ae3d
000002e0: a0fb b738 7481 f43c 49de f73d 45e9 49bd
000002f0: ab3c d2bc bed5 9fbd 67e8 b0bd fa02 65bd
00000300: d685 c7bd 902a 7f3d 2b57 24bd acb7 0abd
00000310: d180 563d 6cbe e73d 1b89 e63d cbd9 ac3d
00000320: 8ce6 80bd bf5f f13d a492 253d a32e 783d
00000330: 6208 7abb 2ab7 973d 3c36 fe3d 79dc d8bd
00000340: 6bd7 fe3d e1a3 c53d c04c 75bd b907 b23d
00000350: 0174 97bd bd82 e0bc 4ba4 b33d 12e2 8bbd
00000360: 1da5 0d3c 3e9b fdbd 9d93 863c a719 84bd
00000370: 97f1 94bd 50c2 bebd 35a0 dcba 27ec c23d
00000380: 6d32 8c3d cd6a 2ebb 32f3 56bd 72a7 edbd
00000390: cf46 aabd 30cb 9e3d 585a 0a3d b75a a8bd
000003a0: e387 8d3d fe59 9f3d 557e 553d b1dc 9fbd
000003b0: be6a 063e 9e2a 753d 6b0e 05be 895b 01be
000003c0: b833 fd3d dfe0 f33d befa 8cbd aed7 aebc
000003d0: 2de6 a9bd afa1 06be 1742 04be ad64 85bd
000003e0: 3b88 f4bd 4023 973d 7854 dbbd b2b0 ba3d
000003f0: c6ca e83d f289 143c 1cfd 8f3b 8de1 58bc

fc1.bias f4 [100]
0.032855205 -0.13374226 -0.1040818 0.043236136 0.08815413 0.097158805 -0.020075833 0.051775496
-0.12422218 0.12869905 -0.038900275 0.020399611 0.026836252 -0.13932462 -0.06773153 -0.04687371
-0.04698676 -0.06495132 0.08587503 -0.067849144 -0.04591869 0.06251471 0.11898604 0.094391756
0.025719814 -0.105137326 0.04439544 -0.12017224 0.10571262 0.058135726 -0.12699679 0.024202319
0.113752484 0.111183256 0.105892055 -0.070281036 -0.006328208 0.05890909 -0.09602758 -0.0048430753
-0.052273683 -0.10538691 0.12624441 -0.08621184 -0.11677547 -0.1347967 0.13063973 -0.045583542
0.010674885 -0.03264769 0.13305993 -0.08888947 -0.05870036 -0.016605372 0.010486905 -0.088662386
0.046845417 -0.08678224 -0.07464928 0.05613308 -0.07166416 0.10591486 -0.12251889 -0.054823063
0.058039486 -0.016255084 0.08515347 0.012508013 -0.06609819 0.12910306 -0.045177735 0.06662567
0.019652786 0.042186 -0.027013382 -0.13656215 0.05258061 0.08920492 0.091329046 0.1382323
-0.13450398 0.070371374 0.13392653 0.1200235 -0.083973326 0.13482764 0.1215282 -0.13562639
-0.07811432 -0.05298225 0.01761025 0.072502516 0.0013193637 0.030128347 0.05200169 0.01598855
0.06209184 0.13162488 0.050327286 0.10624877
00000000: 2e93 063d bbf3 08be d728 d5bd 6018 313d
00000010: 278a b43d 32fb c63d 1376 a4bc 8b12 543d
00000020: 3368 febd afc9 033e e555 1fbd 161d a73c
00000030: b3d7 db3c 1dab 0ebe d4b6 8abd a6fe 3fbd
00000040: 3075 40bd 3305 85bd 3fdf af3d 7ef4 8abd
00000050: 3c15 3cbd b607 803d f4ae f33d 7750 c13d
00000060: 5cb2 d23c 3d52 d7bd fed7 353d dd1c f6bd
00000070: dc7f d83d ba1f 6e3d 720b 02be f143 c63c
00000080: 10f7 e83d 0cb4 e33d efdd d83d 81ef 8fbd
00000090: db5c cfbb a84a 713d 1caa c4bd a9b2 9ebb
000000a0: ee1c 56bd 18d5 d7bd 3746 013e d58f b0bd
000000b0: fa27 efbd 2508 0abe 6cc6 053e cfb5 3abd
000000c0: b6e5 2e3c 96b9 05bd dd40 083e af0b b6bd
000000d0: ca6f 70bd fd07 88bc 45d1 2b3c a094 b5bd
000000e0: fbe0 3f3d e3ba b1bd b9e1 98bd cdeb 653d
000000f0: a9c4 92bd e4e9 d83d 2feb fabd 268e 60bd
00000100: d0ba 6d3d 6229 85bc f164 ae3d 69ee 4c3c
00000110: 7d5e 87bd 9833 043e 4a0c 39bd 0a73 883d
00000120: e1fe a03c 3acb 2c3d 2b4b ddbc f3d6 0bbe
00000130: c45e 573d 12b1 b63d b90a bb3d c58c 0d3e
00000140: 69bb 09be de1e 903d 0924 093e e1ce f53d
00000150: 35fa abbd 4210 0a3e c7e3 f83d a5e1 0abe
00000160: 67fa 9fbd ea03 59bd 5f43 903c 337c 943d
00000170: 80ee ac3a b9cf f63c b9ff 543d 6bfa 823c
00000180: 0354 7e3d acc8 063e fc23 4e3d f598 d93d

fc2.weight f4 [200, 100]
0.04994902 0.0030469326 -0.017462784 0.03832199 0.06395965 -0.03707516 0.08082848 -0.087476
0.07768091 -0.005636769 -0.025890712 0.023448098 0.08270726 0.020362059 -0.051164024 0.060298115
-0.09622282 0.051198125 -0.05652854 -0.06135147 0.09164571 -0.068456 0.03897704 -0.011151751
0.02720111 0.06980345 -0.04524528 -0.07740244 -0.064944565 -0.014740989 0.07841725 0.04721886
-0.023735125 -0.050277356 -0.091433175 0.041096095 -0.030310672 -0.009463178 -0.08355359 0.0834946
-0.09884151 -0.014460022 -0.04018007 -0.000632431 -0.09292092 0.025135603 0.022083858 0.09666689
-0.066667125 -0.05396701 -0.082858026 -0.00086297886 0.08590014 -0.090379186 -0.07297166 0.049512904
-0.03724236 0.05539893 -0.07554418 -0.0794627 -0.027187321 -0.08212379 0.05325127 -0.049093653
0.04539023 -0.038935 -0.098828696 -0.052275762 -0.013643641 -0.06476729 0.08993375 -0.033900313
-0.09340029 -0.06630533 0.02284409 -0.06334835 -0.017247744 0.05775074 -0.071090326 -0.060622744
-0.02470289 0.0025328433 -0.0011253633 -0.03668361 -0.09088805 -0.043316413 -0.020524384 -0.04808159
-0.055612817 0.01574815 0.002911465 0.0017227661 -0.09702489 -0.09656573 -0.049179163 0.088947214
-0.09633011 -0.078751706 -0.07531349 -0.08048734 -0.00084066513 0.015313316 -0.050439518 -0.0198757
-0.07561111 -0.06548398 0.08117026 0.09528124 0.05816324 0.06078349 -0.0016147906 -0.07987748
0.055745322 0.06641682 -0.06390971 -0.08947424 -0.09704955 0.012099579 -0.090181276 0.057138186
-0.09560424 -0.06672144 -0.07798575 -0.098486334 -0.021776179 0.04452483 0.08838184 0.011656166
-0.03840171 0.07790381 0.024250897 0.033915628 -0.020247392 -0.008051818 0.07650193 -0.0034378907
-0.01933423 0.026484935 -0.040094823 -0.06465739 -0.054567255 0.02796009 -0.07700649 -0.0034332138
0.067543216 -0.048910808 -0.083086066 -0.0103905825 0.08413612 0.058406744 -0.017338298 0.067382894
0.056894194 0.06586793 0.01929115 -0.024102472 -0.0075594704 0.053068146 -0.0026153119 -0.032232475
0.075218454 0.09380027 -0.04184399 -0.036871232 -0.058208954 -0.07022 0.06162708 0.08396828
0.013850518 -0.013558545 0.08951959 -0.062197994 0.041735616 0.0670215 0.013617227 0.022293853
-0.09937647 0.02372225 -0.0840223 0.063638985 -0.002185466 0.041457172 0.08507864 0.093985684
0.016971229 0.021790313 0.02581261 0.018102674 -0.028810399 -0.06835983 0.0070518 -0.028821275
0.041085716 -0.031644408 -0.013328924 0.097660065 0.013441915 0.05350643 0.028424837 -0.01822118
0.06524305 0.077055074 -0.0988457 -0.09764043 0.07778596 -0.02425131 -0.051412594 -0.03563973
-0.008164766 0.04712464 -0.07802051 0.085687 -0.029074209 -0.074803546 -0.006034128 -0.062725335
0.057804495 -0.06640841 0.042702813 -0.041992687 0.09838625 0.027586803 -0.07434416 -0.06598953
0.036361158 -0.024332302 0.0736863 -0.063025884 0.027268196 0.082463 0.05955844 0.018364675
-0.077342495 -0.018472226 0.08882039 0.07485602 -0.017743433 0.08632748 0.06885122 -0.04490196
0.024281919 0.019990945 0.08377434 0.094696105 0.0867046 -0.04665652 -0.023170207 -0.020676587
-0.0714045 0.09781889 -0.0025629331 0.06916276 0.05336943 -0.0753885 0.007499322 0.02683552
00000000: 5897 4c3d 0caf 473b 1d0e 8fbc 85f7 1c3d
00000010: 47fd 823d 1fdc 17bd 6789 a53d 9e26 b3bd
00000020: 2b17 9f3d a5b4 b8bb c218 d4bc 3a16 c03c
00000030: 6d62 a93d 55ce a63c 5e91 51bd 28fb 763d
00000040: 7810 c5bd 20b5 513d 788a 67bd ae4b 7bbd
00000050: bfb0 bb3d a932 8cbd 64a6 1f3d d5b5 36bc
00000060: ddd4 de3c 1cf5 8e3d 1d53 39bd 2c85 9ebd
00000070: a801 85bd 3084 71bc 3999 a03d 9068 413d
00000080: 2a70 c2bc a1ef 4dbd 5141 bbbd 6154 283d
00000090: 164e f8bc 720b 1bbc 251e abbd 38ff aa3d
000000a0: 6b6d cabd bae9 6cbc db93 24bd bac9 25ba
000000b0: 534d bebd 2ee9 cd3c 35e9 b43c 4af9 c53d
000000c0: c688 88bd 830c 5dbd 78b1 a9bd 8839 62ba
000000d0: 6aec af3d b918 b9bd 2a72 95bd 0bce 4a3d
000000e0: 728b 18bd fde9 623d e8b6 9abd 57bd a2bd
000000f0: f2b7 debc 8530 a8bd 011e 5a3d 6d16 49bd
00000100: 1beb 393d 4e7a 1fbd b366 cabd 1c1f 56bd
00000110: 9489 5fbc b7a4 84bd 302f b83d 0edb 0abd
00000120: a748 bfbd 17cb 87bd 8723 bb3c c8bc 81bd
00000130: 244b 8dbc 0a8c 6c3d ce97 91bd 8e4f 78bd
00000140: b75d cabc 0ffe 253b ed80 93ba 8e41 16bd
00000150: 8423 babd 8d6c 31bd c122 a8bc 34f1 44bd
00000160: 44ca 63bd 4402 813c 47ce 3e3b 70ce e13a
00000170: fcb4 c6bd 41c4 c5bd 1770 49bd f529 b63d
00000180: b948 c5bd 9348 a1bd f63d 9abd 8cd6 a4bd
00000190: 1560 5cba b4e4 7a3c ab99 4ebd 5dd2 a2bc
000001a0: ffd9 9abd 771c 86bd 983c a63d d022 c33d
000001b0: 943c 6e3d 1cf8 783d 62a7 d3ba ce96 a3bd
000001c0: 3555 643d 8b05 883d 18e3 82bd 453e b7bd
000001d0: eac1 c6bd 503d 463c f6b0 b8bd bb09 6a3d
000001e0: 28cc c3bd 40a5 88bd feb6 9fbd 34b3 c9bd
000001f0: f563 b2bc ab5f 363d 8a01 b53d 81f9 3e3c
00000200: 1d4b 1dbd 088c 9f3d d1a9 c63c 1deb 0a3d
00000210: dcdd a5bc c6eb 03bc 0bad 9c3d 3c4e 61bb
00000220: d262 9ebc eff6 d83c 783a 24bd 186b 84bd
00000230: ea81 5fbd 8f0c e53c 94b5 9dbd c5ff 60bb
00000240: 1954 8a3d b356 48bd 0729 aabd 433d 2abc
00000250: 8f4f ac3d e93b 6f3d 0c09 8ebc 0b00 8a3d
00000260: e309 693d c4e5 863d 7908 9e3c 8c72 c5bc
00000270: 6fb5 f7bb fc5d 593d a765 2bbb 3306 04bd
00000280: 220c 9a3d 5b1a c03d 9b64 2bbd 4a06 17bd
00000290: 836c 6ebd 81cf 8fbd ad6c 7c3d 90f7 ab3d
000002a0: 48ed 623c a924 5ebc 0c56 b73d 53c3 7ebd
000002b0: f7f2 2a3d 9142 893d ca1a 5f3c 99a1 b63c
000002c0: e485 cbbd 2a55 c23c e213 acbd 2855 823d
000002d0: 093a 0fbb ffce 293d b63d ae3d 917b c03d
000002e0: 3f07 8b3c 9981 b23c f774 d33c 0f4c 943c
000002f0: c903 ecbc 3d00 8cbd c912 e73b 981a ecbc
00000300: 7f49 283d 919d 01bd 8f61 5abc 0002 c83d
00000310: 7a3b 5c3c 8f29 5b3d 34db e83c 9644 95bc
00000320: 269e 853d 0dcf 9d3d 9d6f cabd b5f7 c7bd
00000330: 3f4e 9f3d afaa c6bc 0396 52bd f7fa 11bd
00000340: 83c5 05bc c405 413d 38c9 9fbd aa7c af3d
00000350: 092d eebc 9a32 99bd efb9 c5bb 2476 80bd
00000360: 68c4 6c3d 2201 88bd 25e9 2e3d 8600 2cbd
00000370: bb7e c93d b8fd e13c c041 98bd 8525 87bd
00000380: 70ef 143d 8954 c7bc d8e8 963d b713 81bd
00000390: 8d61 df3c 5de2 a83d 8df3 733d 8471 963c
000003a0: be65 9ebd 1153 97bc 77e7 b53d 1d4e 993d
000003b0: ad5a 91bc 76cc b03d de01 8d3d 1eeb 37bd
000003c0: e0ea c63c 0dc4 a33c e291 ab3d 08f0 c13d
000003d0: 2e92 b13d e81a 3fbd 72cf bdbc f261 a9bc
000003e0: 863c 92bd 4555 c83d e2f6 27bb 35a5 8d3d
000003f0: e799 5a3d 4965 9abd dfbc f53b 2ad6 db3c

fc2.bias f4 [200]
0.09170014 -0.09613874 -0.09654854 0.07705888 0.018139442 -0.027030816 0.0869146 -0.030038865
0.08851994 0.05791722 -0.043160666 0.032507755 -0.029956622 -0.012116167 -0.026291797 -0.051378924
0.029369846 0.089027904 -0.04060411 0.04460518 -0.0058230604 0.019814178 0.012555289 -0.027065123
0.010104154 -0.0029931134 -0.027518481 0.015545384 -0.091797136 0.02327986 0.013811024 0.016959945
0.017136417 0.03343806 0.048274085 0.006157795 0.052388553 0.09851392 0.05658394 0.045147054
0.046118427 0.00553492 0.032285925 -0.066388324 0.02511986 0.05415325 0.057849463 0.071474984
-0.045758355 0.006894629 0.036480136 0.045404773 -0.018912885 -0.007297255 0.08051989 0.04624604
0.09132239 0.03722513 0.013694203 -0.07290298 -0.030170914 -0.06739781 0.024370242 0.046023477
0.017307056 0.01412315 0.026527327 0.07035043 -0.030554075 0.039897177 -0.055012576 -0.09626021
-0.0094072465 -0.038782816 0.0010955211 0.07190159 0.053498797 0.037382506 -0.07679253 -0.034388788
-0.09808738 0.07435632 0.016025256 0.015338454 -0.012418236 -0.02478036 -0.019266665 -0.026654856
0.07982697 -0.08805498 -0.040221862 0.024715096 -0.023161162 0.08891025 -0.09220026 0.021520697
-0.018254606 -0.015945204 -0.065578215 0.035771467 0.08079893 0.0075175622 0.0015425406 -0.019800998
-0.07545454 -0.0025426252 -0.023385745 -0.06697718 0.04378873 -0.086932294 -0.099132046 -0.0644933
-0.021301579 -0.0521279 0.070108674 -0.091316916 0.0014980141 0.05270052 -0.06697763 0.10153289
-0.0006748294 0.02840288 0.0031636858 0.036542665 0.06626258 -0.08402274 -0.03583316 0.08104426
-0.048981473 -0.025191957 0.017523719 0.05589902 -0.0798912 0.09313053 -0.054239374 -0.05276184
-0.006248841 0.0165554 -0.015670829 -0.028064126 -0.04762919 0.06243533 0.016088298 0.057911567
0.09692448 0.0975544 0.06560456 0.08480345 -0.070243925 -0.058873147 -0.066804856 0.024622722
0.07718075 -0.020982606 -0.09439619 -0.09123332 0.022220824 -0.015650785 -0.08637486 -0.04296703
0.0069970745 0.05932779 0.06585816 -0.0039066016 -0.0010490385 0.06478081 -0.048322856 -0.02198139
-0.051521525 -0.043121457 0.015770081 -0.023918934 0.09832152 0.064713106 0.04345088 0.03237338
0.08136022 0.021016765 0.029566947 -0.015506483 0.078885145 0.07925442 0.072554395 0.07536645
-0.03246491 0.02406538 -0.07526601 0.065686874 -0.031105138 0.05485935 0.070184566 -0.025459917
-0.055778388 -0.010948176 -0.06434159 0.08770459 0.048780087 -0.05525468 -0.06863774 -0.08961568
00000000: 48cd bb3d 63e4 c4bd 3ebb c5bd 0cd1 9d3d
00000010: 2b99 943c bb6f ddbc 4800 b23d 1114 f6bc
00000020: f149 b53d 9b3a 6d3d 3dc9 30bd da26 053d
00000030: 9767 f5bc e382 46bc e561 d7bc b572 52bd
00000040: 0899 f03c 4354 b63d 7f50 26bd ecb3 363d
00000050: 5fcf bebb 5851 a23c b3b4 4d3c adb7 ddbc
00000060: e58b 253c 1c28 44bb 706e e1bc 11b2 7e3c
00000070: 2300 bcbd 68b5 be3c a247 623c 95ef 8a3c
00000080: ac61 8c3c 59f6 083d 0cbb 453d 54c7 c93b
00000090: 6195 563d abc1 c93d 90c4 673d 1eec 383d
000000a0: ade6 3c3d 465e b53b 3f3e 043d 9af6 87bd
000000b0: 2ac8 cd3c cccf 5d3d 8ff3 6c3d 7a61 923d
000000c0: 1d6d 3bbd 57ec e13b 326c 153d 5bfa 393d
000000d0: 32ef 9abc d01d efbb 9de7 a43d 7d6c 3d3d
000000e0: 3c07 bb3d 6179 183d a75d 603c 284e 95bd
000000f0: fe28 f7bc dd07 8abd 1aa4 c73c 1d83 3c3d
00000100: 87c7 8d3c c964 673c d64f d93c e313 903d
00000110: 8a4c fabc 396b 233d de54 61bd 1324 c5bd
00000120: da20 1abc bbda 1ebd 9797 8f3a 2441 933d
00000130: 8e21 5b3d 661e 193d 6745 9dbd 42db 0cbd
00000140: 09e2 c8bd 2048 983d 6647 833c 244e 7b3c
00000150: db75 4bbc 2e00 cbbc 20d5 9dbc 495b dabc
00000160: 537c a33d 2b56 b4bd aebf 24bd 5077 ca3c
00000170: 7abc bdbc 9416 b63d 7dd3 bcbd 2c4c b03c
00000180: af8a 95bc 849f 82bc df4d 86bd 1a85 123d
00000190: e979 a53d e255 f63b 132f ca3a b435 a2bc
000001a0: e987 9abd 2ca2 26bb 7693 bfbc 552b 89bd
000001b0: d05b 333d 8f09 b2bd be05 cbbd 1015 84bd
000001c0: a680 aebc 1184 55bd 2395 8f3d 5d04 bbbd
000001d0: 0359 c43a 80dc 573d 912b 89bd 7af0 cf3d
000001e0: 09e7 30ba 28ad e83c d755 4f3b c3ad 153d
000001f0: adb4 873d 1d14 acbd cbc5 12bd 88fa a53d
00000200: cca0 48bd 5d5f cebc e78d 8f3c 5ff6 643d
00000210: ff9d a3bd 38bb be3d 1b2a 5ebd cd1c 58bd
00000220: 14c3 ccbb 319f 873c 1c60 80bc bde6 e5bc
00000230: d316 43bd 30bc 7f3d 9bcb 833c ae34 6d3d
00000240: 5780 c63d 9aca c73d af5b 863d 6ead ad3d
00000250: 0cdc 8fbd f824 71bd fcd0 88bd 97b5 c93c
00000260: f110 9e3d b7e3 abbc ca52 c1bd 89d8 babd
00000270: 7208 b63c 1336 80bc 4de5 b0bd 32fe 2fbd
00000280: b747 e53b b201 733d a5e0 863d f302 80bb
00000290: e47f 89ba cdab 843d 30ee 45bd 5112 b4bc
000002a0: 3c08 53bd 20a0 30bd 4230 813c a4f1 c3bc
000002b0: cb5c c93d 4e88 843d 8df9 313d f399 043d
000002c0: 30a0 a63d 5a2b ac3c 6236 f23c e70e 7ebc
000002d0: 898e a13d 2450 a23d 6697 943d ba59 9a3d
000002e0: edf9 04bd c324 c53c 1125 9abd d786 863d
000002f0: 34d0 febc 33b4 603d edbc 8f3d 5191 d0bc
00000300: e177 64bd fa5f 33bc 86c5 83bd 779e b33d
00000310: a1cd 473d bb52 62bd f291 8cbd 6d88 b7bd

fc3.weight f4 [100, 200]
0.038720116 0.044088166 0.033947125 -0.041086692 0.053592008 0.012949683 0.052986488 0.005649336
-0.027063934 -0.004016363 -0.01171497 -0.010714437 -0.021339282 0.011583794 0.04206042 0.046251692
0.0490331 0.07072515 -0.034226656 -0.009732281 0.0025505882 0.02125367 0.019957894 -0.030117173
-0.017527832 -0.020869572 -0.059573602 0.040051002 0.014076924 0.058619916 -0.060048494 -0.03135237
0.020404816 -0.06361466 -0.022643365 -0.05890771 -0.069822915 -0.065311216 -0.03552423 0.015797187
0.029821107 0.019314077 0.040567525 -0.010510022 0.031143242 0.06176274 0.008056467 0.05579151
0.037062112 0.06564417 -0.066447765 -0.03450149 -0.014210268 0.06355753 -0.06305103 0.00751922
-0.026797662 0.01693298 -0.05251928 -0.015779838 0.058072027 -0.06641774 0.018243842 -0.05574327
0.0057707927 0.05436859 -0.03358503 0.043518603 -0.0065885424 -0.02789137 -0.02624795 0.0002953522
-0.06484038 -0.064238735 -0.056630332 -0.009192133 0.017841259 -0.008200845 -0.05054151 -0.046300586
-0.023467138 0.04156109 0.045521054 0.06887477 0.007341811 0.012690085 -0.011725755 0.033266667
0.016192079 -0.062159177 -0.03554866 0.0071095717 0.040334158 0.008233371 -0.012760079 0.026567793
0.002001651 0.069324955 0.06021801 0.028046943 0.033325102 0.0457314 -0.071189135 -0.04535871
0.020378474 -0.05885031 0.061569903 0.016234735 -0.053006385 -0.021477437 0.041957747 0.05442982
0.044383805 0.04845527 -0.022369504 -0.035714343 -0.030778427 0.02829397 -0.05056328 -0.009269004
-0.07027465 -0.06318423 0.061949976 -0.048988543 0.013652052 0.0052884 -0.06670528 0.04885003
-0.034660403 -0.05542221 -0.032721333 -0.048490718 -0.069209285 0.03978255 -0.039740622 -0.057692856
0.011456757 0.048074603 -0.050416812 -0.035420574 -0.015569972 -0.05758169 -0.045206103 -0.050896335
-0.04838786 -0.035360876 -0.0274404 -0.018487984 0.03872224 0.005588044 -0.020390138 -0.030463623
-0.028964447 0.036961533 0.065875314 -0.04445324 0.043922286 0.07029641 -0.067660935 -0.009329333
0.02905474 0.03917952 -0.046523992 0.046024427 -0.049113736 -0.039651357 0.049025588 0.03664047
-0.042172663 -0.06911943 0.038208358 0.036377322 0.00244305 -0.014649055 0.059056293 0.032012586
0.03509954 -0.041647106 0.045266494 0.00540284 0.011074336 0.035229653 -0.034974758 0.010524328
-0.057596028 -0.06658136 0.05256943 -0.047831766 -0.023936484 -0.026136966 -0.051371083 -0.056484696
-0.036439825 0.0018760052 -0.0065691285 0.004418145 -0.050348993 -0.041563276 -0.042291366 -0.032481417
0.015357688 -0.010562988 0.03443279 0.04357087 0.029840175 -0.02163821 0.040817913 0.02481203
-0.0061826603 -0.047259882 0.00019600964 -0.019306118 0.03614324 0.060134105 -0.021936903 -0.05015432
-0.011242664 -0.00019803108 0.06425862 -0.041565333 -0.047688812 -0.07156539 0.055305388 -0.06472326
0.049634684 -0.057439543 -0.057677064 0.0229526 -0.015288988 -0.06685212 -0.044390056 -0.0038079724
-0.068190105 -0.0031096896 -0.050835047 -0.018842341 0.055952873 -0.06671779 -0.0031730556 0.0441939
0.052478008 -0.055050276 0.030034568 0.04752431 0.014955588 -0.00034299976 0.01451042 -0.013037983
0.049343675 -0.012257908 0.044380363 0.045645054 -0.018642006 -0.069811486 0.058278237 -0.043131184
00000000: fc98 1e3d cb95 343d 240c 0b3d 854a 28bd
00000010: 4b83 5b3d e82a 543c 5c08 593d 111e b93b
00000020: 2fb5 ddbc b29b 83bb 25f0 3fbc 9b8b 2fbc
00000030: b8cf aebc f4c9 3d3c 8c47 2c3d 6a72 3d3d
00000040: efd6 483d 59d8 903d 4031 0cbd 2574 1fbc
00000050: c527 273b 2d1c ae3c bd7e a33c 4ab8 f6bc
00000060: 8796 8fbc aaf6 aabc 7303 74bd 850c 243d
00000070: e6a2 663c 701b 703d 69f5 75bd 586b 00bd
00000080: 0028 a73c 6748 82bd 947e b9bc 3649 71bd
00000090: 51ff 8ebd e3c1 85bd db81 11bd 1a69 813c
000000a0: 654b f43c 8e38 9e3c 222a 263d 3a32 2cbc
000000b0: 1d20 ff3c edfa 7c3d 46ff 033c a385 643d
000000c0: 71ce 173d 7370 863d c415 88bd 6f51 0dbd
000000d0: 2fd2 68bc 732a 823d e620 81bd ca63 f63b
000000e0: c586 dbbc 08b7 8a3c 751e 57bd b844 81bc
000000f0: efdc 6d3d 0606 88bd 1c74 953c 0e53 64bd
00000100: eb18 bd3b 99b1 5e3d 7590 09bd 9040 323d
00000110: b3e4 d7bb 717c e4bc f105 d7bc 80d9 9a39
00000120: 08cb 84bd 998f 83bd 35f5 67bd 9a9a 16bc
00000130: d527 923c d65c 06bc 9d04 4fbd afa5 3dbd
00000140: 283e c0bc f63b 2a3d 4974 3a3d 370e 8d3d
00000150: 9393 f03b 13ea 4f3c 621d 40bc a142 083d
00000160: 40a5 843c 9f9a 7ebd 799b 11bd 69f7 e83b
00000170: 6e35 253d 43e5 063c a60f 51bc b3a4 d93c
00000180: 222e 033b 3efa 8d3d 29a7 763d b4c2 e53c
00000190: e77f 083d d950 3b3d 9ccb 91bd 0eca 39bd
000001a0: c2f0 a63c 060d 71bd b930 7c3d b5fe 843c
000001b0: 391d 59bd 73f1 afbc e3db 2b3d cef1 5e3d
000001c0: cbcb 353d 0879 463d 4040 b7bc 3449 12bd
000001d0: 0a23 fcbc c1c8 e73c 711b 4fbd 05dd 17bc
000001e0: 28ec 8fbd bc66 81bd 42bf 7d3d 36a8 48bd
000001f0: dbac 5f3c 514a ad3b c79c 88bd f816 483d
00000200: 11f8 0dbd 6602 63bd ce06 06bd 349e 46bd
00000210: 99bd 8dbd 07f3 223d 10c7 22bd 584f 6cbd
00000220: 1fb5 3b3c e0e9 443d dc81 4ebd 2a15 11bd
00000230: 3219 7fbc c7da 6bbd 092a 39bd ad78 50bd
00000240: 5932 46bd 91d6 10bd b1ca e0bc 1d74 97bc
00000250: 369b 1e3d e91b b73b 3809 a7bc d98e f9bc
00000260: d946 edbc fa64 173d a3e9 863d 9a14 36bd
00000270: dbe7 333d 90f7 8f3d d191 8abd 0fda 18bc
00000280: 3504 ee3c b47a 203d f18f 3ebd 1c84 3c3d
00000290: 7c2b 49bd 7669 22bd 0ecf 483d 5114 163d
000002a0: 3ebd 2cbd 7d8e 8dbd 5e80 1c3d 6300 153d
000002b0: 941b 203b 9702 70bc 03e5 713d a11f 033d
000002c0: 89c4 0f3d 2896 2abd 5c69 393d 4f0a b13b
000002d0: 2271 353c f84c 103d b141 0fbd 3b6e 2c3c
000002e0: d0e9 6bbd cf5b 88bd 0b53 573d 3eeb 43bd
000002f0: 7216 c4bc 311d d6bc 7c6a 52bd 7f5c 67bd
00000300: ed41 15bd 4ae4 f53a d841 d7bb 16c6 903b
00000310: bf3a 4ebd 413e 2abd b639 2dbd 3c0b 05bd
00000320: d09e 7b3c 6210 2dbc 6609 0d3d 5e77 323d
00000330: 6273 f43c 9e42 b1bc af30 273d 9942 cb3c
00000340: ea97 cabb 9493 41bd f087 4d39 dd27 9ebc
00000350: ef0a 143d 2e4f 763d 05b5 b3bc 9e6e 4dbd
00000360: 2733 38bc 90a6 4fb9 069a 833d 6940 2abd
00000370: 5855 43bd e090 92bd e787 623d a18d 84bd
00000380: bd4d 4b3d ba45 6bbd c93e 6cbd 1707 bc3c
00000390: aa7e 7abc c4e9 88bd 59d2 35bd 2d8f 79bb
000003a0: 41a7 8bbd efcb 4bbb 6938 50bd 415b 9abc
000003b0: d72e 653d 56a3 88bd 0af3 4fbb aa04 353d
000003c0: 2ef3 563d 667c 61bd 0e0b f63c daa8 423d
000003d0: 4808 753c a6d4 b3b9 1dbd 6d3c 449d 55bc
000003e0: 981c 4a3d 64d5 48bc 2fc8 353d 4ff6 3a3d
000003f0: 1fb7 98bc 53f9 8ebd 29b5 6e3d 53aa 30bd

fc3.bias f4 [100]
0.042355128 -0.061517064 -0.02802239 -0.0143663995 0.037157696 -0.040924825 0.06781445 -0.0031411704
0.0337062 0.018735591 -0.030843904 -0.020945184 0.009642785 0.05419678 -0.022209983 -0.01903767
-0.03877609 0.025871545 0.035513986 -0.021420725 -0.048976436 -0.016038556 0.0078116204 0.0074407007
-0.027767688 0.052637167 0.0068336874 -0.01826017 0.013754229 0.061171316 0.0024766668 0.050578568
0.051348493 0.06308495 -0.06618279 -0.029163867 -0.008731217 0.054286662 -0.07476903 0.05016872
-0.041674025 0.015458686 -0.0050789043 -0.04427581 -0.019118037 0.038414247 0.035859786 -0.07025713
0.030447941 0.034947816 -0.0457771 0.020266348 -0.042095527 -0.033212643 -0.02886333 0.05205187
0.027791211 0.0030512356 0.057051435 -0.020851456 0.00392935 0.043057725 -0.06591374 0.023095008
-0.0015766916 -0.04955499 0.013409337 -0.052718934 -0.06976521 0.020037489 -0.011514801 -0.019837877
-0.0168916 -0.04598632 0.06831717 0.03761535 -0.023452077 -0.03385627 -0.0063549704 -0.022781102
-0.0681522 -0.028574781 0.05421915 0.046253618 0.009421769 0.02530061 0.05975898 -0.04860065
-0.021203198 -0.036381267 -0.04330962 0.03862884 0.039916143 -0.05629341 -0.02119628 0.05059382
0.06992879 -0.014865578 0.0479242 0.025242826
00000000: 927c 2d3d 51f9 7bbd 368f e5bc 0c61 6bbc
00000010: ab32 183d caa0 27bd 4de2 8a3d 18dc 4dbb
00000020: 830f 0a3d 627b 993c 5bac fcbc 3c95 abbc
00000030: c6fc 1d3c 71fd 5d3d b6f1 b5bc e3f4 9bbc
00000040: add3 1ebd 90f0 d33c 1d77 113d 847a afbc
00000050: 849b 48bd 4a63 83bc 9ff8 ff3b 1fd1 f33b
00000060: 1079 e3bc 129a 573d 20ed df3b 5a96 95bc
00000070: 6b59 613c c68e 7a3d 934f 223b 792b 4f3d
00000080: cc52 523d af32 813d d88a 87bd 10e9 eebc
00000090: 610d 0fbc b15b 5e3d 8120 99bd b77d 4d3d
000000a0: 62b2 2abd 6e46 7d3c f06c a6bb 8d5a 35bd
000000b0: 6e9d 9cbc 4258 1d3d b6e1 123d f8e2 8fbd
000000c0: f66d f93c 7125 0f3d c580 3bbd 9d05 a63c
000000d0: 5c6c 2cbd fb09 08bd ca72 ecbc 5734 553d
000000e0: 65aa e33c 3df7 473b c4ae 693d acd0 aabc
000000f0: c7c1 803b 4c5d 303d c8fd 86bd be31 bd3c
00000100: fea8 ceba 2cfa 4abd d6b2 5b3c cfef 57bd
00000110: 10e1 8ebd a925 a43c 93a8 3cbc 0b83 a2bc
00000120: 4160 8abc 275c 3cbd dfe9 8b3d 8e12 1a3d
00000130: 921e c0bc dfac 0abd 5b3d d0bb 6f9f babc
00000140: 6193 8bbd a915 eabc e614 5e3d 6f74 3d3d
00000150: c35d 1a3c 3a43 cf3c d5c5 743d 7a11 47bd
00000160: 54b2 adbc 8604 15bd 6e65 31bd 4639 1e3d
00000170: 1c7f 233d eb93 66bd d2a3 adbc 773b 4f3d
00000180: d336 8f3d c18e 73bc 2a4c 443d 0bca ce3c

fc7.weight f4 [1, 100]
-0.057090618 0.04821061 0.0069962647 -0.091545 0.081096545 -0.08661746 -0.09822214 -0.035021886
-0.078589626 -0.05777024 -0.09415629 0.017334133 0.08183805 0.04742508 -0.07526246 0.050005678
0.01499624 -0.029384676 0.031199208 0.023880474 0.032349527 0.05932541 0.080883175 0.070976466
-0.0034052164 -0.044180375 -0.025599658 0.044678815 0.06081112 -0.0063177943 0.08932918 -0.017329903
-0.03638355 0.032025278 0.012778151 -0.06457134 0.08351326 -0.05843646 0.087734625 -0.059489965
0.0863546 0.086104326 0.0019455417 -0.088777535 0.037819546 0.052887026 0.09435451 0.098468326
0.030983277 -0.056194764 -0.054754976 -0.04376212 0.0044555333 -0.1209846 -0.010297705 0.045372553
-0.00059143384 0.030416919 -0.07597803 0.04346177 0.05245271 -0.06284969 -0.04434022 -0.012449022
0.07655119 0.070912294 -0.079628915 -0.06270557 0.09922199 -0.04819922 0.07456077 -0.05443663
0.06076732 0.065197 0.036262553 -0.102030076 -0.06279624 -0.018256688 0.053951476 -0.05308728
-0.054204166 0.022382695 -0.02877655 -0.066013165 -0.06951291 -0.04826801 0.074073225 0.036809582
0.017441448 -0.07448423 -0.034298167 0.080068775 -0.06581862 -0.0873844 -0.0567052 0.07974522
-0.05173592 -0.0618099 -0.009626271 0.009134719
00000000: dad7 69bd 7d78 453d ec40 e53b f27b bbbd
00000010: f215 a63d 7f64 b1bd b028 c9bd 1c73 0fbd
00000020: 99f3 a0bd 7da0 6cbd 03d5 c0bd 5000 8e3c
00000030: b59a a73d cd40 423d 3423 9abd c1d2 4c3d
00000040: cab2 753c 22b8 f0bc 7b95 ff3c fca0 c33c
00000050: f080 043d 33ff 723d 14a6 a53d 1c5c 913d
00000060: 0d2a 5fbb 7bf6 34bd 60b6 d1bc 2201 373d
00000070: 1515 793d 8005 cfbb 38f2 b63d 71f7 8dbc
00000080: eb06 15bd f02c 033d 735b 513c fb3d 84bd
00000090: 0009 ab3d 125b 6fbd 36ae b33d c0ab 73bd
000000a0: aeda b03d 7757 b03d 8c01 ff3a ffd0 b5bd
000000b0: abe8 1a3d 11a0 583d f03c c13d c3a9 c93d
000000c0: a4d0 fd3c 7b2c 66bd c146 60bd e93f 33bd
000000d0: b9ff 913b c6c6 f7bd b5b7 28bc 92d8 393d
000000e0: 740a 1bba e72c f93c 5f9a 9bbd f804 323d
000000f0: a7d8 563d 57b7 80bd 179e 35bd fcf6 4bbc
00000100: dfc6 9c3d 773a 913d 7c14 a3bd c76b 80bd
00000110: e634 cb3d 8c6c 45bd 51b3 983d f2f8 5ebd
00000120: 27e7 783d 0186 853d 0b88 143d 25f5 d0bd
00000130: 519b 80bd 0d8f 95bc 39fc 5c3d 0c72 59bd
00000140: 3005 5ebd ea5b b73c cdbc ebbc e931 87bd
00000150: c95c 8ebd adb4 45bd b4b3 973d a5c5 163d
00000160: 5ee1 8e3c 308b 98bd 3c7c 0cbd 19fb a33d
00000170: eacb 86bd 98f6 b2bd b643 68bd 7651 a33d
00000180: 0be9 53bd 612c 7dbd 82b7 1dbc caa9 153c
