Amos/Z05.pth (torch, 185583 bytes, 7 tensors)

fc1.weight f4 [100, 52]
00000000: de03 d43d 8c54 763d 9f5c 05bd 9372 ea3d
00000010: 7d5d f9bd ed43 613d ff9f ce3d fa78 763d
00000020: 1870 743d d0e5 303d f654 b5bc d811 aa3d
00000030: 4989 95bd 4758 623d bad9 88bd a3fc f13d
00000040: 0889 e73d c654 1d3d b070 073e ef07 fdbd
00000050: 54f2 9d3d 6d76 873a 8fe2 f23d 953c 063e
00000060: 88c2 d0bd 6ced 07be df3f 983d 7eee 06be
00000070: a6f3 073e b91e 013e 3dd6 f0bc dd3c 06be
00000080: a826 0b3b 05c4 e63d 4e4a d9bd a62b ac3d
00000090: 0b98 343d 5b6b 303d 12b5 153c 9404 80bd
000000a0: df8f 19bd 9d53 65bd 8903 0ebe 80b8 b7bd
000000b0: 799f 043e 7738 883d 2fd8 6e3d c4aa 063e
000000c0: 362e a6bd 690f da3d b165 08be af0c f53d
000000d0: 2b94 e73d 82fb 0b3e 221b cf3d 9bf8 893c
000000e0: 042f 39bd 5067 07be d4da 95bd 4e0f 1b3b
000000f0: 353f 28bc a62e d03d f510 27bd 23dd 1dbd
00000100: 96da 06bc 6353 9e3d 75c9 39bd e2e6 903b
00000110: a835 783c 1ade 503d 6460 70bd 748d 99bd
00000120: efab 47bd 3bd3 81bd 18f7 cf3d 0ec3 d43d
00000130: f543 99bd 1c00 d5bd a319 a8bd c15d d93d
00000140: 298f 94bd 45fa a1bd 9668 fbbd e4eb e73d
00000150: ee1a c83d 444e 8e3c 63b9 863d ddc5 a6bc
00000160: 2866 84bc c39a 0ebe b7e1 053d 04ef 123d
00000170: 4b4f d43d 9d17 26bd 6690 8d3d 25d1 9c3d
00000180: adc7 0e3c bb2a 783c b505 693d 61cc ad3d
00000190: f5f1 68bd d1fd 8dbd 124d 243d d617 a3bc
000001a0: b2b2 263c b1ab c5bd 9194 cdbd 1a27 5ebd
000001b0: 3714 773d 3878 b6bd 0d1e dbbc 1cd2 d63d
000001c0: 4a67 0a3c 0e30 70bd 0daf 943c 9dde 5cbd
000001d0: 3b84 103c 8e3a aebd 943f 8a3b 3d2d e63d
000001e0: 1db1 04be 71e2 ed3d 9843 0c3d af20 58bd
000001f0: eb28 c3bd bf4f 413d 7022 043e c068 233d
00000200: d529 573c b8fe d33d cd69 45bd c534 0a3e
00000210: 9bc0 a63d 2f5d f2bd e8fe fdbd 7983 093e
00000220: 812e bc3c 2a96 33bc 0718 ec3d e2d2 04bd
00000230: 4b1d eb3d eefd b6bd 00d6 03be 79ec 71bd
00000240: 7c39 dabd 4b27 c8bd ae2e 80bd 0938 8d3d
00000250: 40ef 07bc 7dba aa3d fc23 ff3d 3c95 023e
00000260: ec99 8abb 68d8 05be dd3a d6bd b4c9 003e
00000270: c8b9 dcbd 1b44 cd3d 057f b4bc 6856 053e
00000280: 9cec 2f3d eb7f 3dbd 5f1c d73d d923 6f3b
00000290: 21cb e3bd e6e7 f2bd 90c4 da3c 857a 8a3d
000002a0: 5953 bfbc 21ca b1bd ef6f c9bc c12c 00be
000002b0: a529 88bd 6bc2 94bd 1e05 d93d 2945 ffbd
000002c0: 0b21 e03c da1d e93d 0471 3a3d 2c36 eabc
000002d0: 1d1e 813d d422 343c b014 0f3d 0d6d ae3d
000002e0: e17a 9838 e891 f43c e7d4 f73d b2e9 49bd
000002f0: bf68 d2bc 0dd8 9fbd 3ed3 b0bd 7f02 65bd
00000300: 4885 c7bd 2bed 803d 0bfe 23bd 998b 09bd
00000310: 8e1b 583d 62c0 e83d 46cb e63d cd3b ad3d
00000320: ca40 80bd e1a0 f13d 845a 253d 2266 783d
00000330: ce88 7bbb 2c0e 983d 3aa5 fe3d 442d d9bd
00000340: 84c2 fd3d f823 c53d 5877 73bd e936 b23d
00000350: 5289 97bd 5e24 dfbc bb2d b23d 2ee2 8dbd
00000360: c294 0f3c 6cfd fdbd 4e07 893c 706f 83bd
00000370: 3dba 95bd 99ba bebd c362 c7ba df50 c33d
00000380: bf2b 8d3d a91b 1abb 011f 5abd 46d2 edbd
00000390: b884 aabd 7e9b a03d e4df 0c3d 7c36 a8bd
000003a0: c41b 8e3d c0d1 9f3d c077 553d 19e5 9fbd
000003b0: d561 063e 6225 753d db04 05be 5f3f 01be
000003c0: 1a45 fd3d 24e6 f33d 9a08 8dbd 3d02 afbc
000003d0: 95e8 a9bd 7c89 06be 39f3 03be e5b2 85bd
000003e0: 0c30 f4bd b40d 973d 8fc4 dabd 8be6 ba3d
000003f0: 04f4 e83d 0c2a 153c 8843 913b 95b9 59bc
0.103523 0.060139224 -0.032559033 0.114476345 -0.121760346 0.05499642 0.100891106 0.060173966
0.059677213 0.043187916 -0.02213524 0.08304185 -0.07301576 0.05525997 -0.06682153 0.11815765
0.113054335 0.038410924 0.1322658 -0.12355029 0.07712236 0.0010334976 0.11859619 0.13109048
-0.10193354 -0.13274163 0.074340574 -0.13176915 0.13276538 0.12609376 -0.029399032 -0.13109155
0.0021232758 0.112678565 -0.106098756 0.08406763 0.044090312 0.043071132 0.009137409 -0.06250873
-0.03749072 -0.055987943 -0.13868536 -0.089707375 0.12951459 0.06651395 0.058311637 0.1315108
-0.08114283 0.106474705 -0.13320042 0.1196531 0.11307558 0.13670161 0.10112597 0.016842177
-0.045210853 -0.13223004 -0.07317129 0.0023660245 -0.010268976 0.101651475 -0.040787656 -0.03854097
-0.008230826 0.077307485 -0.04535814 0.0044220546 0.015149511 0.050993063 -0.058685675 -0.07497683
-0.048747953 -0.06339117 0.10154551 0.10388766 -0.07483665 -0.104004115 -0.08208015 0.10613585
-0.07253868 -0.07909063 -0.122758076 0.113242894 0.097707614 0.017371304 0.065783285 -0.02035802
-0.016161993 -0.13926224 0.03268596 0.035872474 0.103666864 -0.040549863 0.069123074 0.07657079
0.008714599 0.0151469065 0.05689021 0.08486248 -0.056871373 -0.06933177 0.040112562 -0.019908827
0.01017444 -0.09651888 -0.100381024 -0.05423651 0.060322013 -0.08909649 -0.026747728 0.10489294
0.008447478 -0.05863958 0.018149877 -0.053923238 0.008820589 -0.08507262 0.004219005 0.11239097
-0.12958188 0.11615456 0.03424415 -0.052765545 -0.09529289 0.047195192 0.12903762 0.03989482
0.013132532 0.10351318 -0.048196603 0.13496692 0.08142205 -0.118341796 -0.12402135 0.13429059
0.022971394 -0.010961095 0.1152802 -0.032427676 0.114801966 -0.08935152 -0.12874603 -0.05906341
-0.106554955 -0.097731195 -0.062589034 0.068954535 -0.008296788 0.08336351 0.12458035 0.12752241
-0.0042297747 -0.13070834 -0.10460446 0.12576944 -0.107776225 0.10022756 -0.022033224 0.13021243
0.042950258 -0.04626457 0.10503458 0.0036489873 -0.11122728 -0.11860637 0.026705056 0.0676165
-0.023355173 -0.08681131 -0.024589507 -0.12517072 -0.06648568 -0.07263645 0.10596679 -0.12464363
0.027359506 0.11382647 0.045517936 -0.028590284 0.06304572 0.010994632 0.03493184 0.085168935
7.270813e-05 0.02985473 0.12101155 -0.049295135 -0.025684712 -0.0780488 -0.08634041 -0.055910584
-0.09742218 0.06295236 -0.040037196 -0.033580396 0.052760653 0.11364819 0.1126924 0.08458672
-0.062623575 0.11798263 0.040369526 0.060644276 -0.0038381102 0.07424578 0.12433858 -0.10604337
0.123906165 0.09626001 -0.059439987 0.087018795 -0.07399239 -0.02723902 0.08700129 -0.06927906
0.008763494 -0.12401852 0.016727116 -0.064177394 -0.07310913 -0.093129344 -0.0015211928 0.09536909
0.068931095 -0.0023515022 -0.053252224 -0.11612372 -0.08326095 0.07842158 0.034393206 -0.08213517
0.069388896 0.078036785 0.052116156 -0.07807369 0.13123257 0.059850104 -0.12990133 -0.1262183
0.12366696 0.1190913 -0.06886406 -0.021363372 -0.082963146 -0.13138384 -0.12885751 -0.06528262
-0.11923227 0.073756605 -0.10682022 0.09126004 0.11374667 0.009104263 0.004433099 -0.013288875

fc1.bias f4 [100]
00000000: 91b6 083d 0556 08be da37 d5bd 0572 333d
00000010: eecb b43d 36aa c73d 89be a2bc 0317 553d
00000020: e52d ffbd 68ef 023e 66cf 20bd fe8a a53c
00000030: 8fbf dd3c 1a82 0ebe a224 8abd 19a8 41bd
00000040: 89f0 3ebd 2224 84bd 7f1b b03d d3ee 8abd
00000050: a813 3bbd 3b76 803d 6f78 f33d 4469 c23d
00000060: 475e d53c 518f d7bd 0000 373d 7ee3 f5bd
00000070: c359 d83d e1fc 6d3d 9c0f 02be d4eb c93c
00000080: a59a e73d 3768 e33d b685 d83d 06b4 8fbd
00000090: 6caa dbbb 4d84 703d d87a c7bd 30b8 acbb
000000a0: 3634 57bd 0a1d dabd bab8 013e e1fc b0bd
000000b0: 2e2f efbd 6e2c 0abe f356 053e 0b81 3abd
000000c0: 54df 273c 7680 04bd 6323 083e 3560 b7bd
000000d0: 99c3 71bd 0bce 87bc d81d 2c3c b083 b5bd
000000e0: 34b2 403d 6ded b1bd 043b 99bd 9df7 663d
000000f0: a834 92bd d15d d93d 5359 fbbd bfef 5ebd
00000100: 6818 6c3d 6d8e 84bc 83ae ad3d c174 4d3c
00000110: 6cb7 86bd 2ae9 033e 5d14 3abd c580 883d
00000120: e206 a23c 212c 2b3d 325e debc 2015 0cbe
00000130: a9d5 563d 1220 b53d d4ae ba3d 31ff 0c3e
00000140: 9e58 09be 3efb 8f3d a862 083e 92c4 f43d
00000150: 1890 abbd a855 0a3e 55ff f83d cee9 0abe
00000160: 7bc4 9fbd 2d13 59bd 04bc 903c 01d8 953d
00000170: 7f37 723a 0c22 f53c 9fbb 543d 318f 813c
00000180: 79f7 7d3d b6fc 063e 4402 4f3d 3fa0 da3d
0.033377234 -0.13314064 -0.104110435 0.04380991 0.08827959 0.09749262 -0.019866245 0.0520239
-0.124599256 0.12786639 -0.03926029 0.020207878 0.027068881 -0.13916817 -0.067452684 -0.04727945
-0.04661611 -0.06452204 0.085989945 -0.06783833 -0.045673043 0.06272551 0.11888205 0.09492734
0.026045932 -0.10525382 0.044677734 -0.12006281 0.10563996 0.058102492 -0.12701267 0.024648584
0.11308793 0.11103862 0.10572378 -0.070167586 -0.0067036655 0.05871992 -0.097402275 -0.0052709803
-0.052540027 -0.1065007 0.12668124 -0.08641983 -0.11678921 -0.13493511 0.1302145 -0.04553322
0.010246117 -0.032349072 0.13294749 -0.08953897 -0.059024427 -0.016577741 0.010505162 -0.08863008
0.047044948 -0.086878635 -0.074819595 0.056388486 -0.0713895 0.10613597 -0.122728966 -0.05442786
0.057640463 -0.016181195 0.08480551 0.012540043 -0.06577954 0.12881914 -0.045429576 0.06665186
0.019778673 0.04179013 -0.027144525 -0.13679934 0.052449856 0.088440076 0.09115377 0.13769223
-0.13412711 0.070303425 0.13318884 0.11951555 -0.08377093 0.13509238 0.12158076 -0.13565752
-0.078011476 -0.052996803 0.017667778 0.0731659 0.0009239837 0.029923461 0.051936742 0.01581535
0.062003586 0.13182339 0.05053927 0.10675096

fc2.weight f4 [200, 100]
00000000: fc12 4d3d ce3a 483b b267 8fbc 4832 1d3d
00000010: 52fc 823d f504 18bd f4c1 a53d c326 b3bd
00000020: 6d25 9f3d 39d1 b8bb 9416 d4bc cb24 c03c
00000030: 8068 a93d 1800 a73c 7d98 51bd 819f 763d
00000040: 5f10 c5bd 88ee 513d 6b9f 67bd 0b41 7bbd
00000050: 449d bb3d 0b11 8cbd 148b 1f3d b8b7 36bc
00000060: a295 de3c 5f20 8f3d 3251 39bd d57b 9ebd
00000070: 6afc 84bd 0a8a 71bc f2a0 a03d 162e 413d
00000080: 6213 c2bc 8424 4ebd 850f bbbd 5dcb 283d
00000090: 56dc f6bc fd7e 1bbc 6926 abbd e503 ab3d
000000a0: 794a cabd a7df 6cbc af64 24bd f39f 2bba
000000b0: 9f49 bebd a6a0 cd3c 75b9 b53c ac1f c63d
000000c0: 7897 88bd f31d 5dbd 9cc9 a9bd 4107 74ba
000000d0: 99e5 af3d 1b0a b9bd c252 95bd c679 4a3d
000000e0: 5b92 18bd 8338 633d f2b0 9abd 7fa2 a2bd
000000f0: 4e0d dfbc f91e a8bd c209 5a3d 0ef9 48bd
00000100: 0d2a 3a3d 3763 1fbd 6668 cabd 941d 56bd
00000110: 0d3e 60bc 4993 84bd c31c b83d 8485 0abd
00000120: 704b bfbd b7d3 87bd e8fb ba3c 3f9d 81bd
00000130: 6c39 8dbc adb7 6c3d d68d 91bd 00fc 77bd
00000140: cd89 cabc 9f39 253b 2bc0 87ba b327 16bd
00000150: c30e babd 8748 31bd 8ff8 a7bc 1ee4 44bd
00000160: 02cb 63bd cb57 813c cad4 3d3b b308 e93a
00000170: d3b4 c6bd 01b5 c5bd 4adb 48bd d568 b63d
00000180: 1c55 c5bd d35b a1bd 0532 9abd c6d0 a4bd
00000190: a90c 28ba f561 753c afc3 4ebd 6b24 a3bc
000001a0: 5fec 9abd 769f 86bd 1882 a53d 83a0 c23d
000001b0: c524 6e3d 8c47 783d 14e6 dbba 4bb2 a3bd
000001c0: 98ea 633d 8a12 883d 9d05 83bd 52bd b6bd
000001d0: f683 c7bd 197c 413c ee05 b9bd 6207 693d
000001e0: 8745 c4bd 2cf8 88bd 33f7 9fbd 5f14 cabd
000001f0: ce5d b4bc a87e 363d bb19 b53d adac 373c
00000200: 2656 1dbd 6b2c 9f3d 52f6 c43c b296 0a3d
00000210: 4700 a7bc 4e0f 08bc 943b 9c3d 3f5e 61bb
00000220: a92d 9ebc 1d0a d73c 7bd8 24bd 5888 84bd
00000230: 807e 60bd c324 e03c 5597 9ebd b103 6abb
00000240: 053c 8a3d 329f 48bd 7868 aabd 9a73 2abc
00000250: c22a ac3d 4a72 6f3d e7de 90bc d011 893d
00000260: 6e55 693d 7fd6 863d 7f2c a03c f888 c7bc
00000270: bf38 00bc 6d46 593d 0585 30bb be0f 05bd
00000280: 8229 993d b349 c03d 492e 2cbd f913 17bd
00000290: 43d6 6fbd 2117 90bd 057a 7b3d a037 ab3d
000002a0: f474 603c ff2c 62bc ed39 b73d 07d6 7ebd
000002b0: 40f2 293d 2eba 883d 2fef 5a3c 5ec0 b63c
000002c0: c02f cbbd 8832 bf3c fcaa acbd bc02 813d
000002d0: 3e6a 0ebb 057d 283d 66c3 ad3d bc0b c03d
000002e0: 4ec0 8a3c 7a4a b43c dd41 d33c 1181 913c
000002f0: 8bf5 ebbc aae2 8bbd 028c e03b cbe9 efbc
00000300: aa59 273d a415 04bd cf12 5fbc 1162 c73d
00000310: e4bb 553c a24a 593d f1ed e83c 4704 95bc
00000320: 4e93 853d db8c 9d3d 387c cabd 9586 c7bd
00000330: fc45 9f3d 71e8 c5bc 32f2 52bd 9423 12bd
00000340: 7c23 09bc 290e 403d ab96 9fbd 4a60 af3d
00000350: 9ec3 edbc 1d49 99bd d4e5 c6bb 74d3 80bd
00000360: ce94 6b3d c970 88bd 5e3e 2f3d ebf5 2bbd
00000370: 5902 c93d 6a21 e13c 5d24 98bd 345f 87bd
00000380: ffb4 163d f841 c8bc b0e1 963d e170 81bd
00000390: d67b df3c 3740 a93d 7088 743d 3c9e 973c
000003a0: 813d 9ebd 06a5 97bc 7251 b53d 60a4 993d
000003b0: dd73 92bc 0a10 b13d 3c84 8c3d 6a99 37bd
000003c0: 63f0 c53c fbf0 a23c 93dd ab3d 5e39 c23d
000003d0: 879f b13d 2dde 3ebd c2a7 bdbc 787f a9bc
000003e0: 2984 92bd 0e8b c83d c1a4 26bb d832 8e3d
000003f0: 1bf6 593d 4c31 9abd 1996 f43b 0747 db3c
0.050066933 0.0030552628 -0.0175055 0.03837803 0.063957825 -0.037114102 0.08093634 -0.087476276
0.0777081 -0.0056401757 -0.025889672 0.023455044 0.08271885 0.020385787 -0.051170815 0.06021071
-0.09622263 0.05125287 -0.056548517 -0.061341327 0.091608554 -0.06839188 0.038950995 -0.0111522
0.02717096 0.06988596 -0.04524345 -0.07738463 -0.06493457 -0.014742384 0.07843198 0.04716309
-0.023690883 -0.050327793 -0.091338195 0.041209567 -0.030134361 -0.009490726 -0.083569355 0.08350352
-0.09877486 -0.01445762 -0.04013508 -0.00065469666 -0.09291386 0.025101017 0.02218316 0.0967401
-0.06669515 -0.05398364 -0.08290407 -0.0009308942 0.08588714 -0.090351306 -0.072911754 0.04943254
-0.03724895 0.055473816 -0.07553281 -0.0794115 -0.027228024 -0.082090326 0.053231962 -0.049065642
0.04545026 -0.038912978 -0.09883194 -0.0522743 -0.013686669 -0.06473405 0.08989861 -0.033818737
-0.093405604 -0.06632178 0.022825196 -0.063288204 -0.017239295 0.057792354 -0.07107131 -0.06054306
-0.024723912 0.0025211347 -0.0010356953 -0.036658954 -0.09084847 -0.043282058 -0.020504264 -0.048069112
-0.055613525 0.015788933 0.0028965943 0.0017779082 -0.09702458 -0.096536644 -0.049037255 0.08906714
-0.09635374 -0.07878842 -0.07529072 -0.08047633 -0.0006410578 0.014976968 -0.050479587 -0.019914826
-0.075646155 -0.065733835 0.08081454 0.095032714 0.058140535 0.060615107 -0.0016776943 -0.07992991
0.055643648 0.06644161 -0.06397555 -0.08922829 -0.097419664 0.011809372 -0.09034334 0.056891806
-0.09583574 -0.0668796 -0.078108214 -0.09867167 -0.022017386 0.044554383 0.08842798 0.011210603
-0.038412236 0.07772144 0.024043236 0.03383512 -0.020385874 -0.00830443 0.07628551 -0.003438845
-0.019308882 0.02624994 -0.040245514 -0.06471318 -0.05480814 0.02736128 -0.07743708 -0.0035707767
0.06749729 -0.048979945 -0.08320707 -0.010403538 0.08406593 0.058458604 -0.017684413 0.066928506
0.056966238 0.06583881 0.019552467 -0.024357304 -0.007826029 0.05304568 -0.0026934755 -0.032485716
0.0747862 0.09389057 -0.04203633 -0.03688428 -0.058553945 -0.070356615 0.061395664 0.08360219
0.013699759 -0.013804673 0.08946595 -0.06221583 0.041490793 0.06676136 0.01336269 0.022308525
-0.09921217 0.023339525 -0.0843105 0.0629935 -0.0021730806 0.041134853 0.08484535 0.09377238
0.016937401 0.02200817 0.025788242 0.017761739 -0.028803607 -0.06830342 0.0068526277 -0.029286286
0.040856995 -0.0322472 -0.013615324 0.097355016 0.013045285 0.05304969 0.028433772 -0.018190516
0.06522237 0.07692882 -0.09886974 -0.09742466 0.0777702 -0.024158688 -0.051500507 -0.03567846
-0.008370277 0.046888504 -0.077924095 0.085632876 -0.029023942 -0.074846484 -0.006069878 -0.062903315
0.057514958 -0.06662137 0.042784087 -0.041982573 0.09814901 0.027481753 -0.07428811 -0.066099554
0.036793705 -0.024445519 0.07367265 -0.06320358 0.02728073 0.08264201 0.05970043 0.01850807
-0.07726575 -0.018511306 0.08853425 0.07502055 -0.017877514 0.08645637 0.06861159 -0.04482404
0.024162477 0.019890299 0.08391871 0.09483598 0.086730056 -0.046598602 -0.023151282 -0.020690665
-0.07154114 0.097921476 -0.002542779 0.069432914 0.05321322 -0.07528934 0.007464182 0.026767267

fc2.bias f4 [200]
00000000: a0e1 bb3d cf6c c6bd 135a c5bd a585 9d3d
00000010: b760 9c3c c65f dbbc 6836 b13d dad8 f3bc
00000020: af21 b53d 566a 6d3d 3d15 31bd dda8 033d
00000030: 948e f4bc 694b 4bbc 4246 e6bc aaaf 52bd
00000040: a6b0 ed3c 9f51 b63d b4a4 24bd b9f2 373d
00000050: 94d6 f9bb 33d9 9e3c a3df 463c dadc d9bc
00000060: c695 2e3c 6cc9 57bb 6ca9 dfbc ec77 813c
00000070: 1e77 bbbd 31fd bf3c c15a 6e3c 9afb 883c
00000080: 6691 8c3c 4412 093d 2b09 463d 0741 9e3b
00000090: aed1 513d a3e5 c83d f5bf 663d 556d 3c3d
000000a0: 9843 3b3d 39c3 b23b 9174 023d 3fd3 88bd
000000b0: 1047 ca3c 2fd8 5b3d dc9c 713d d423 903d
000000c0: f733 3ebd e0a9 e63b 7328 173d 59ef 3a3d
000000d0: a33e a6bc 883e f9bb 8be4 a33d afe8 3d3d
000000e0: 10b3 bb3d 7a46 183d 1ce2 5f3c 80af 94bd
000000f0: 3fe0 f3bc 72ea 88bd 9d61 cc3c 20eb 3c3d
00000100: 4468 8e3c 4e6d 673c ad54 d93c c09a 8f3d
00000110: 6bc4 fdbc 530e 213d 0ca3 64bd aceb c4bd
00000120: 1564 16bc 6970 1ebd db25 f238 b708 933d
00000130: af7b 5b3d cdb1 1b3d fb42 9dbd 5bbc 0bbd
00000140: 5683 c9bd 2bea 963d 30ef 813c 1edb 6d3c
00000150: 2e9d 67bc 98f0 cabc 0c04 a1bc b831 d8bc
00000160: e2a9 a33d 219c b3bd fb8d 22bd 5331 c83c
00000170: c905 c2bc 4ca4 b53d 653a bdbd b544 b03c
00000180: 6676 8ebc 8c3a 84bc 0e44 87bd 9c7b 0e3d
00000190: 6895 a43d bba8 043c a27f 9f3a 2a3e 9fbc
000001a0: eb09 9abd 1474 0cbb 80d0 bfbc 1074 88bd
000001b0: 50f5 323d 10d9 b1bd d7d9 cabd 81be 82bd
000001c0: 5e37 b3bc 7491 56bd a5f5 8f3d 6ffc babd
000001d0: 3e75 803a 8394 563d efb7 89bd 5877 cd3d
000001e0: 3989 0eba 2cc5 e23c 7ff7 5d3b fa14 1a3d
000001f0: 14be 873d a031 acbd 24f7 10bd 282d a63d
00000200: 41dc 48bd 13b2 cebc cc2b 8c3c dc83 633d
00000210: 8926 a4bd 8449 be3d a8fa 5ebd d34c 58bd
00000220: 9ee6 b7bb 84a0 843c 6002 72bc 6c38 e4bc
00000230: a19e 40bd d70f 7c3d 146b 873c 8f68 6c3d
00000240: 600a c53d fbb8 c73d 2a51 853d 68ab ad3d
00000250: fb67 90bd f5ee 73bd 23ab 89bd 6b32 c53c
00000260: fab5 9d3d b424 aabc ea3c c1bd 21b2 b9bd
00000270: baf5 b33c 90fc 81bc 6bde afbd dd4a 30bd
00000280: 151b e73b 3341 753d a94d 863d 4f05 80bb
00000290: ef5e efba cab2 843d 1092 45bd 6170 b0bc
000002a0: 03ac 52bd 9e78 31bd b413 7e3c d12c bebc
000002b0: e0bf c63d 5830 833d 1513 323d d5b6 023d
000002c0: e76b a53d fc27 ac3c 3bcc ef3c 856d 80bc
000002d0: 9f66 a13d e921 a33d f14a 943d 44f5 993d
000002e0: 1f0c 05bd ba8c c23c ddd0 98bd 32d6 863d
000002f0: 264a ffbc a863 623d 2b0a 903d 1d54 d8bc
00000300: 2cca 64bd c36d 33bc 0c49 85bd 1fa5 b43d
00000310: c897 423d a99b 61bd cacd 8cbd c852 b4bd
0.09173894 -0.09688722 -0.09636321 0.07691506 0.019089086 -0.026779067 0.08652955 -0.029766489
0.08844315 0.057962738 -0.043233145 0.032143462 -0.029853143 -0.012408116 -0.028109673 -0.051437058
0.029014897 0.08902287 -0.040196136 0.044909213 -0.0076244567 0.019390678 0.01213828 -0.026594568
0.010655826 -0.0032926453 -0.027302466 0.015804254 -0.09153579 0.02343616 0.014548005 0.016721535
0.017159175 0.033464685 0.048348587 0.004829529 0.051225357 0.09809425 0.05633541 0.046002705
0.04571876 0.0054554013 0.031849448 -0.06680917 0.024692088 0.053672966 0.058987483 0.07038084
-0.046436276 0.0070392936 0.03690381 0.045638416 -0.02029354 -0.0076063313 0.080025755 0.046364482
0.09165013 0.037176587 0.0136647485 -0.072600365 -0.029770015 -0.06685342 0.02494889 0.04612267
0.017383702 0.014125181 0.026529634 0.07011938 -0.030977448 0.0393203 -0.055819556 -0.09615263
-0.009179135 -0.03868142 0.0001154651 0.071793966 0.05358475 0.03801136 -0.07678791 -0.034115177
-0.098395035 0.07368883 0.015861124 0.014517574 -0.014136596 -0.024772927 -0.01965525 -0.026390895
0.07991387 -0.087700136 -0.039686184 0.024437582 -0.0236844 0.08869228 -0.092396535 0.021517137
-0.017390441 -0.016141199 -0.06604777 0.03478585 0.080363095 0.008096869 0.0012168775 -0.019438822
-0.07521423 -0.0021431493 -0.02341485 -0.06662762 0.04369098 -0.086839795 -0.09904831 -0.06383992
-0.021876987 -0.05238481 0.07029275 -0.09130179 0.0009800566 0.052387726 -0.06724536 0.10032529
-0.0005437318 0.02768191 0.0033869443 0.03761766 0.066280514 -0.08407903 -0.03539194 0.081140816
-0.049038175 -0.025231397 0.017110728 0.055545673 -0.080151625 0.09291366 -0.054438263 -0.05280764
-0.0056122085 0.016189821 -0.014771074 -0.027858935 -0.04702628 0.061538544 0.016530551 0.057716902
0.096211195 0.09752079 0.065096214 0.08479959 -0.07051083 -0.05955406 -0.06722095 0.024071893
0.07700725 -0.020769455 -0.094354466 -0.090671785 0.021967757 -0.015867501 -0.08587345 -0.043040145
0.007052789 0.059876632 0.06557781 -0.003906883 -0.0018262545 0.06479414 -0.048235 -0.021537961
-0.051433574 -0.04332792 0.015507627 -0.02321473 0.09704566 0.06405705 0.04347523 0.031912643
0.08077221 0.02101516 0.02927219 -0.015677223 0.078809015 0.07965452 0.072408564 0.07517484
-0.032482263 0.023748744 -0.074617125 0.06583823 -0.031163286 0.05527082 0.070331894 -0.026407296
-0.05585687 -0.010951462 -0.06508073 0.08820557 0.04750803 -0.05508009 -0.06875189 -0.08804852

fc3.weight f4 [100, 200]
00000000: 82d2 1e3d 33a7 323d d0b6 0a3d b00c 29bd
00000010: 5a15 5a3d dd6c 503c 4b83 573d e0df b93b
00000020: 82b1 dbbc 8d6c 88bb c04e 3fbc a8ab 33bc
00000030: 2778 b0bc ac49 383c 4184 293d 4f7a 3d3d
00000040: 7de8 473d 9715 903d a533 0ebd 469b 27bc
00000050: 5a4d d43a a6e4 ad3c 60cd a33c 5e99 fbbc
00000060: 4d62 8fbc c009 abbc 892a 74bd 8401 223d
00000070: a6ba 633c 9015 703d f006 78bd e602 01bd
00000080: 0bd5 a53c 9acf 82bd 0c1a bbbc b552 72bd
00000090: d6d7 8fbd c36f 85bd e53b 11bd c62b 7d3c
000000a0: f5ac e93c 685f a03c 3eca 263d 2269 2abc
000000b0: df74 ff3c 1408 7a3d 411a f03b 59df 643d
000000c0: 9d67 173d 5597 853d 9fd0 87bd 01c2 0dbd
000000d0: a90e 71bc 4931 823d 5864 81bd c706 ee3b
000000e0: b11b e3bc a63f 893c 6530 57bd d4d2 85bc
000000f0: d544 6d3d 75a5 88bd f139 9f3c 9d7a 65bd
00000100: 8aee bb3b 2ef2 5d3d 1d49 0abd a953 303d
00000110: c410 e4bb e542 e8bc 7c3b d9bc 6594 e439
00000120: dbc0 84bd 1a62 83bd 88bb 68bd 570e 17bc
00000130: 966b 923c 6875 07bc 2454 50bd 3e0c 3dbd
00000140: a41f c0bc b835 2a3d 0cce 3a3d 77bc 8b3d
00000150: 9b42 da3b 3009 493c f730 3ebc c204 063d
00000160: 8600 823c 8956 7ebd 7e73 13bd c417 d73b
00000170: 9520 233d ead1 053c e4b8 4ebc e9e0 d83c
00000180: 5424 e03a f0a3 8d3d bacd 763d 0d66 e23c
00000190: 7d7e 063d a174 3c3d b942 91bd f6e1 39bd
000001a0: ec62 a33c 4165 73bd 11d7 7c3d 1d71 863c
000001b0: 8900 5abd b6ea afbc f9d7 2b3d af29 5e3d
000001c0: df90 343d db83 463d 8b10 b6bc 6379 12bd
000001d0: 9510 fcbc babe e63c 1469 52bd 0c90 28bc
000001e0: 5fbd 8fbd 76a2 81bd de93 7d3d a622 49bd
000001f0: 4b15 623c 3a54 9f3b 84b0 88bd 2d48 473d
00000200: 8e2e 0ebd 07a3 62bd cc30 09bd 6cbd 45bd
00000210: bf3c 8ebd d231 223d b00f 22bd 6ad0 6cbd
00000220: e005 3a3c aa22 423d 8d47 50bd 5946 11bd
00000230: 3e39 80bc 312c 6cbd 212c 3abd d0c8 4ebd
00000240: 51bb 48bd 537b 13bd 1831 e1bc 11cb 98bc
00000250: 0479 1e3d 8024 ac3b 6dca a8bc 71c6 f8bc
00000260: 1810 ecbc 484c 173d 7c8b 863d f6f2 36bd
00000270: 9a19 343d daf2 8f3d 3f44 8bbd b9b7 13bc
00000280: 8507 ed3c 3f5e 203d 656d 3fbd a06d 3b3d
00000290: 9320 49bd aec0 23bd 04b6 473d fd94 163d
000002a0: f98c 2cbd 4e84 8dbd 9329 1a3d 52e6 153d
000002b0: dcf5 063b c487 6cbc ae39 723d aa06 023d
000002c0: e3e8 0f3d acf1 2abd 8435 393d 2103 a73b
000002d0: c31c 3d3c cb7b 113d b9cd 0ebd a5d2 303c
000002e0: 645c 6cbd 476c 88bd dd91 563d e522 44bd
000002f0: 5694 c3bc 809e d8bc 936a 52bd 4ec5 66bd
00000300: 514d 14bd 83e5 b33a f589 e2bb 8965 8e3b
00000310: 8155 4fbd 1b37 2bbd 6854 2dbd 7519 07bd
00000320: eec8 7a3c ffba 29bc 4a83 0e3d c1fc 323d
00000330: bbe7 f63c 232a b0bc ba9e 283d 2a4a cb3c
00000340: 96f9 d0bb 037b 40bd 1d3c 1f39 fb2e 9cbc
00000350: 7afe 143d 525a 773d a3bb aebc f495 4dbd
00000360: 7591 38bc eb1d d6b8 a06e 843d 4643 27bd
00000370: f97a 3ebd e3e0 91bd 5587 623d dcae 82bd
00000380: f914 4c3d 702a 6bbd 024d 6cbd 7ea3 bd3c
00000390: f81d 78bc b3ec 88bd efd1 35bd 0253 77bb
000003a0: 8623 8bbd c79d 27bb 0bf5 4fbd 2889 98bc
000003b0: d80e 673d e3a1 88bd aa4a 47bb aa90 363d
000003c0: a8f6 5b3d d447 60bd d600 f53c 8f14 423d
000003d0: 0fef 723c 751c ce39 53dc 783c 7a44 50bc
000003e0: e4b5 4a3d f838 40bc 05e7 353d 78f5 3b3d
000003f0: e461 92bc bee2 8ebd 60c4 703d 9c14 30bd
0.038774975 0.043616485 0.03386575 -0.041271865 0.05324302 0.0127212675 0.052615445 0.00567244
-0.02681804 -0.004163331 -0.01167649 -0.010966219 -0.021541668 0.0112480335 0.041385893 0.04625922
0.048805702 0.07035368 -0.03471722 -0.010229891 0.0016197369 0.021227192 0.019995391 -0.03071278
-0.017502928 -0.020878673 -0.059610877 0.039552227 0.013899481 0.058614314 -0.06055349 -0.031496905
0.020243188 -0.06387253 -0.022839569 -0.059160907 -0.07023589 -0.065154575 -0.03545751 0.015452331
0.028524855 0.019576743 0.040720217 -0.010401042 0.031183658 0.06104286 0.0073273485 0.055877063
0.036964048 0.06523005 -0.06631588 -0.034608845 -0.014712968 0.06357057 -0.06317967 0.0072639915
-0.027723165 0.016753983 -0.052536387 -0.016335882 0.05792697 -0.066721834 0.019436808 -0.056025136
0.005735223 0.05418604 -0.033761133 0.043048535 -0.0069600064 -0.02835221 -0.026517622 0.0004359811
-0.06482097 -0.06415196 -0.05681947 -0.0092197275 0.017873567 -0.008267738 -0.050861493 -0.046154253
-0.023452587 0.041555136 0.045606658 0.06823056 0.006660772 0.012270257 -0.011608354 0.03271938
0.01586939 -0.062094245 -0.035998814 0.0065641124 0.039825995 0.008167723 -0.012617324 0.026474433
0.001710067 0.06916034 0.06025479 0.027636552 0.032835472 0.046009663 -0.070928045 -0.04538151
0.01994463 -0.059422735 0.06172854 0.016411358 -0.053223167 -0.021474224 0.041954014 0.05423897
0.044083472 0.04846559 -0.022224685 -0.035760295 -0.030769626 0.028167117 -0.05136974 -0.01028825
-0.070185415 -0.06329815 0.061908595 -0.04910531 0.013799022 0.0048623355 -0.06674293 0.048652817
-0.034712367 -0.055331256 -0.033493802 -0.04827635 -0.0694518 0.039598294 -0.039565742 -0.057815947
0.01135394 0.04739634 -0.050849486 -0.03546748 -0.015652295 -0.05765933 -0.04545224 -0.05048448
-0.049006764 -0.036006283 -0.02748923 -0.018651517 0.03868963 0.0052533746 -0.020604337 -0.030368062
-0.028816268 0.03693798 0.06569573 -0.0446653 0.043969728 0.07028742 -0.06800126 -0.009015971
0.02893425 0.03915238 -0.046735186 0.045758843 -0.04910333 -0.039978676 0.048757568 0.03676318
-0.04212663 -0.06910001 0.037637305 0.036596604 0.002059332 -0.014436666 0.05913704 0.031744637
0.035134207 -0.041734383 0.045217052 0.0050968085 0.011542502 0.03551845 -0.03486416 0.010792409
-0.057705298 -0.06661277 0.0523852 -0.04788484 -0.023874443 -0.026442766 -0.05137117 -0.05634051
-0.036206547 0.0013725016 -0.0069134184 0.0043456 -0.050618652 -0.0418006 -0.042316824 -0.032983262
0.015306694 -0.010359525 0.034793176 0.043698076 0.030139795 -0.021504467 0.041167 0.024815638
-0.006377409 -0.046992313 0.00015185816 -0.01906537 0.0363755 0.06038887 -0.021329707 -0.050191835
-0.011265148 -0.00010209888 0.064664125 -0.04083564 -0.046503995 -0.07122972 0.055304844 -0.06381008
0.04982469 -0.05741352 -0.057690628 0.023149248 -0.015143864 -0.06685772 -0.04438966 -0.0037738685
-0.06793885 -0.002557622 -0.0507708 -0.018620089 0.05641064 -0.066715024 -0.0030409493 0.044571556
0.053702027 -0.054756 0.029907625 0.047382887 0.014827504 0.00039312584 0.015189248 -0.012711639
0.04948987 -0.011732332 0.04440977 0.045888394 -0.017868944 -0.069768414 0.058781028 -0.042988405

fc3.bias f4 [100]
00000000: cacf 293d b0f5 73bd cf15 e6bc 9fd5 67bc
00000010: b09a 193d 816b 2ebd 8108 853d 1ff7 1bbb
00000020: a2f4 013d cb1b 8c3c b44c 0fbd 47e8 a8bc
00000030: 27b9 193c 572f 643d 5178 c1bc 262b 8ebc
00000040: 6d57 20bd 30c3 df3c 0771 143d 37db a3bc
00000050: 4948 44bd b9f0 71bc 331a 0a3c 5a0c 003c
00000060: 81f3 e2bc 6156 523d 5712 e03b af1c 8fbc
00000070: f244 453c 3de0 793d e20b 283b b013 4e3d
00000080: 44bb 563d 2f65 813d 4fa1 87bd 8d5e 01bd
00000090: 6ace fdbb 5401 623d 3ed1 96bd 9d99 513d
000000a0: 4ae1 28bd 6717 833c 62cb a2bb 8785 32bd
000000b0: e2b0 96bc 3395 1d3d 0a0e 113d f8e2 8fbd
000000c0: cf4d fc3c 1860 0c3d da4a 3bbd 1182 a13c
000000d0: 5f2e 2dbd 8b95 1dbd c97e edbc 626a 593d
000000e0: 13e3 e33c 5d8b 443b b3c2 663d 9cbb a2bc
000000f0: d318 ac3b 6a6d 243d 21c0 89bd 7a5d ba3c
00000100: 5586 25bb a1f9 4abd c06a 733c 337e 67bd
00000110: a70f 8fbd 3616 a33c ac3d 40bc 7595 b5bc
00000120: 0f44 84bc 1610 39bd b81c 8c3d 8f27 083d
00000130: 5752 cabc c5b5 0dbd 1791 cebb 1d9f c9bc
00000140: 6193 8bbd f851 eabc 4485 5e3d 2068 463d
00000150: b3bb 173c 2239 c63c bd1e 793d 3179 4bbd
00000160: 6eda afbc 39e1 1bbd 162b 32bd f6e5 213d
00000170: cd2d 1d3d e9e7 72bd 2f44 afbc 7b1f 553d
00000180: 1e7d 8b3d ff67 76bc 1b74 433d ddf0 d03c
0.04145793 -0.059560478 -0.028086571 -0.014150052 0.037501037 -0.042582992 0.064957626 -0.0023798419
0.03172744 0.017103096 -0.03498526 -0.020618571 0.009382523 0.05570921 -0.023616942 -0.01735456
-0.039145876 0.027314752 0.036240604 -0.02000199 -0.0479205 -0.014766865 0.008429098 0.007815445
-0.027704002 0.05135191 0.006838124 -0.017469732 0.012040364 0.061004866 0.0025641848 0.050311744
0.052424684 0.06318127 -0.06622564 -0.03158431 -0.0077455537 0.055177048 -0.073641285 0.051171888
-0.041230477 0.01600237 -0.004968093 -0.043584373 -0.018394891 0.038472366 0.03541378 -0.07025713
0.03079882 0.03427133 -0.04572568 0.01971534 -0.04228055 -0.038472693 -0.02899112 0.05307997
0.027818238 0.0029990294 0.056338023 -0.01986485 0.0052519827 0.040143408 -0.06726099 0.022749651
-0.002525707 -0.04955447 0.014856994 -0.056516837 -0.06985407 0.019908052 -0.011733454 -0.022165993
-0.016145734 -0.045181356 0.06841415 0.03324085 -0.024697466 -0.034597177 -0.006303917 -0.024612004
-0.0681522 -0.028603539 0.05432631 0.048439145 0.00926106 0.024197165 0.06082033 -0.049676124
-0.02146646 -0.038056586 -0.04349812 0.03952595 0.038373757 -0.059303198 -0.021394817 0.052031975
0.068109736 -0.015039443 0.04771815 0.025505478

fc7.weight f4 [1, 100]
00000000: d75c 6abd cb27 473d c2e3 fd3b 7d2c bcbd
00000010: 4199 a63d 8715 afbd 9164 c3bd 15de 15bd
00000020: 097b 99bd 8974 5bbd adc4 bfbd 9fa5 9b3c
00000030: f652 a83d 74a6 4d3d 24b7 9abd 158e 703d
00000040: f9a6 673c d0de f5bc 1c9e 063d c7a9 c03c
00000050: fd7e 073d 0500 763d 9c93 aa3d 3c05 933d
00000060: ed54 93bb ae14 2bbd fd10 d2bc f2c2 373d
00000070: 90c8 6d3d ff0e 43bb 5036 b93d e5bc 40bc
00000080: 09dd 1cbd 575c 0c3d 162e 543c 2a07 79bd
00000090: afa9 ab3d 8663 83bd 962f b23d 939c 70bd
000000a0: 7b0e b13d af69 b23d 1dc5 7f3b 8671 b7bd
000000b0: 8181 243d b469 533d f4e8 bf3d c3a9 c93d
000000c0: 0e35 123d 028a 60bd 1128 60bd 86c9 31bd
000000d0: f034 8b3b d4d5 d8bd 4ba9 fabb 0978 3c3d
000000e0: 883f bc3b eb84 f63c 85d7 a0bd cc78 343d
000000f0: 93e3 643d ea00 6dbd fb4d 2cbd b223 92bb
00000100: e6a6 a03d 0804 8f3d 6049 a3bd 18fc 7abd
00000110: 454c cb3d 6116 39bd 2a0e 9a3d ede7 5dbd
00000120: e8ac 733d f24c 873d 7aaf 0e3d 8fa0 c0bd
00000130: 3a48 7ebd 0e0e 86bc 7a62 5c3d 4184 44bd
00000140: 3005 5ebd 53a3 b33c cc58 03bd 0dfa 86bd
00000150: 0a37 8cbd c0f6 34bd c75b 953d b143 103d
00000160: e82c 8d3c 59fa 91bd 8518 0cbd b5cd a83d
00000170: da35 7ebd fbb2 aebd 277b 68bd 96f3 9e3d
00000180: 6406 34bd a755 7fbd 6b74 28bc 50bc 1d3c
-0.057217445 0.048621934 0.007748098 -0.09188173 0.081346996 -0.08549028 -0.09540666 -0.036588747
-0.0749417 -0.053577933 -0.09363685 0.018999873 0.082189485 0.05020757 -0.075544626 0.05872925
0.0141389305 -0.030013472 0.03286563 0.023518456 0.03308009 0.060058612 0.083289355 0.07178733
-0.004496208 -0.04176777 -0.025642866 0.04486365 0.0580526 -0.0029763577 0.090435624 -0.011763786
-0.038296733 0.03426775 0.012950441 -0.060797848 0.08381974 -0.06415467 0.087004825 -0.05874307
0.0864534 0.08711564 0.00390274 -0.089572 0.040162567 0.05161448 0.09370604 0.098468326
0.03569513 -0.054819115 -0.05472571 -0.04340508 0.004248254 -0.105876595 -0.007649576 0.046012912
0.005744878 0.030092677 -0.07853607 0.044060513 0.055881094 -0.0578622 -0.042066555 -0.0044598216
0.07844333 0.06983191 -0.079729795 -0.06127557 0.09926657 -0.045187358 0.07522233 -0.05417626
0.059491068 0.06606473 0.034835316 -0.09405624 -0.0620806 -0.016364124 0.053804852 -0.04797769
-0.054204166 0.021928465 -0.032067105 -0.06590662 -0.06846435 -0.04418063 0.07292896 0.035220806
0.017233327 -0.07127828 -0.03420307 0.082423605 -0.062063076 -0.085302316 -0.056758072 0.07761304
-0.043951407 -0.062337544 -0.010281662 0.009627417
