Amos/Z06.pth (torch, 185583 bytes, 7 tensors)

fc1.weight f4 [100, 52]
000000 6d dd cc 3d 22 62 64 3d 21 e1 12 bd 73 77 e5 3d
       0.10003171 0.05575765 -0.03585923 0.11204424
000010 fe 50 f3 bd 30 f5 5b 3d 10 48 d7 3d c1 d2 58 3d
       -0.118806824 0.053700626 0.10511792 0.052935366
000020 c6 08 5a 3d 42 f2 2f 3d d8 db 99 bc 1e e7 97 3d
       0.053231023 0.042955644 -0.018781587 0.07417129
000030 cd 52 96 bd 35 f4 6b 3d 62 e2 93 bd 8e 68 fa 3d
       -0.07340012 0.05760594 -0.072209135 0.122269735
000040 43 27 d9 3d af 67 0a 3d 44 4a 0c 3e a9 83 eb bd
       0.10603192 0.033790287 0.13700205 -0.114997216
000050 46 ce a5 3d 11 9e da 3b 06 fa ee 3d 75 f2 fb 3d
       0.08095984 0.006671675 0.11668782 0.123021044
000060 86 58 0f be e9 18 2e be 63 17 98 3d 4a 28 07 be
       -0.13998613 -0.1700169 0.07426336 -0.13198963
000070 e3 5c 08 3e 12 5a 01 3e 97 d8 f4 bc b9 16 07 be
       0.13316683 0.12632015 -0.029888434 -0.13192262
000080 e0 f3 96 3a 1a c1 e6 3d 5a 94 d8 bd 3c fa ac 3d
       0.0011516772 0.112673 -0.10575171 0.08446166
000090 b8 f8 33 3d b2 f7 22 3d d9 68 7e 3c 51 59 67 bd
       0.04393837 0.039787002 0.015527927 -0.056481663
0000a0 42 8c f0 bc 14 4d 44 bd 30 96 06 be 1e 76 a4 bd
       -0.029363755 -0.04792507 -0.1314323 -0.080303416
0000b0 81 b3 0b 3e db 6d 98 3d 48 cd 6e 3d 17 ca 05 3e
       0.13642694 0.07442828 0.05830124 0.13065372
0000c0 19 ae a6 bd 8e f1 df 3d 20 65 07 be 91 dc fb 3d
       -0.08138675 0.10934745 -0.1322217 0.12297929
0000d0 a4 87 e0 3d f2 7b 04 3e c8 67 ca 3d 41 57 8e 3c
       0.109633714 0.12937906 0.09883076 0.01737559
0000e0 15 bf 25 bd b7 b4 03 be 78 30 8f bd 1c d6 96 bb
       -0.040465433 -0.12861906 -0.069916666 -0.0046031605
0000f0 97 bc 80 bc 57 5d c9 3d f4 64 24 bd 65 ef 41 bd
       -0.015714927 0.09832256 -0.04013534 -0.047347445
000100 97 70 dd bb 50 68 9f 3d 08 a6 54 bd 13 cb 12 3c
       -0.0067578065 0.07783568 -0.051916152 0.0089595495
000110 0a 19 0b 3c f7 ef 32 3d 8b 41 53 bd a3 e5 8f bd
       0.0084898565 0.04368588 -0.05157618 -0.070262216
000120 81 06 3d bd 3d c3 77 bd 06 78 d2 3d 24 a8 c2 3d
       -0.04614878 -0.060488928 0.10276799 0.095047265
000130 b8 f3 dd bd 32 d9 0d be 81 88 a8 bd 8e 27 d9 3d
       -0.10837501 -0.13852385 -0.08229161 0.106032476
000140 49 61 94 bd 1d ff a1 bd 22 98 fb bd fb 21 e8 3d
       -0.07245118 -0.07909987 -0.122848764 0.11334606
000150 a1 cd c7 3d 0a b3 8e 3c 37 7a 86 3d 2f 89 a7 bc
       0.097560175 0.017419357 0.065662794 -0.020451156
000160 8a 21 84 bc eb 9a 10 be fa a4 15 3d 9f 45 1e 3d
       -0.016129274 -0.14121597 0.036534287 0.038640615
000170 51 6b df 3d 63 1c 10 bd df e6 95 3d 56 70 a8 3d
       0.10909141 -0.03518332 0.07319426 0.082245514
000180 b3 f0 49 3c c1 f0 98 3c 9c 26 68 3d 77 cf ac 3d
       0.012325454 0.018669488 0.056677446 0.08438008
000190 bb a1 68 bd 12 55 84 bd 01 e4 17 3d 64 57 36 bc
       -0.056794863 -0.064615384 0.037082676 -0.011129234
0001a0 7a a0 35 3c bd ef c3 bd a1 61 ce bd 5f 3c 59 bd
       0.011085624 -0.09567211 -0.10077215 -0.05303609
0001b0 e5 f6 79 3d 0d 92 b7 bd ca 7b d4 bc f9 e8 d4 3d
       0.061026473 -0.08963404 -0.025937933 0.103959985
0001c0 74 eb f6 3b b7 e7 6d bd c7 d1 98 3c fc 1a 62 bd
       0.0075353924 -0.05808231 0.018654717 -0.055201516
0001d0 10 03 28 3c db 39 ac bd b9 c2 62 3b a9 50 e7 3d
       0.010254636 -0.084094726 0.0034600927 0.112946816
0001e0 cc 5e 04 be e1 48 ec 3d 0b cf 0b 3d 54 d3 51 bd
       -0.12926787 0.11537338 0.034133 -0.05122693
0001f0 1e 30 c0 bd b9 a0 3f 3d 96 ef 02 3e f3 17 20 3d
       -0.093841776 0.046784136 0.12786707 0.03908534
000200 36 fc ab 3b 40 69 c1 3d 56 35 45 bd f6 1c 0a 3e
       0.0052485717 0.09443903 -0.04814657 0.1348761
000210 bb 82 a6 3d cb 83 f2 bd e2 cb fd bd 8b bc 09 3e
       0.081304036 -0.11841544 -0.12392403 0.1345083
000220 7f f9 bd 3c 0c e8 32 bc 62 d1 eb 3d ec 12 05 bd
       0.023190258 -0.010919582 0.11514546 -0.03248875
000230 ac 39 eb 3d 14 9a b7 bd d3 a5 05 be 4e e6 79 bd
       0.114856094 -0.08964935 -0.13051538 -0.06101065
000240 97 b0 dc bd 82 69 cb bd 26 8d 83 bd 7b 58 89 3d
       -0.10775869 -0.099322334 -0.06423406 0.067063294
000250 76 72 24 bc 7a c8 a6 3d dd 17 ff 3d dd 74 02 3e
       -0.010037055 0.081437066 0.124557234 0.12739892
000260 48 12 88 bb 2a f6 02 be 0e be d4 bd 30 23 00 3e
       -0.00415257 -0.12789217 -0.103878126 0.12513423
000270 27 6c de bd 26 89 cd 3d d6 9e b8 bc de 71 02 3e
       -0.10860472 0.100359246 -0.022536676 0.1273875
000280 a0 e2 28 3d 1f 13 3b bd 77 5f d2 3d 48 37 56 3b
       0.04123175 -0.045672532 0.10272115 0.0032686759
000290 62 38 dc bd 13 14 f0 bd 4a 97 d9 3c 88 a7 89 3d
       -0.10752942 -0.11722579 0.026561398 0.06721407
0002a0 cc 41 bc bc 83 fa b0 bd 83 45 c4 bc f0 78 00 be
       -0.022980593 -0.08641531 -0.023958927 -0.12546134
0002b0 44 97 86 bd 84 a9 90 bd 63 44 d2 3d 6a 2f fc bd
       -0.065718204 -0.070635825 0.1026695 -0.12313731
0002c0 9b 0d d6 3c 1a fe e5 3d f0 32 33 3d c0 14 e7 bc
       0.026129534 0.11230107 0.04374975 -0.028208137
0002d0 ec d7 92 3d 71 9c ae 3c a1 69 0f 3d d3 4f ae 3d
       0.0717009 0.021314831 0.035012845 0.08511319
0002e0 f2 62 16 b9 d7 28 f3 3c 0e 3f f8 3d 85 38 48 bd
       -0.00014341975 0.02968256 0.12121402 -0.048882026
0002f0 77 c2 cd bc cc d0 9f bd 7e 31 b1 bd e2 e1 65 bd
       -0.025117142 -0.07803497 -0.08652018 -0.05612362
000300 6b 25 c7 bd 61 0c 81 3d bf e8 2d bd ff 3f 13 bd
       -0.09723934 0.06301189 -0.042458292 -0.035949703
000310 0d 0b 4c 3d 68 a9 e3 3d 7f f1 e0 3d aa c4 a6 3d
       0.049815226 0.11116296 0.10983562 0.081429794
000320 58 aa 85 bd 33 0d eb 3d e1 9c 25 3d 29 86 78 3d
       -0.06526631 0.11477127 0.040432815 0.06067482
000330 39 7e 76 bb 3d 96 93 3d 4b 72 fc 3d 40 cb da bd
       -0.0037611856 0.0720639 0.12326487 -0.10683298
000340 2f 2a fa 3d 8f 86 c4 3d b6 ba 6f bd 97 92 b2 3d
       0.12215077 0.095959775 -0.05852767 0.08719366
000350 c6 0c 9a bd 3a dc de bc 30 02 af 3d da 81 8c bd
       -0.075219676 -0.027204622 0.08545339 -0.06860705
000360 5d b6 2f 3c 0b 6a 01 be 41 f9 81 3c 95 56 81 bd
       0.010724631 -0.12638108 0.015865924 -0.06315342
000370 ba 48 99 bd 95 90 bd bd c9 f3 7b 39 47 31 c0 3d
       -0.074845746 -0.092560925 0.00024028042 0.09384399
000380 79 d9 8f 3d 11 e6 b5 ba f3 57 5e bd 57 1b ef bd
       0.070239015 -0.0013877769 -0.054283094 -0.116751365
000390 93 2b ac bd 5e e7 9e 3d ed 52 08 3d a2 14 a8 bd
       -0.084067486 0.077589735 0.03328221 -0.082070604
0003a0 59 12 8e 3d 5d b9 a3 3d 24 f1 55 3d 4a f2 9f bd
       0.06937093 0.079943396 0.052231923 -0.07809885
0003b0 73 61 06 3e 2e 34 75 3d f3 f1 04 be e2 6f 01 be
       0.13123111 0.059864216 -0.12982921 -0.12640336
0003c0 a8 36 fd 3d aa f7 f3 3d 7c d1 8c bd 2c a0 ae bc
       0.123639405 0.119124725 -0.068758935 -0.02131661
0003d0 22 fe a9 bd b3 86 07 be 9f be 02 be 15 85 83 bd
       -0.08300425 -0.13234977 -0.12768029 -0.06421868
0003e0 47 3f f2 bd 6f 29 99 3d ca 61 d8 bd c3 7e bc 3d
       -0.118284754 0.07478606 -0.10565527 0.092038654
0003f0 84 7b eb 3d fa b9 24 3c b8 c0 8f 3b 2a e8 57 bc
       0.11498168 0.010054106 0.0043869875 -0.013177911

fc1.bias f4 [100]
000000 24 c1 42 3d 2a 01 00 be 2d 8c dc bd b3 29 1d 3d
       0.047547475 -0.12500444 -0.10768924 0.038369846
000010 52 0d b9 3d 6b 9f d1 3d 70 66 3b bc 30 82 3d 3d
       0.09035744 0.10235485 -0.011437997 0.046266735
000020 5c 7c ff bd 95 17 09 3e ae dc 1f bd 93 c5 b8 3c
       -0.124748915 0.13387902 -0.039028816 0.022555148
000030 46 3b bb 3c 06 f2 0c be 5a 29 73 bd 02 e0 2f bc
       0.022855412 -0.137642 -0.059365608 -0.01073456
000040 29 9c 07 bd 49 c0 89 bd 33 e5 b3 3d ba 67 85 bd
       -0.03310791 -0.067261286 0.08783951 -0.06513925
000050 96 02 03 bd 31 61 a3 3d e4 ec 18 3e 67 a3 e4 3d
       -0.031984888 0.07977522 0.14934117 0.11163979
000060 2f e0 bd 3c 0b 4e ce bd 14 57 6d 3d 95 61 f2 bd
       0.023178188 -0.10073479 0.057944372 -0.118350185
000070 af 44 d8 3d 5a 30 98 3d 49 c2 fc bd 0e eb f3 3c
       0.10559975 0.07431097 -0.123417445 0.029775169
000080 a9 17 e7 3d 72 9d f1 3d e1 51 da 3d f8 e1 83 bd
       0.1128381 0.117976084 0.106601484 -0.064395845
000090 a4 d1 01 bc 2a 37 83 3d f0 fb c1 bd f9 e2 b6 3b
       -0.007923517 0.06407006 -0.094718814 0.0055812565
0000a0 e7 86 1a bd 9c 33 bd bd a0 34 02 3e 95 ce 8f bd
       -0.03772631 -0.09238359 0.12715387 -0.07021824
0000b0 e9 a8 cf bd ae 64 0f be 66 0d 02 3e 82 f1 15 bd
       -0.10139639 -0.1400325 0.12700424 -0.036607273
0000c0 56 06 a7 3c 6b 17 fa bc 9c a0 09 3e c9 f7 9b bd
       0.020388763 -0.030528745 0.13440174 -0.07615621
0000d0 e1 2d 4e bd 7a 12 2c bc 8a 63 fb 3b 8b a9 ae bd
       -0.050336722 -0.010502452 0.007671778 -0.085284315
0000e0 4c 8d 3a 3d f4 dc b9 bd c1 16 77 bd ad 05 5e 3d
       0.045544907 -0.090753466 -0.060324434 0.05420463
0000f0 4b ee 8b bd ef c2 e0 3d 1c 81 02 be 4e 3f 33 bd
       -0.0683256 0.10974681 -0.12744564 -0.043761544
000100 21 9c 7f 3d a5 9e 0e b9 a6 07 bf 3d 9c 99 23 3c
       0.062404756 -0.00013601275 0.09327631 0.009985354
000110 2f a5 78 bd f8 72 10 3e 7e e9 30 bd 59 6a 85 3d
       -0.060704406 0.14106357 -0.043191426 0.06514425
000120 d0 3b dd 3c e9 98 50 3d 13 9d d8 bc 20 b3 f4 bd
       0.02700606 0.050927076 -0.026442086 -0.11948228
000130 aa fe 5f 3d b0 33 b7 3d 29 cd c4 3d bc cc 0d 3e
       0.054686226 0.089454055 0.09609444 0.13847631
000140 41 b8 08 be dd 2a 8d 3d c6 12 0d 3e 06 42 07 3e
       -0.13351537 0.06892941 0.13776693 0.1320878
000150 40 df b0 bd 58 a9 12 3e e9 a9 f0 3d 20 c2 0a be
       -0.086363316 0.14322412 0.11751158 -0.13550615
000160 e1 05 8a bd 51 50 5b bd d3 be 99 3c 1e 66 98 3d
       -0.067394026 -0.053543393 0.01876775 0.07441352
000170 8c 1f 0f 3c 18 c3 d2 3c 74 11 73 3d a0 29 18 3c
       0.008735549 0.025727794 0.059342816 0.009287268
000180 6a f1 80 3d 8e e3 2b 3e 67 fc 6e 3d 8f 99 ef 3d
       0.06296046 0.16786024 0.05834618 0.11699211

fc2.weight f4 [200, 100]
000000 4a 75 4d 3d b8 12 4e 3b 60 7a 90 bc 90 9f 1b 3d
       0.050160684 0.0031444263 -0.017636478 0.037993968
000010 80 80 82 3d 68 83 18 bd a8 f7 a5 3d b5 47 b3 bd
       0.06372166 -0.037234694 0.08103877 -0.087539114
000020 88 0d 9f 3d d6 93 c1 bb af f0 d4 bc 31 2b bf 3c
       0.07766253 -0.005907516 -0.025993673 0.023336025
000030 f5 8a a8 3d f5 8a a6 3c fd 37 52 bd 8e b7 74 3d
       0.08229629 0.020329932 -0.051322926 0.059745364
000040 ea ef c4 bd 9e b5 51 3d 28 c3 68 bd c6 40 7b bd
       -0.096160725 0.051198594 -0.05682674 -0.06134107
000050 1b 27 bb 3d ce 5a 8c bd 24 1f 1d 3d 3e f6 38 bc
       0.09138318 -0.06853257 0.038359776 -0.011289177
000060 a2 9e db 3c 8d 5c 8e 3d 98 80 39 bd a0 75 9e bd
       0.02680904 0.069512464 -0.045288652 -0.07737279
000070 fc ec 84 bd b3 e7 6f bc 7e 63 a0 3d 3d d3 40 3d
       -0.06490514 -0.014642644 0.07831477 0.047076453
000080 17 60 c2 bc ff 17 4f bd 33 79 bb bd df 19 29 3d
       -0.02372746 -0.050559994 -0.09153976 0.04128444
000090 4d a3 f7 bc 5d d5 1b bc e2 1c ab bd 53 96 aa 3d
       -0.030229235 -0.009511319 -0.08355118 0.08329453
0000a0 0b fd c9 bd 54 71 6d bc e9 73 24 bd e3 72 3a ba
       -0.09862717 -0.014492352 -0.040149603 -0.00071124564
0000b0 76 4d be bd bd 99 cc 3c 15 95 b7 3c 87 32 c6 3d
       -0.09292118 0.024975652 0.022409955 0.09677606
0000c0 a7 89 88 bd ac e7 5d bd 53 2d aa bd 70 bf af ba
       -0.0666688 -0.054176018 -0.08309426 -0.0013408493
0000d0 ed b6 af 3d 79 ed b8 bd b4 65 95 bd 44 e4 49 3d
       0.08579812 -0.09029669 -0.07294789 0.049289957
0000e0 c3 3d 19 bd dc 53 63 3d 83 2b 9b bd 1d 3e a2 bd
       -0.037412416 0.055499896 -0.075766586 -0.079220034
0000f0 79 6f df bc 09 8d a8 bd fc 0e 5a 3d 62 64 49 bd
       -0.027274834 -0.08230025 0.053236946 -0.049167998
000100 2d cc 39 3d 03 5e 20 bd 2f 45 ca bd ce 37 56 bd
       0.045360733 -0.039152157 -0.09876477 -0.052299313
000110 44 ee 65 bc d0 a0 84 bd 24 2a b8 3d 7d a0 0a bd
       -0.014033858 -0.06475985 0.08992413 -0.03384446
000120 a3 92 bf bd 2b d6 87 bd 04 74 ba 3c aa 73 81 bd
       -0.093541406 -0.06632646 0.022760399 -0.06320889
000130 b5 d5 8c bc 95 d6 6c 3d 83 03 92 bd 92 fb 77 bd
       -0.017191747 0.05782183 -0.07129576 -0.06054265
000140 2b f3 ca bc 48 fd 25 3b 56 d2 a6 ba 73 f3 15 bd
       -0.024774155 0.002532797 -0.001272748 -0.036609124
000150 8e ed b9 bd 84 23 32 bd 04 c6 a8 bc 51 4c 44 bd
       -0.09078513 -0.0434909 -0.020602234 -0.047924343
000160 2b 21 64 bd 90 2a 81 3c b9 36 3c 3b 3a 73 e7 3a
       -0.055695694 0.015767366 0.002871914 0.0017658242
000170 0b 74 c6 bd 05 43 c5 bd 6c 2a 49 bd 06 f4 b5 3d
       -0.09690102 -0.096319236 -0.049112722 0.088844344
000180 e2 81 c5 bd 1b 1d a2 bd 68 88 9a bd b6 40 a5 bd
       -0.09643914 -0.07915708 -0.07545549 -0.08068983
000190 89 d0 c0 3b e8 e7 a0 3c 33 a6 4b bd c0 c9 9d bc
       0.0058842343 0.019641832 -0.049719047 -0.019261241
0001a0 2c 46 9c bd 6e f0 82 bd 75 7f b3 3d c7 f2 c0 3d
       -0.07630572 -0.063935146 0.08764545 0.09421306
0001b0 0c d4 6e 3d 2b f6 7d 3d 11 55 9e 3a d7 11 9f bd
       0.058307692 0.062002342 0.0012079795 -0.077670746
0001c0 16 c8 5f 3d 99 9f 87 3d 0c f4 86 bd 53 55 ba bd
       0.054634176 0.06622238 -0.06589517 -0.090983056
0001d0 0a b3 b7 bd aa 37 4a 3c 4f 88 b8 bd cc 54 77 3d
       -0.08969696 0.012342373 -0.09010374 0.060383603
0001e0 10 ba c5 bd 5c 6f 8a bd ce d7 a3 bd 46 cd cb bd
       -0.09654629 -0.06759521 -0.08000146 -0.09951262
0001f0 ef 18 a6 bc ef a3 3c 3d 11 d1 b2 3d 5e 21 5e 3c
       -0.020275561 0.046054777 0.087312825 0.01355776
000200 56 ee 13 bd 45 df af 3d 52 a6 d2 3c b6 1c 15 3d
       -0.036115967 0.08587507 0.025714073 0.036404334
000210 d1 26 94 bc c3 47 1e bc d1 66 a4 3d 98 1d d8 39
       -0.018084915 -0.009660664 0.08027423 0.0004122078
000220 16 aa 7b bc 36 d9 ee 3c d1 f0 17 bd 15 ce 82 bd
       -0.015360376 0.029156309 -0.037094895 -0.06386963
000230 a6 90 49 bd dd 87 0c 3d ce c1 99 bd d5 55 73 b9
       -0.049210213 0.034309257 -0.075076684 -0.00023206261
000240 60 9e 8c 3d d3 ec 45 bd eb 10 a2 bd 42 7c df bb
       0.06866145 -0.048321556 -0.07913383 -0.0068202326
000250 fe 31 b7 3d b9 5a 6b 3d 35 8d 6f bc d5 dd 85 3d
       0.08945082 0.057459567 -0.014621069 0.06536452
000260 ed d2 74 3d 44 f5 94 3d 25 43 ad 3c 84 af c7 bc
       0.059771467 0.07273343 0.021150181 -0.024375685
000270 a8 81 0b bc 68 d1 6c 3d 14 66 6d bb cb 79 e7 bc
       -0.008514799 0.057816893 -0.0036224173 -0.028256318
000280 38 fb 96 3d a5 48 c1 3d 0b d2 24 bd 79 12 22 bd
       0.07372135 0.09437684 -0.040239375 -0.0395684
000290 37 83 65 bd 53 fa 92 bd e7 df 87 3d 2f 8b af 3d
       -0.05603334 -0.07176652 0.06634503 0.08571469
0002a0 76 a5 52 3c 45 28 d5 bb aa c1 b8 3d a7 f3 79 bd
       0.012856832 -0.0065050446 0.090213135 -0.06102338
0002b0 6b 88 29 3d 50 18 86 3d eb e1 4a 3c b4 61 d9 3c
       0.041389864 0.06547606 0.012382965 0.026535846
0002c0 a3 5d c5 bd 52 44 db 3c ab a7 ab bd a5 4e 88 3d
       -0.096370004 0.026765976 -0.083815895 0.06655625
0002d0 6f ec d3 ba 7b fe 3c 3d cb d5 b3 3d b1 42 c6 3d
       -0.0016168485 0.04614113 0.08781012 0.09680689
0002e0 43 55 a1 3c 0c 06 a6 3c b4 60 e3 3c 3b e1 af 3c
       0.019693976 0.020266555 0.027756073 0.021469703
0002f0 cd 79 f1 bc 55 be 80 bd a7 26 26 3c fe 71 bb bc
       -0.029477024 -0.06286303 0.010141051 -0.022881504
000300 9a a3 3f 3d 5a cc c4 bc 22 d5 e3 bb 79 19 cb 3d
       0.046786882 -0.024023224 -0.0069528976 0.09916968
000310 5a 33 88 3c 54 f2 47 3d 25 27 e0 3c b2 c9 8a bc
       0.016626049 0.048815086 0.027362416 -0.016941879
000320 e5 22 95 3d 13 a8 aa 3d 46 bd c8 bd 38 71 c2 bd
       0.07282046 0.08332839 -0.09801726 -0.09494251
000330 8b 83 9e 3d 0b 7f a7 bc f9 33 36 bd a8 c1 0e bd
       0.077399336 -0.020446321 -0.04448316 -0.034852654
000340 e4 1c f5 bb c8 a1 40 3d f6 6a 98 bd e4 33 b6 3d
       -0.0074802507 0.047029287 -0.07442276 0.08896616
000350 e9 e0 e7 bc 0c cb 98 bd 55 62 05 bc d0 6b 87 bd
       -0.028305488 -0.07460603 -0.00814112 -0.066123605
000360 cf f1 8d 3d 15 8b 85 bd eb d6 37 3d 2a fa 15 bd
       0.06930887 -0.065206684 0.044882696 -0.03661553
000370 44 ee c5 3d 65 9b dd 3c cc 1f 9c bd 50 aa 88 bd
       0.09664586 0.027051637 -0.07623252 -0.066731095
000380 1d ce 25 3d 71 bc bb bc b0 f3 95 3d d1 e6 77 bd
       0.040479768 -0.022917004 0.0732187 -0.060522858
000390 6f 9f f5 3c 81 1d c0 3d 8e 79 7f 3d 10 16 b8 3c
       0.02998325 0.093806274 0.062371783 0.022471458
0003a0 af 43 96 bd 24 8c 8f bc f3 4f be 3d 23 fc a4 3d
       -0.07337128 -0.017522879 0.09292593 0.08055904
0003b0 03 7a 4e bc 40 74 ba 3d 98 03 94 3d 3c 94 34 bd
       -0.012602332 0.09104204 0.07227248 -0.04408668
0003c0 1f e3 06 3d a8 d7 da 3c f5 42 b5 3d ca 59 ce 3d
       0.032931443 0.026714161 0.08850662 0.1007572
0003d0 5c 6c b6 3d d5 2a 39 bd f0 bb 91 bc be d3 82 bc
       0.08907387 -0.045206863 -0.01778981 -0.015970107
0003e0 fd f7 81 bd b6 04 c6 3d c2 a5 49 3b 57 b0 8a 3d
       -0.06346128 0.09668867 0.0030768965 0.067719154
0003f0 f5 c9 69 3d 65 10 8b bd a0 0c 11 3c d2 8b e2 3c
       0.057077367 -0.067902364 0.008853108 0.027654562

fc2.bias f4 [200]
000000 62 b3 ba 3d 73 c4 b2 bd 9d 64 a6 bd 8a 1a 9f 3d
       0.09116246 -0.08728876 -0.08124659 0.07768734
000010 f1 bb 07 3c a9 f0 39 bc 78 35 c3 3d e9 7c fa bc
       0.008284555 -0.011348882 0.09531683 -0.03057714
000020 c1 87 b9 3d 40 ed 8c 3d 0e e8 2f bd fa 3e 0d 3d
       0.09059096 0.06881189 -0.042945914 0.034483887
000030 84 22 f1 bc 7b db 1b bc 22 96 ac bc a9 2c 46 bd
       -0.029435404 -0.009512777 -0.021067683 -0.048382435
000040 78 8d e7 3c d3 bb b1 3d 90 93 13 bd fd 51 57 3d
       0.0282657 0.08678403 -0.0360294 0.052568424
000050 19 6c 27 bc 5b 4e bb 3c 21 96 1d 3d e9 b1 e4 bc
       -0.010218644 0.022864511 0.038473252 -0.027916865
000060 84 f5 b7 3c 08 ee 0b bc a6 b4 eb bc 3a b3 98 3c
       0.022455938 -0.008540638 -0.028772663 0.01864015
000070 71 89 b1 bd 05 8c f0 3c 16 93 cf 3c ca 57 80 3c
       -0.08668793 0.029363642 0.02533869 0.015666861
000080 23 e9 c9 3c 8a 84 d4 3c 1e 45 3a 3d 6a e4 38 3b
       0.024647301 0.025942106 0.04547607 0.0028212317
000090 88 62 47 3d 8a 1c d2 3d 63 a8 83 3d f1 b0 54 3d
       0.04867795 0.1025935 0.064286016 0.051926557
0000a0 b2 f1 84 3d 96 7b b6 3c 9e bc e9 3c 64 34 8b bd
       0.06491412 0.022275727 0.028532322 -0.06797102
0000b0 4d c0 d3 3c 55 c6 60 3d f4 a4 85 3d d2 7b b0 3d
       0.025848532 0.054876644 0.06525603 0.08617367
0000c0 00 38 16 bd ff 6f 89 3c 9b 4b 1d 3d 84 fe 45 3d
       -0.0366745 0.016777037 0.03840218 0.04833843
0000d0 2f fc a1 bc 5a b3 e2 bb e2 6c a9 3d e6 58 3b 3d
       -0.01977357 -0.006918353 0.08272721 0.045739077
0000e0 3b 67 ba 3d 0b 1e 3c 3d 45 27 64 3c a5 d7 65 bd
       0.09101721 0.04592709 0.013925378 -0.056113858
0000f0 bf 0b f1 bc 50 db 80 bd 1e 05 e8 3c 8b fd 3b 3d
       -0.029424546 -0.062918305 0.028322753 0.045896094
000100 47 52 8c 3c d1 7a 83 3c de 35 34 3d 9d 14 86 3d
       0.017129077 0.016049774 0.043996684 0.065469004
000110 17 7f d1 bc e0 97 33 3d f7 76 5e bd 22 f4 ad bd
       -0.025573296 0.04384601 -0.054312672 -0.0849383
000120 6b 2d 39 3b 1a 94 33 bd 64 45 f0 3b 2f db 8e 3d
       0.002825583 -0.043842413 0.0073324908 0.069754
000130 cd 37 70 3d 83 ba 57 3d c6 e9 8b bd 14 2a ed bc
       0.058646966 0.052668106 -0.06831698 -0.028950728
000140 5c 8f ca bd 0d 75 9d 3d a2 00 a4 3c 90 e8 9c 3c
       -0.09890625 0.07688341 0.020019833 0.019153863
000150 37 b6 75 bb 63 c9 e5 bc 23 3c b1 bc 67 9d c5 bc
       -0.0037492642 -0.02805013 -0.02163512 -0.024122907
000160 75 e4 96 3d d8 17 ab bd 65 86 13 bd d5 6d cd 3c
       0.073677935 -0.08354157 -0.03601684 0.025076786
000170 69 01 06 bd c8 48 bc 3d e9 fe bd bd b6 44 a5 3c
       -0.03271619 0.091935694 -0.09277136 0.020174365
000180 c8 d0 b3 bc 14 0d 4f bc 2d 84 7a bd fe f6 cc 3c
       -0.02195014 -0.012637395 -0.06116121 0.025020119
000190 5d 14 bc 3d e6 1f 74 3c a3 3b 88 3b 52 c1 0c 3a
       0.091835715 0.014900183 0.0041575 0.0005369383
0001a0 42 cc a5 bd e1 23 af 3c b6 de d4 bc 72 7e 8d bd
       -0.080956 0.021379413 -0.025985103 -0.06908883
0001b0 70 bc 2c 3d fb d2 b1 bd 18 6b bb bd cf 1c 93 bd
       0.042171896 -0.086828195 -0.09151286 -0.07183229
0001c0 d7 a8 b0 bc bf 95 41 bd 73 2b 93 3d ef 3d b7 bd
       -0.021564884 -0.04726195 0.07186022 -0.0894736
0001d0 31 4b 2f 3a 8d 1f 66 3d 0b 37 2a bd 64 77 d8 3d
       0.00066869246 0.056182433 -0.0415564 0.10569647
0001e0 80 cb 9e 39 f4 38 28 3d 7d 63 39 3c 1c 6d 8b 3d
       0.00030287728 0.04106994 0.011315224 0.0680792
0001f0 a5 a0 93 3d 3a e7 a9 bd 43 c4 fd bc fd 36 bd 3d
       0.07208375 -0.08296056 -0.030977374 0.09239004
000200 0f 4d 10 bd ca 14 af bc df 0e 9a 3c 88 02 61 3d
       -0.03522974 -0.021372218 0.01880592 0.054934055
000210 d9 db 96 bd bc 00 d0 3d 33 1b 46 bd 42 c5 4d bd
       -0.07366151 0.1015639 -0.048365783 -0.050236948
000220 f8 16 21 bb cc 9d 12 3c 59 24 58 bc 8a 8c 76 bc
       -0.002458034 0.0089487545 -0.01319226 -0.015048156
000230 9a b5 46 bd dc e9 9e 3d a4 cd 99 3c 2c f4 8d 3d
       -0.048513032 0.07759449 0.018774815 0.06931338
000240 29 48 cc 3d ee 29 d1 3d c9 d3 87 3d 75 33 b0 3d
       0.09974701 0.102130756 0.06632192 0.08603565
000250 0c 05 94 bd 77 a7 1d bd b4 01 8f bd c7 f0 cb 3c
       -0.07227525 -0.038489785 -0.06982747 0.024895085
000260 f6 f3 9b 3d bc 75 d1 bb fd 92 cb bd b2 02 c3 bd
       0.07614891 -0.006392209 -0.09940145 -0.095219985
000270 79 c8 02 3d 47 c9 e1 bb c2 d1 a4 bd b3 b5 0d bd
       0.031929467 -0.006890449 -0.08047821 -0.03459711
000280 ed 92 de 3b 2a d5 9d 3d 28 98 94 3d 35 04 6f 3a
       0.0067924173 0.077066734 0.07255584 0.00091177534
000290 46 f8 1d b9 0c c9 b3 3d a2 b8 50 bd 1b f5 2c bc
       -0.00015065176 0.08778581 -0.05095733 -0.010556485
0002a0 a1 47 46 bd 14 26 40 bd 71 3e b1 3c 9d bb 9d bc
       -0.048408154 -0.046911314 0.02163622 -0.0192545
0002b0 ef a1 db 3d 75 e5 b5 3d d4 d6 2c 3d f2 f2 2e 3d
       0.10724246 0.08881656 0.042197064 0.04271216
0002c0 f0 c7 b5 3d a8 79 9c 3c fd 27 f2 3c 5c de 9f bc
       0.08876026 0.019100979 0.029560084 -0.019515209
0002d0 16 40 bc 3d 7b c8 ab 3d b6 0c 92 3d 18 3c 97 3d
       0.09191911 0.08387848 0.07131331 0.07384509
0002e0 af 95 10 bd e6 0e c5 3c 42 74 a5 bd d8 9d 83 3d
       -0.035299 0.024054956 -0.08078815 0.06426591
0002f0 f3 e2 02 bd 78 23 76 3d ac 4c 96 3d df f4 c7 bc
       -0.031954717 0.06009242 0.07338843 -0.024408756
000300 6c c3 6c bd d4 4b 80 bb 28 82 83 bd 23 03 b2 3d
       -0.057803556 -0.0039152894 -0.0642131 0.086920045
000310 08 52 48 3d 7c 9a 6e bd d3 d6 8c bd d3 91 69 bd
       0.048906356 -0.058252797 -0.06876912 -0.057023834

fc3.weight f4 [100, 200]
000000 74 7a 1e 3d a5 33 51 3d c8 5f 3d 3d ff 7d 16 bd
       0.038691 0.051074643 0.046233922 -0.036741253
000010 c0 bb 4b 3d b3 dc 29 3c 95 51 7f 3d d7 de d2 3b
       0.0497396 0.01036756 0.062333662 0.006435256
000020 88 a1 b4 bc a4 5f ca 3b da 81 3b bc 4f 2c 1e bc
       -0.02204968 0.006175952 -0.011444533 -0.009654119
000030 86 b8 a4 bc b4 de a8 3c f7 12 51 3d f7 a0 41 3d
       -0.020107519 0.020614006 0.051043477 0.04727265
000040 ab dd 5c 3d ef 67 a0 3d be af d5 bc ba 8d 70 bc
       0.053922337 0.07832324 -0.026084777 -0.014682228
000050 53 f8 7c 3c 7b 6a d3 3c fa 0e e3 3c 2f 31 e4 bc
       0.0154400645 0.02580761 0.027717102 -0.027855484
000060 aa da af bc eb a2 ab bc 1d f5 73 bd 0b f0 36 3d
       -0.021466572 -0.020951709 -0.05955993 0.044662517
000070 e0 4e 8c 3c ab 0a 78 3d f9 50 7b bd 9b 31 00 bd
       0.017127454 0.06055705 -0.06135652 -0.031297307
000080 11 5b 80 3c 2b fa 73 bd f3 43 b2 bc 87 88 6f bd
       0.015668424 -0.05956475 -0.021760916 -0.058479812
000090 d5 02 88 bd 6f 1f 7b bd b8 82 11 bd 8e 55 94 3c
       -0.06641165 -0.061309274 -0.035525054 0.018107202
0000a0 c6 25 97 3c 20 d6 16 3d 62 b3 2e 3d dc 49 0a bc
       0.018450629 0.0368253 0.04265154 -0.008440461
0000b0 13 c7 20 3d 73 4c a5 3d 52 41 78 3c 9f 39 59 3d
       0.039252352 0.08071222 0.015152292 0.053033467
0000c0 cc 91 20 3d 0e ee 87 3d 9a ae 72 bd 5a 3c 18 bd
       0.039201543 0.06637202 -0.059248544 -0.03716693
0000d0 15 6c 4a bc fc 95 81 3d ef 22 73 bd 1e 68 da 3b
       -0.01235487 0.063274354 -0.059359487 0.006665244
0000e0 9c 2b c4 bc 96 c9 53 3c e6 f3 56 bd f4 7a 99 bc
       -0.023946576 0.01292648 -0.052478693 -0.018735386
0000f0 5f a7 7a 3d 2a 30 84 bd 95 75 f1 3c 1a 2b 63 bd
       0.061194774 -0.06454499 0.029475013 -0.055461027
000100 88 57 d8 3b 82 87 6a 3d 49 b7 1d bd e3 f0 76 3d
       0.0066022314 0.057258137 -0.038504872 0.06028832
000110 8d 3d 9b 3a 95 04 9f bc 4d 8c c6 bc 34 33 aa bb
       0.0011843905 -0.019411365 -0.024236823 -0.005194092
000120 96 77 75 bd 5e 01 84 bd c1 45 63 bd 1f 02 02 bc
       -0.0599285 -0.06445573 -0.055486444 -0.007935076
000130 77 b6 ec 3c 6a fe 3a 3b 72 d6 53 bd ce 9d 25 bd
       0.0288956 0.002853299 -0.051718183 -0.040433697
000140 bd 41 bf bc 7b 75 48 3d d4 2d 3c 3d fc c5 8a 3d
       -0.023346776 0.048940163 0.045942143 0.06776044
000150 7b f6 d9 39 f1 d7 04 3c 5f 39 2f bc 42 ee 04 3d
       0.00041573108 0.008108125 -0.010694831 0.032453783
000160 48 37 a2 3c 84 4d 7f bd 81 79 15 bd 2a b5 fc 3b
       0.01980175 -0.062329784 -0.03649283 0.007712026
000170 78 a0 2c 3d cf c8 9d 3c 57 0f 3b bc aa fb e2 3c
       0.042145222 0.019260792 -0.0114172315 0.027707893
000180 d6 eb 96 3b e5 c4 8a 3d 59 09 7f 3d bf bc fe 3c
       0.0046057506 0.06775836 0.062264774 0.03109586
000190 d1 90 ef 3c bf 11 4b 3d e8 a2 78 bd af 1e 50 bd
       0.029243859 0.04957747 -0.060702235 -0.050810512
0001a0 2a e8 c0 3c 87 b3 85 bd 3b 8b 79 3d d8 56 85 3c
       0.023548204 -0.06528383 0.060923796 0.016276762
0001b0 24 59 37 bd 50 70 af bc b0 e6 4d 3d 3f b2 5c 3d
       -0.044762745 -0.02141586 0.05026883 0.053880926
0001c0 46 e4 39 3d 68 6f 4d 3d db bf a2 bc 2f a3 0e bd
       0.045383714 0.050155073 -0.019866874 -0.034823593
0001d0 98 2a 8e bc c6 eb 01 3d 3b 8b 7c bd 59 45 78 ba
       -0.017354295 0.03171899 -0.061656218 -0.0009470783
0001e0 4d 42 8f bd 11 0f 4b bd 7c f4 83 3d e6 05 68 bd
       -0.06995068 -0.049574915 0.06443116 -0.05664625
0001f0 66 40 8b 3c 10 58 5b 3b 13 e5 8a bd a9 82 77 3d
       0.016998481 0.0033469237 -0.06781974 0.06042734
000200 5e 16 cf bc b4 3e 2a bd 27 f1 e2 bc 43 b7 41 bd
       -0.02527922 -0.041563705 -0.027702881 -0.047293913
000210 5c a3 66 bd 2f c4 53 3d 4f 82 33 bd 53 a4 6a bd
       -0.056308135 0.051700767 -0.043825444 -0.057285618
000220 50 f3 13 3c 16 b3 34 3d 24 af 36 bd 3c 6b 16 bd
       0.009030178 0.044116102 -0.04460062 -0.03672336
000230 d5 9a 5a bc 25 a6 3a bd 46 17 28 bd 1d 57 53 bd
       -0.013342579 -0.045568604 -0.04103782 -0.05159675
000240 2e a2 19 bd b6 e8 21 bd ad 24 9a bc 55 85 b8 bc
       -0.037508182 -0.03952857 -0.018816317 -0.022524515
000250 93 db 1d 3d 21 b3 d8 3c 90 ba ae bc 22 ef f6 bc
       0.03853948 0.026452603 -0.021329194 -0.030143324
000260 8f 3a bc bc db 5e 51 3d 27 f0 82 3d 35 1b 32 bd
       -0.022977142 0.05111585 0.06393462 -0.043482978
000270 d1 c0 76 3d 7f e3 8b 3d 70 38 8d bd 90 94 1c bc
       0.060242478 0.06830501 -0.0689553 -0.009556904
000280 bc a3 f3 3c 23 01 6e 3d e2 18 15 bd 88 8d 55 3d
       0.02974116 0.058106553 -0.036400683 0.052136928
000290 d3 53 44 bd 82 a3 3a bd 6f 3b 5c 3d 70 78 3c 3d
       -0.047931504 -0.04556609 0.053767618 0.046013296
0002a0 df 63 2f bd ba 6e 89 bd 28 e3 39 3d f8 a9 17 3d
       -0.042819854 -0.067105725 0.04538265 0.03702733
0002b0 51 29 20 3c 39 15 bb bc 77 58 88 3d 3d 71 f0 3c
       0.009775476 -0.022837268 0.06657498 0.029350871
0002c0 cf 94 2e 3d 0d fd 2c bd 14 96 41 3d 09 53 c3 3b
       0.042622384 -0.042233516 0.047262266 0.0059608263
0002d0 5f 52 67 3c 4e 6c 3d 3d b8 b3 06 bd ec 0d 68 3c
       0.01411876 0.046245866 -0.032886237 0.0141634755
0002e0 08 5e 58 bd 40 1e 87 bd d5 10 68 3d 61 e9 33 bd
       -0.05282405 -0.065975666 0.056656677 -0.04392374
0002f0 e1 e2 b7 bc 55 fb c7 bc e5 bf 52 bd 56 e4 64 bd
       -0.022447051 -0.024411837 -0.051452536 -0.05588182
000300 13 b1 13 bd 3d 5d 80 3c c9 d1 87 bb 3b 9e 96 3b
       -0.036057543 0.01566946 -0.0041448814 0.0045964993
000310 2e f0 49 bd 46 7a 21 bd d8 46 2d bd 28 07 19 bd
       -0.04930132 -0.03942325 -0.04230389 -0.03736034
000320 2b 76 7b 3c 5e 4e 58 bc a8 38 f8 3c a8 37 38 3d
       0.015347998 -0.013202278 0.030300453 0.044974953
000330 b4 77 0a 3d eb 16 9a bc 47 39 26 3d ba 33 c8 3c
       0.033805564 -0.018809756 0.040581968 0.024438728
000340 16 cb 00 bc 37 b7 38 bd 73 49 a6 39 05 5c 9e bc
       -0.007860919 -0.045096602 0.0003171671 -0.019330988
000350 0f 10 16 3d 68 21 6e 3d ee 6b c6 bc 07 76 4f bd
       0.03663641 0.058137327 -0.024221387 -0.05064967
000360 5d cb 35 bc 6d f3 08 bb 6c 31 85 3d 15 28 13 bd
       -0.011095849 -0.0020897046 0.06503567 -0.035926897
000370 40 61 44 bd 4f 13 94 bd c4 25 55 3d 3e 68 79 bd
       -0.047944307 -0.07230245 0.05203797 -0.06089043
000380 34 92 5c 3d 71 54 67 bd ff db 6b bd 6f 24 bd 3c
       0.053850368 -0.056477014 -0.05758285 0.023088662
000390 7e 93 82 bc dd 0b 8a bd ad 94 20 bd 91 e4 53 bb
       -0.01593947 -0.06740544 -0.03920429 -0.003233228
0003a0 27 af 7f bd 95 78 b4 ba 09 d2 48 bd 9f 5e 94 bc
       -0.062422898 -0.0013768846 -0.04902843 -0.018111525
0003b0 42 d6 67 3d bf 58 85 bd 0f ab a8 ba 58 e5 35 3d
       0.056600817 -0.065110676 -0.0012868362 0.044408172
0003c0 b5 94 86 3d d7 be 70 bd 6e a8 eb 3c 72 12 41 3d
       0.06571332 -0.05877575 0.028766837 0.04713673
0003d0 62 a4 42 3c c1 1d 69 bb 45 0f 8e 3c 24 fc f0 bb
       0.011880012 -0.0035570713 0.017341265 -0.0073542763
0003e0 46 04 47 3d f3 eb f2 bb 58 3c 2d 3d 9d 51 4a 3d
       0.04858806 -0.0074133812 0.042293876 0.04939424
0003f0 79 d3 85 bc fc d9 8d bd 9a 13 76 3d c5 f6 2b bd
       -0.01633619 -0.06926343 0.060077287 -0.041983385

fc3.bias f4 [100]
000000 f6 8a a4 3d 3e 65 5e bd 8b 2d ea bc 5e 67 90 bc
       0.08034317 -0.05429577 -0.02858617 -0.017627414
000010 f0 b6 3e 3d 63 b0 d3 bc 2e 14 f3 3d 4b 9c 98 3b
       0.04656118 -0.025840944 0.11869083 0.0046573034
000020 ad 54 60 3d 4c 0a be 3c 6b f0 fc bc 43 33 a1 bc
       0.054768253 0.02319827 -0.030876359 -0.019677764
000030 77 aa fe 3b d7 07 98 3d 06 3e f0 bc e7 74 55 bc
       0.007771786 0.0742337 -0.02932645 -0.01302836
000040 fe 51 20 bd e5 08 ed 3c 73 d4 0e 3d a4 2d 3f bc
       -0.039140694 0.028934905 0.034870576 -0.011668596
000050 dd 9b 63 bd c7 17 9d 3c 9a 3e 17 3d 67 81 0b 3d
       -0.055568565 0.019176377 0.036924936 0.034058955
000060 be 34 e4 bc 04 f1 57 3d f5 96 df 3b 83 db 60 bc
       -0.02785718 0.052720085 0.0068234154 -0.013724211
000070 39 28 de bb f5 99 85 3d 81 b0 4c bc 04 95 54 3d
       -0.0067796973 0.065235056 -0.012493254 0.051899925
000080 05 98 c6 3d 5b b1 8f 3d 33 23 88 bd 7f 48 df bc
       0.09696964 0.0701625 -0.06647339 -0.027256249
000090 fd 56 bf bb f6 5b a9 3d cd 56 15 bd c8 3e 82 3d
       -0.0058392272 0.08269493 -0.036459733 0.06359631
0000a0 1a b1 2a bd c7 25 0d 3d 6b f5 92 bb d4 26 09 bd
       -0.041672803 0.034459855 -0.0044848225 -0.033484295
0000b0 6d c8 f8 bb 55 b9 4c 3d 2d f3 49 3d 64 e9 8f bd
       -0.007592252 0.049981434 0.049304176 -0.070269376
0000c0 fc 9b ee 3c 55 54 4e 3d 4e 7e 3d bd 4a 64 2e 3d
       0.029127114 0.050373394 -0.04626303 0.04257611
0000d0 11 3d 18 bd 3a 46 18 bd 74 62 ea bc 4f 10 85 3d
       -0.037167612 -0.03717635 -0.0286114 0.06497251
0000e0 e9 22 e4 3c 52 fe 1c 3c c8 44 a4 3d d8 aa 6b bc
       0.027848678 0.009582119 0.080209315 -0.014383994
0000f0 ce c2 78 3c 37 9c 64 3d f5 c4 42 bd 94 15 b2 3c
       0.015183164 0.05581304 -0.047551114 0.021738805
000100 5c 6d 88 3c 17 4c ea bc 8f 01 50 3b 17 a6 7f bd
       0.01665371 -0.028600736 0.003173921 -0.062414255
000110 ab ca 8f bd 35 e9 de 3c 8a 91 d4 3a 18 0e da 3b
       -0.07021078 0.027210811 0.001621769 0.006654512
000120 15 86 be bc 27 af 31 bd cd 2a 89 3d a4 ea 36 3d
       -0.023257295 -0.04337993 0.06697617 0.044657364
000130 a6 ba f4 bc 88 92 c0 bc 0f bc 4d 3c a2 41 7b bc
       -0.029874157 -0.023507372 0.012557044 -0.015335472
000140 61 93 8b bd 8c 61 ec bc 94 1b 8e 3d 93 95 7d 3d
       -0.0681522 -0.028855108 0.06938854 0.061910223
000150 24 92 37 3c b4 5a d2 3c 28 84 88 3d 8c 20 41 bd
       0.011204276 0.025678016 0.06665832 -0.04715018
000160 59 b3 b5 bc 44 af 0f bd a1 2d 30 bd 67 01 0a 3d
       -0.022180246 -0.035079256 -0.043012265 0.033692744
000170 a9 8b 7d 3d 22 ea a7 bd 99 cf bc bc 11 fe 41 3d
       0.06190077 -0.08198954 -0.023048209 0.047361437
000180 38 ae 9f 3d f7 de 0c 3c 71 4b 69 3d 61 30 cd 3c
       0.077969015 0.008598081 0.056956712 0.025047483

fc7.weight f4 [1, 100]
000000 44 1d 1b be 1a ec 8f 3d e6 b3 dc ba 22 ba b9 bd
       -0.15147883 0.07027455 -0.0016838282 -0.09068705
000010 a1 77 1b 3e 29 4f c9 bd 48 c1 45 be 6f 68 33 bd
       0.15182354 -0.09829552 -0.19312012 -0.043800768
000020 b8 fa 1a be da e2 8a bd 31 da c4 bd fa 60 20 3d
       -0.15134704 -0.0678155 -0.09611929 0.039154984
000030 03 22 a8 3d df 28 00 3e a1 eb 96 bd a7 fb 02 3e
       0.08209612 0.12515591 -0.073691614 0.1279131
000040 dd 34 65 3c 5e 6f 03 bd 68 af 7f 3b cd bf d2 3d
       0.013989654 -0.03208863 0.0039014462 0.10290489
000050 95 f4 54 3c bc 18 36 3e bd 24 14 3e a6 64 db 3d
       0.012997766 0.17782873 0.1446714 0.107125565
000060 43 20 8f 3a 80 87 30 bd 6b ea d1 bc 87 18 3f 3d
       0.0010919649 -0.043097973 -0.025624475 0.04665425
000070 6c 7e 05 3d 99 b6 51 bd 74 64 af 3d 99 dd f0 bc
       0.03259127 -0.05119953 0.08564082 -0.029402541
000080 04 da 03 be ff 0d e3 3d b4 c4 78 3c c8 47 96 bd
       -0.12876135 0.11086654 0.015183616 -0.0733791
000090 0a 39 ae 3d 2f a6 21 be 5b 16 06 3e c4 d6 ba bd
       0.08506973 -0.1578605 0.13094465 -0.091229945
0000a0 7e db b0 3d 38 8f d1 3d 85 bf 06 bc f4 12 c1 bd
       0.08635615 0.10232395 -0.008224373 -0.09427443
0000b0 77 18 fc 3d 42 d0 bb 3d a5 ee 02 3e 8c a9 c9 3d
       0.12309354 0.091705814 0.12786348 0.098467916
0000c0 d6 7e 2c 3d 81 ad d3 bd 5c 59 5f bd a6 aa aa bd
       0.042113148 -0.103358276 -0.05452858 -0.0833333
0000d0 88 7f 21 3d 77 70 a8 bd 8e 54 5b 3c 7f e5 18 3e
       0.039428264 -0.08224576 0.013386859 0.14931296
0000e0 21 09 4e 3a 88 e4 13 3d 77 4c 41 be 2e d3 41 3d
       0.00078596367 0.036106616 -0.18876825 0.047320537
0000f0 11 e8 74 3e 91 f3 be bd 71 4c da bd 7a 27 be 3c
       0.23916651 -0.093238 -0.10659111 0.023212183
000100 f8 49 1b 3e af 68 1a 3e 12 25 9a bd f5 bd 61 bd
       0.15164936 0.15078996 -0.07526602 -0.055112798
000110 c7 1c cb 3d 76 66 85 bd 02 8a c6 3d 6c 4c e7 bd
       0.09917598 -0.065136835 0.09694292 -0.11293873
000120 a3 1b 5b 3d 33 d7 87 3d 27 76 e8 3c ea 3e f6 bd
       0.053493153 0.06632843 0.028376652 -0.12023719
000130 eb 42 62 bd 41 61 56 bd d0 19 91 3d db e9 99 bd
       -0.0552396 -0.052338842 0.070850015 -0.075153075
000140 30 05 5e bd 82 f8 ac 3c 80 d5 c2 bd f2 20 af bd
       -0.054204166 0.021114592 -0.09513378 -0.08551206
000150 19 59 8d bd 61 86 0c bc 03 bc ef 3d c6 be 2f 3d
       -0.0690176 -0.00857696 0.11705782 0.042906545
000160 d0 54 83 3c 60 0b 93 bd ca a4 0d bd 92 88 08 3e
       0.016031653 -0.07179904 -0.034580983 0.13333347
000170 9e f3 48 be 5b a8 96 bd 22 34 67 bd 51 9e 97 3d
       -0.19624183 -0.0735633 -0.056446202 0.07403243
000180 67 80 b8 bd 93 d2 af bd b1 92 8e bd 2c 70 9c 3b
       -0.09008866 -0.08585086 -0.06961573 0.004774114
