Amos/Z07.pth (torch, 185583 bytes, 7 tensors)

fc1.weight f4 [100, 52]
000000 65 3d c9 3d ea 9e 60 3d 30 f8 14 bd 70 ad e3 3d
       0.09826163 0.054839052 -0.036369503 0.11117065
000010 45 cd ef bd 67 40 63 3d 05 3b d8 3d a2 31 56 3d
       -0.11709074 0.05548134 0.10558132 0.052293427
000020 80 7d 60 3d 95 d3 31 3d da c6 a3 bc 3a 78 9a 3d
       0.054807186 0.04341467 -0.01999228 0.07542463
000030 1a 07 98 bd 4d 7c 69 3d 41 5d 92 bd da c2 fe 3d
       -0.074232295 0.057003308 -0.07146693 0.12439509
000040 33 eb da 3d 62 45 0a 3d 07 60 0e 3e 9e a7 ef bd
       0.10689392 0.033757575 0.13903819 -0.11701892
000050 76 a1 a3 3d 85 60 09 3c 39 40 e6 3d b6 70 fe 3d
       0.079897806 0.008384828 0.11242718 0.12423842
000060 69 9e f6 bd 71 d4 17 be 93 53 98 3d d1 34 07 be
       -0.12041933 -0.14827134 0.074378155 -0.13203742
000070 b9 f7 07 3e 4b ef 00 3e 25 51 f2 bc 3b 23 06 be
       0.13278092 0.12591283 -0.029579708 -0.13099377
000080 f9 9f 10 3b 8e a5 e6 3d 02 75 d9 bd 50 0f ac 3d
       0.0022068007 0.11262046 -0.106180206 0.08401358
000090 7d 7f 35 3d 1f 82 30 3d e3 22 33 3c 3a c8 7b bd
       0.044311035 0.043092843 0.010933611 -0.061470248
0000a0 c1 a5 0b bd 94 a7 56 bd 3a 52 0b be 9b 29 ae bd
       -0.034093622 -0.05240591 -0.13605586 -0.08504029
0000b0 14 84 06 3e bf c7 8e 3d cb 73 6f 3d e8 e3 05 3e
       0.13136321 0.06971692 0.05846004 0.1307522
0000c0 9b 56 a6 bd fb d8 df 3d 8e 86 05 be ae 62 fe 3d
       -0.081219874 0.109300576 -0.1303961 0.124211654
0000d0 29 01 e1 3d 30 db 03 3e 18 ea cb 3d 9c a7 72 3c
       0.109865494 0.12876582 0.09956759 0.014810469
0000e0 9c 94 25 bd 9a 9b 04 be b2 6f 91 bd ce 57 b3 bb
       -0.040424928 -0.12949982 -0.07101382 -0.0054731136
0000f0 df 3d 76 bc ad c3 cc 3d 85 53 27 bd 2e bd 3e bd
       -0.0150294 0.0999826 -0.040851135 -0.046567135
000100 bf 1a 03 bc 4a 95 9e 3d 40 c7 55 bd 93 67 18 3c
       -0.008001982 0.077433184 -0.052191973 0.009302038
000110 6e c1 07 3c 65 e1 32 3d 4f 41 51 bd 41 92 92 bd
       0.008285863 0.043671984 -0.051087674 -0.07156802
000120 f3 44 3f bd 68 f0 74 bd 76 ea d1 3d 3d a8 c0 3d
       -0.046696614 -0.05979958 0.10249798 0.09407089
000130 ba 6f bb bd e2 76 f4 bd 35 ad a8 bd c5 2b d9 3d
       -0.091521695 -0.119367376 -0.082361616 0.106040515
000140 56 d3 94 bd 6c 64 a2 bd 00 83 fb bd 5f 2f e9 3d
       -0.07266872 -0.0792931 -0.12280846 0.113859884
000150 01 e6 c8 3d 65 77 8e 3c 8a e7 85 3d af db a9 bc
       0.09809495 0.017390916 0.06538303 -0.020734636
000160 f2 37 83 bc 15 c0 10 be 50 3e 09 3d 3f d8 10 3d
       -0.016017888 -0.14135773 0.03350669 0.03536248
000170 d1 2b da 3d 21 9e 1a bd aa 61 8f 3d e4 07 a4 3d
       0.106528886 -0.03774846 0.0700105 0.080093175
000180 1c 83 0f 3c 5b 1d 84 3c 59 0c 68 3d 0d 98 ac 3d
       0.008759286 0.016127279 0.0566524 0.08427439
000190 0e d1 67 bd 2d 39 84 bd 32 89 14 3d e4 af 42 bc
       -0.056595854 -0.06456218 0.036263652 -0.011882756
0001a0 f0 a4 2d 3c a0 b7 c2 bd 33 7a cf bd 40 b5 5d bd
       0.010598406 -0.0950768 -0.101307295 -0.05412793
0001b0 e3 30 7d 3d ee 09 b6 bd a6 72 cd bc 4a 0d d7 3d
       0.0618142 -0.08888613 -0.025079083 0.105005816
0001c0 0b cd f7 3b d5 08 6e bd 53 94 9b 3c 0a bd 5c bd
       0.007562285 -0.05811389 0.018991625 -0.05389122
0001d0 f0 f9 25 3c e0 ed ad bd 63 a0 6a 3b 65 91 e6 3d
       0.0101303905 -0.08492637 0.0035801164 0.112582006
0001e0 ed 8c 05 be d7 a0 ee 3d f9 c2 0b 3d 69 c0 54 bd
       -0.1304204 0.116517715 0.034121487 -0.05194131
0001f0 aa 7a c2 bd 6c 67 42 3d 39 9b 02 3e c4 96 22 3d
       -0.094960526 0.047461912 0.12754525 0.039694563
000200 00 7d 27 3c 5e ff cc 3d d1 d1 44 bd 98 13 0a 3e
       0.010222673 0.10009645 -0.04805166 0.13484037
000210 7e bb a6 3d c2 7a f2 bd 79 e8 fd bd 11 86 09 3e
       0.0814123 -0.118398204 -0.12397856 0.13430049
000220 cb 7e bc 3c cd 21 32 bc dc 13 ec 3d f7 f8 04 bd
       0.023009678 -0.010872317 0.115272254 -0.032463994
000230 d3 2d eb 3d cb fb b6 bd 6d 5e 04 be a2 c0 73 bd
       0.1148335 -0.089347444 -0.12926646 -0.05950988
000240 34 98 d9 bd 24 c8 c8 bd 61 92 80 bd 00 5e 8c 3d
       -0.106247336 -0.09803799 -0.062779196 0.068538666
000250 7d b6 0e bc ad 13 aa 3d e5 f3 fe 3d b8 7a 02 3e
       -0.008710501 0.08304534 0.12448863 0.12742126
000260 e3 7e 85 bb d4 b4 04 be bb f3 d7 bd 65 79 01 3e
       -0.004073964 -0.12959605 -0.10544535 0.12643965
000270 0f 9d de bd 56 79 d1 3d 3f 06 ba bc 47 d1 04 3e
       -0.108698 0.10228221 -0.022708056 0.12970458
000280 43 92 2d 3d db 27 3d bd 1c 0b d5 3d 8b 2f 59 3b
       0.042375814 -0.046180587 0.104025096 0.003313991
000290 1d 89 e0 bd 80 03 ef bd cd ee e0 3c 39 fa 8a 3d
       -0.10963652 -0.116705894 0.02745762 0.067860074
0002a0 59 57 be bc ca c8 af bd 44 07 c0 bc be 1b 01 be
       -0.02323501 -0.08583219 -0.023440965 -0.12608239
0002b0 57 6a 87 bd 04 48 90 bd fc 77 d5 3d 71 92 fd bd
       -0.066120796 -0.07044986 0.10423276 -0.12381447
0002c0 df b0 d9 3c 8a 70 e7 3d f0 65 37 3d e5 bf e2 bc
       0.026573597 0.11300762 0.04477495 -0.027679393
0002d0 cc 58 87 3d 04 2b 6d 3c 05 06 10 3d cf 2f ae 3d
       0.066087335 0.014475588 0.03516199 0.085052125
0002e0 79 49 89 38 16 8a f3 3c 4b 08 f8 3d 19 5d 4a bd
       6.5463544e-05 0.02972893 0.12110957 -0.04940519
0002f0 4f 10 d1 bc 09 c1 9f bd b1 b4 b0 bd 28 15 65 bd
       -0.025520472 -0.078004904 -0.08628214 -0.05592838
000300 f9 4e c7 bd 3d bb 7c 3d 7f 59 27 bd 69 a4 0b bd
       -0.0973186 0.061702 -0.040856835 -0.03409234
000310 7a 97 53 3d 8d 2e e7 3d ef 10 e5 3d 88 16 aa 3d
       0.05165813 0.11288176 0.111848705 0.08305079
000320 25 82 81 bd a7 b7 ee 3d 9d 7f 25 3d 50 32 78 3d
       -0.06323651 0.11656123 0.040404905 0.060594857
000330 48 78 73 bb 84 6a 95 3d 26 cd fe 3d 98 97 da bd
       -0.003715055 0.07295707 0.12441473 -0.106734455
000340 74 7e fb 3d 70 05 c4 3d b8 09 6e bd af b3 b1 3d
       0.122799784 0.095713496 -0.058114737 0.0867685
000350 a6 f1 99 bd 28 94 dd bc 8d 4b ae 3d af 23 8d bd
       -0.07516794 -0.027048185 0.08510504 -0.06891572
000360 8b 5f 2d 3c 4e e5 00 be 00 f6 84 3c 17 b9 7f bd
       0.010581861 -0.12587473 0.016230583 -0.062432375
000370 85 b5 97 bd 5e b2 bc bd 3a 36 1b 39 15 cd be 3d
       -0.07407669 -0.09213708 0.00014802153 0.0931646
000380 da 95 8e 3d 14 bd 01 b9 be 60 5a bd 3c da ee bd
       0.06962176 -0.00012372836 -0.053314917 -0.11662719
000390 5a fb ac bd 71 ed 9d 3d fd a1 08 3d 64 9b a6 bd
       -0.08446379 0.07711304 0.03335761 -0.08135107
0003a0 db 0f 87 3d 87 c3 9b 3d 8f 88 55 3d 71 e1 9f bd
       0.06594821 0.07605653 0.052132186 -0.078066714
0003b0 60 3d 06 3e e1 d7 74 3d 74 e4 04 be c5 0c 01 be
       0.1310935 0.05977619 -0.12977773 -0.12602527
0003c0 4d d2 fd 3d 5f e6 f3 3d c9 05 8d bd 7b d7 af bc
       0.12393627 0.11909174 -0.06885869 -0.021465054
0003d0 1c b6 a9 bd 5f 43 07 be e3 8e 04 be 54 11 87 bd
       -0.08286688 -0.13209294 -0.12945132 -0.06595102
0003e0 b5 d0 f5 bd d5 2e 95 3d 86 d7 db bd 50 a4 b8 3d
       -0.12002698 0.07284323 -0.10734467 0.09015715
0003f0 f9 cc e7 3d d0 e8 0a 3c dd a1 8e 3b 31 48 57 bc
       0.11318392 0.008478358 0.0043527917 -0.01313977

fc1.bias f4 [100]
000000 50 d4 1b 3d 65 ff 05 be 5c e2 d6 bd d8 aa 2b 3d
       0.038044274 -0.13085707 -0.104923934 0.041910976
000010 eb dc b1 3d 80 57 cb 3d 46 4f b0 bc 82 0a 46 3d
       0.08684715 0.09928799 -0.021522176 0.048349865
000020 e4 63 01 be ed 44 07 3e ea 8f 26 bd 28 2b c1 3c
       -0.12635761 0.13209887 -0.04066459 0.023580149
000030 a8 1b d6 3c 93 20 0d be 52 5b 8b bd 09 7a e7 bc
       0.026136234 -0.13781957 -0.06804527 -0.028256433
000040 42 ba 2a bd 61 61 87 bd b5 9a b3 3d 4a 52 8b bd
       -0.041681536 -0.066103704 0.087697424 -0.06802805
000050 1a 90 28 bd 93 04 95 3d c3 c9 0a 3e 94 b5 ce 3d
       -0.04115305 0.07276263 0.13553528 0.10093227
000060 3a 13 c8 3c a7 4c d7 bd 7a 98 50 3d 3c 54 f6 bd
       0.02442323 -0.10512667 0.050926663 -0.12027785
000070 e2 5c da 3d 38 11 7e 3d 23 1d 03 be 68 ec d3 3c
       0.10662247 0.06202814 -0.12804084 0.025869563
000080 5f 5f e5 3d ae 69 e8 3d d6 51 d8 3d e1 e8 8d bd
       0.11199831 0.11348282 0.10562484 -0.06929184
000090 f2 61 d9 bb 45 d1 76 3d e6 48 c2 bd 44 f9 1c bb
       -0.0066339904 0.06025817 -0.094865605 -0.0023952285
0000a0 aa 9f 4a bd 8f 0f d0 bd 09 f6 02 3e 1c 2b a6 bd
       -0.049468674 -0.101592176 0.12789167 -0.08113691
0000b0 27 82 e4 bd 6d a5 0e be 01 77 02 3e f9 68 36 bd
       -0.11157637 -0.13930292 0.12740709 -0.044533703
0000c0 4a f5 5a 3c 9f 3b 06 bd 71 7f 08 3e 2c ec ab bd
       0.0133641455 -0.032771703 0.13329865 -0.083946556
0000d0 2f ed 68 bd d1 46 53 bc b6 7e 17 3c 96 bd b4 bd
       -0.05686682 -0.012895302 0.009246519 -0.08825223
0000e0 7e f1 37 3d 32 93 b7 bd 5e bf 90 bd 69 bb 62 3d
       0.04490804 -0.08963622 -0.070677504 0.05535451
0000f0 34 b0 90 bd 7f a8 d6 3d f4 0b 00 be e4 58 52 bd
       -0.07064858 0.10481357 -0.1250456 -0.051354304
000100 26 14 73 3d af 30 13 bc 89 91 b8 3d e8 be 20 3c
       0.059345387 -0.008983775 0.09012134 0.009811141
000110 82 0f 87 bd 0a 54 05 3e c2 98 3a bd 3e d5 83 3d
       -0.06594755 0.1302034 -0.045555837 0.06437157
000120 4e 88 b9 3c a7 33 3b 3d fe 55 de bc 6b 70 04 be
       0.022648003 0.045703556 -0.027140614 -0.12933509
000130 bd 00 5d 3d aa 55 b0 3d f1 0f bf 3d 9c ff 0c 3e
       0.053955782 0.08610089 0.093292125 0.13769382
000140 de a8 08 be f2 40 8c 3d c5 ec 07 3e 7f d3 fa 3d
       -0.13345668 0.06848325 0.13273914 0.12247371
000150 f4 f4 ae bd d8 f1 0d 3e db ad f9 3d 75 58 0c be
       -0.08542815 0.13861787 0.121913634 -0.13705619
000160 39 3e 9a bd 5e fd 5c bd 25 f7 99 3c 09 4e 98 3d
       -0.07531399 -0.053952567 0.018794606 0.07436759
000170 03 e0 47 3b 34 df e3 3c dc b0 4f 3d 08 fc 6b 3c
       0.0030498512 0.027816392 0.050705776 0.014403351
000180 44 07 7f 3d 55 cf 14 3e c6 8e 53 3d 21 81 e1 3d
       0.06226279 0.14532216 0.05164983 0.110109575

fc2.weight f4 [200, 100]
000000 69 33 4b 3d 42 37 46 3b c0 a5 8f bc b0 67 1b 3d
       0.049609575 0.0030245339 -0.01753509 0.03794068
000010 e1 5e 82 3d f4 ba 18 bd 55 81 a5 3d 36 70 b3 bd
       0.06365753 -0.037287667 0.08081309 -0.08761637
000020 f5 b4 9e 3d 98 c5 bf bb 10 f0 d3 bc 6d 74 bf 3c
       0.077493586 -0.0058524124 -0.025871307 0.023370946
000030 21 a1 a7 3d 63 00 a7 3c 36 be 51 bd 1f 52 75 3d
       0.0818503 0.020385927 -0.05120679 0.05989277
000040 99 20 c5 bd 85 64 50 3d b7 7d 68 bd 0b de 7b bd
       -0.09625358 0.050877113 -0.056760516 -0.061491054
000050 f6 4a bb 3d dd 5c 8c bd 9d bf 1d 3d ca 4a 38 bc
       0.09145157 -0.0685365 0.038512815 -0.0112483
000060 1e 16 dc 3c b2 e8 8d 3d 26 6b 39 bd cd 5e 9e bd
       0.026866015 0.06929149 -0.0452682 -0.077329256
000070 77 fc 84 bd ac 27 72 bc ab 2b a0 3d 21 5f 40 3d
       -0.06493466 -0.014779966 0.07820829 0.046965722
000080 24 5a c2 bc 6c 81 4f bd 04 f1 bb bd 8a 8d 28 3d
       -0.023724623 -0.050660536 -0.091768295 0.041150607
000090 25 fc f9 bc a3 26 1b bc ea 2b ab bd fd 03 aa 3d
       -0.03051574 -0.009469661 -0.08357985 0.08301542
0000a0 af 20 ca bd db 1d 6f bc 10 72 24 bd ae 7b 4c ba
       -0.09869515 -0.01459452 -0.04014784 -0.0007800412
0000b0 d8 31 be bd a6 44 cc 3c 28 48 b6 3c 8d 0b c6 3d
       -0.09286851 0.024935078 0.022251204 0.09670172
0000c0 13 89 88 bd 98 0f 5e bd 52 21 aa bd f0 d5 c0 ba
       -0.0666677 -0.05421409 -0.083071366 -0.0014712196
0000d0 35 8d af 3d 51 f2 b8 bd 0e 2a 95 bd 92 12 4a 3d
       0.08571855 -0.09030593 -0.07283412 0.049334116
0000e0 5f bc 19 bd c7 39 62 3d 8f fd 9a bd d8 72 a2 bd
       -0.03753316 0.055230882 -0.07567894 -0.07932061
0000f0 db 7b df bc a3 b8 a8 bd 6a e6 59 3d a3 f1 49 bd
       -0.027280739 -0.08238342 0.053198256 -0.04930271
000100 55 58 39 3d 5e ec 20 bd 26 4c ca bd 02 45 56 bd
       0.045250256 -0.039287917 -0.098778054 -0.052311905
000110 0c 5f 66 bc 6d d1 84 bd 02 f1 b7 3d 77 69 0b bd
       -0.014060747 -0.06485257 0.089815155 -0.034036126
000120 13 82 bf bd c4 e8 87 bd 81 e9 b8 3c 59 b6 81 bd
       -0.093509816 -0.066361934 0.02257228 -0.06333608
000130 4b a8 8d bc e2 2f 6d 3d cc e5 91 bd 49 4c 79 bd
       -0.017292162 0.057906993 -0.071239084 -0.060863767
000140 90 db ca bc f6 90 22 3b 59 6f c3 ba f9 fc 15 bd
       -0.024762899 0.0024805642 -0.0014910504 -0.036618207
000150 46 f5 b9 bd c3 cd 32 bd 19 aa a8 bc d0 a3 44 bd
       -0.09079985 -0.04365326 -0.020588921 -0.048007786
000160 e0 2f 64 bd 4a 34 7f 3c 31 9a 43 3b 5b 22 bb 3a
       -0.05570972 0.0155764315 0.0029846544 0.0014277207
000170 18 b4 c6 bd d9 e1 c5 bd d8 e5 48 bd 47 c2 b5 3d
       -0.09702319 -0.09662218 -0.04904732 0.08874946
000180 14 8c c5 bd 88 45 a2 bd ce a9 9a bd ac 2f a5 bd
       -0.096458584 -0.07923418 -0.07551919 -0.08065733
000190 d3 65 54 3a bb d0 66 3c 4f 9e 4c bd da b7 a4 bc
       0.0008102331 0.014087851 -0.049955662 -0.020107199
0001a0 6b df 9b bd 47 d8 86 bd de 50 a8 3d 3f 3b be 3d
       -0.07610973 -0.065842204 0.08218549 0.09288644
0001b0 f5 65 6e 3d e9 5a 78 3d f2 22 d4 b9 5a 7b a2 bd
       0.058202703 0.060633574 -0.00040461827 -0.07933684
0001c0 5b 76 5f 3d a2 75 88 3d 9c 41 85 bd 87 18 b8 bd
       0.054556232 0.06663062 -0.065066546 -0.08989053
0001d0 01 d6 c4 bd b9 9d 29 3c 61 fc b7 bd 3d 77 68 3d
       -0.096111305 0.010352545 -0.08983684 0.05675434
0001e0 06 20 c5 bd e7 5d 88 bd e8 4a a2 bd f7 dc cb bd
       -0.096252486 -0.066585355 -0.079244435 -0.09954255
0001f0 1e 00 b2 bc 76 c0 3a 3d df 7a b4 3d 0a 0a 40 3c
       -0.021728572 0.0455937 0.08812498 0.0117211435
000200 a3 86 18 bd 77 46 a2 3d d2 f6 cd 3c af 23 0d 3d
       -0.037237775 0.07923596 0.025142107 0.03445786
000210 31 b2 a2 bc e5 7c fd bb 59 81 9b 3d aa b3 10 bb
       -0.019860359 -0.007735836 0.075930305 -0.0022079744
000220 63 00 9c bc 8c 45 db 3c 25 16 1f bd 59 77 86 bd
       -0.019043153 0.026766561 -0.038839478 -0.065657325
000230 d5 59 5c bd dd a2 ed 3c 5c 3c 9e bd 70 cb 7b bb
       -0.053796608 0.029008323 -0.077263564 -0.0038420819
000240 43 6b 8e 3d 35 74 4b bd d4 40 a7 bd a2 62 28 bc
       0.06954052 -0.04967137 -0.08166662 -0.010277422
000250 0a 14 ae 3d 52 20 6c 3d 0b b7 88 bc 6e 8a 85 3d
       0.08499916 0.05764801 -0.016688844 0.06520544
000260 7e af 6d 3d d8 2b 8a 3d 18 1d aa 3c b8 11 cd bc
       0.05802869 0.06746644 0.020765826 -0.025032863
000270 12 75 0f bc d6 ca 5f 3d 51 ef 64 bb 20 94 02 bd
       -0.008755939 0.0546368 -0.0034932683 -0.031879544
000280 b3 8b 96 3d a2 65 c0 3d 26 11 28 bd e9 8b 1f bd
       0.07350864 0.09394385 -0.04103198 -0.038951788
000290 c8 f3 70 bd 20 eb 92 bd d8 d6 7b 3d af b8 ab 3d
       -0.058826238 -0.07173753 0.061484188 0.08384835
0002a0 04 15 54 3c cb 21 56 bc 45 3e b4 3d 37 b2 7e bd
       0.012944464 -0.01306958 0.088009395 -0.062181678
0002b0 fc 4f 28 3d 66 55 86 3d bc a2 35 3c da 40 bc 3c
       0.041091904 0.06559257 0.011086162 0.022980142
0002c0 8a 26 ca bd d8 dd c4 3c 06 5d ad bd 7d 39 80 3d
       -0.09870632 0.024031565 -0.084650084 0.06260965
0002d0 39 6a e1 ba 84 ef 2c 3d 23 70 ae 3d 90 f7 c0 3d
       -0.0017197795 0.042220607 0.08517482 0.09422219
0002e0 c1 f2 97 3c d9 8b b5 3c fa cc d8 3c 3b e8 9a 3c
       0.018548371 0.022161411 0.026464928 0.018909564
0002f0 9b d2 ed bc ed 35 89 bd 71 04 01 3c 89 58 dd bc
       -0.029031089 -0.06699739 0.007874594 -0.027019756
000300 48 5d 2c 3d 4a 23 ff bc 1f 8d 42 bc 43 74 c7 3d
       0.042081147 -0.031144757 -0.011874466 0.09738972
000310 d1 38 71 3c 91 ac 51 3d d7 99 de 3c f2 2a 8b bc
       0.014723019 0.051189963 0.027172966 -0.016988251
000320 57 37 88 3d 36 6f 9c 3d 24 3e c9 bd 02 f4 c1 bd
       0.0665118 0.07638399 -0.098263055 -0.09470369
000330 12 49 a1 3d 45 1d ab bc 2f 8a 4d bd 6e 52 11 bd
       0.07875265 -0.02088798 -0.05018061 -0.035479
000340 b0 61 00 bc 12 55 43 3d 26 db 9c bd d0 14 b6 3d
       -0.0078357905 0.04768855 -0.07658987 0.088906884
000350 8d 0c e3 bc d1 14 98 bd e7 55 bd bb 4b 7e 7f bd
       -0.027715946 -0.074258454 -0.0057780626 -0.0623763
000360 de c3 75 3d 6a c7 89 bd af d5 3e 3d 67 e6 24 bd
       0.060001247 -0.06727488 0.046590503 -0.04025879
000370 b4 18 cc 3d d4 32 01 3d f4 4d 96 bd 77 ab 85 bd
       0.09965649 0.031542614 -0.07339087 -0.06526845
000380 2e a7 24 3d d3 48 bc bc 4c 5e 9b 3d 92 1c 7f bd
       0.040198497 -0.022983944 0.07586345 -0.062283106
000390 80 62 e9 3c e8 48 ae 3d b9 5e 80 3d e9 d9 a0 3c
       0.028489351 0.085099995 0.06268067 0.019635158
0003a0 e7 85 99 bd 79 78 37 bc d4 7b b4 3d 62 b8 9d 3d
       -0.07496243 -0.0111981565 0.08812681 0.07701184
0003b0 32 2f 89 bc bc 13 b5 3d 3b 2d 90 3d 7e 9b 38 bd
       -0.016746137 0.08841655 0.07039877 -0.045070164
0003c0 81 57 df 3c c0 d6 b4 3c e3 b4 af 3d 38 5c c1 3d
       0.027263405 0.022075057 0.08579423 0.094414175
0003d0 9b ed bb 3d 6b 1e 3d bd 43 9f a5 bc 23 9f a6 bc
       0.09176179 -0.046171587 -0.020217543 -0.020339554
0003e0 34 31 8b bd 2d b6 c8 3d 2e df ae 3a 42 34 90 3d
       -0.06796494 0.09800372 0.0013341659 0.070412174
0003f0 6b 3f 60 3d 46 13 96 bd e6 be 0b 3c d1 37 e8 3c
       0.05474798 -0.07327895 0.0085294 0.028346928

fc2.bias f4 [200]
000000 9e ce b9 3d 71 5b c4 bd 4d 0f b5 bd 20 f8 9a 3d
       0.09072612 -0.095877536 -0.08840809 0.07566857
000010 85 48 8a 3c 40 65 b4 bc 4b 79 bb 3d 48 db f6 bc
       0.016880283 -0.022020936 0.09153994 -0.030133858
000020 10 95 b3 3d 5b 9d 81 3d 25 c6 2e bd 59 df 06 3d
       0.08768666 0.06328841 -0.042669434 0.032927845
000030 e7 73 eb bc 3f be 66 bc 6c 16 e6 bc f0 f4 4a bd
       -0.02874179 -0.014083444 -0.028086863 -0.049549997
000040 2f 88 ce 3c 52 26 b8 3d 77 ca 25 bd 32 df 36 3d
       0.025211422 0.08991684 -0.04047629 0.04464645
000050 2b 0f 1e bc 85 51 94 3c b8 94 a7 3c 80 b7 fa bc
       -0.009647171 0.018105278 0.020456657 -0.030605078
000060 4a c2 4c 3c 7e 0b fe bb d7 ed db bc 4d 4f 9a 3c
       0.012497494 -0.007752835 -0.02684681 0.018836642
000070 b5 0e be bd 11 a8 cb 3c 90 3c 9c 3c 2c 09 81 3c
       -0.09280149 0.024860414 0.019071847 0.015751444
000080 e3 1c a9 3c 9c 18 c9 3c 3f 9e 42 3d 02 bd 09 3b
       0.020643657 0.024547867 0.047514196 0.0021017198
000090 97 cc 42 3d 97 42 c9 3d 23 9c 78 3d 6d a1 4f 3d
       0.047558393 0.09827154 0.06069578 0.050691057
0000a0 61 5a 64 3d 76 7f 67 3c 94 15 00 3d c1 e6 89 bd
       0.055750255 0.01412951 0.03127058 -0.06733466
0000b0 8a 5a c9 3c 8b 56 59 3d 9a 00 83 3d e5 79 98 3d
       0.024579305 0.05306105 0.06396599 0.074451245
0000c0 74 ef 33 bd 60 b3 fe 3b 7c f0 0f 3d 45 f2 3b 3d
       -0.043929532 0.007772848 0.035141453 0.045885343
0000d0 13 2c b8 bc 51 f6 ea bb 05 61 a2 3d 87 12 40 3d
       -0.022481954 -0.0071704765 0.07928661 0.04689267
0000e0 a2 05 bf 3d 75 f3 22 3d b6 61 5f 3c b5 ca 90 bd
       0.09327246 0.03978296 0.013634136 -0.07069913
0000f0 8d af f3 bc 3f 52 87 bd e1 b5 e9 3c f1 3d 34 3d
       -0.029746795 -0.06607484 0.02852911 0.044004384
000100 08 2c 8a 3c 3e 5b 74 3c 11 05 03 3d f8 13 8a 3d
       0.016866699 0.014914332 0.031987254 0.0674209
000110 e5 4d 01 bd e8 59 30 3d c7 e3 6d bd e1 ed c1 bd
       -0.031568427 0.04305449 -0.058078554 -0.094692
000120 c1 2f 04 bc ed 8a 2f bd 68 ce 73 3b 09 ce 93 3d
       -0.008068026 -0.0428571 0.0037201885 0.072170325
000130 69 5c 4d 3d 61 6d 33 3d 46 c7 a0 bd 88 6a 11 bd
       0.050136957 0.043805484 -0.078505084 -0.035501987
000140 34 20 ca bd af ea 9a 3d 8d ad 9b 3c 21 5f 92 3c
       -0.098694235 0.075642936 0.019003654 0.017867627
000150 84 fa 7c bc 25 24 e8 bc 39 59 ae bc c3 e7 c9 bc
       -0.015440587 -0.028337548 -0.021282779 -0.024646645
000160 11 04 9a 3d 2d de ad bd 95 c6 12 bd dd 36 c5 3c
       0.07520307 -0.08489642 -0.035833914 0.024074012
000170 15 22 e7 bc ba 86 b6 3d 09 b5 be bd af 60 c5 3c
       -0.028214494 0.08912416 -0.093118735 0.024093954
000180 19 ad a2 bc fb 48 46 bc 0c a1 85 bd 9e 78 f1 3c
       -0.01985793 -0.012102361 -0.06524858 0.02947646
000190 d7 38 ac 3d e3 96 09 3c 14 52 a2 ba b4 dd 68 bc
       0.08409279 0.008397791 -0.001238408 -0.014213014
0001a0 ff ec 9f bd 95 83 8a 3b d2 67 cd bc 39 4c 8b bd
       -0.07808875 0.0042271116 -0.02507392 -0.06801648
0001b0 25 dc 2f 3d 5d 48 b1 bd 30 36 c4 bd d9 5f 85 bd
       0.042934556 -0.0865638 -0.09580648 -0.06512422
0001c0 75 29 c2 bc 7a d1 43 bd 6b 6f 8f 3d 96 a7 ba bd
       -0.023701409 -0.047807194 0.07003673 -0.09113996
0001d0 4b 71 08 39 1c 1e 6d 3d 77 ab 72 bd 61 0f d1 3d
       0.00013012176 0.057890043 -0.059245553 0.102080114
0001e0 35 05 99 38 af f3 ec 3c 52 44 de 3b 7b 3e 6e 3d
       7.2965784e-05 0.028924791 0.0067830468 0.058165055
0001f0 2e 90 8a 3d 59 33 ac bd 43 01 0a bd 2f d0 af 3d
       0.06765781 -0.08408231 -0.03369261 0.0858463
000200 46 44 46 bd 5a b9 bd bc f1 d3 86 3c e9 43 5f 3d
       -0.048404954 -0.023159672 0.016458483 0.054508124
000210 8b fc a3 bd 0d bd c3 3d 09 88 64 bd 30 cd 55 bd
       -0.08007153 0.09557543 -0.055793796 -0.052197635
000220 f0 b8 53 bb d9 ba 30 3c 65 90 7f bc 12 82 ab bc
       -0.0032306276 0.010786735 -0.015598391 -0.020936046
000230 30 da 45 bd 43 99 8a 3d f8 3a 90 3c 17 de 7f 3d
       -0.048303783 0.067675136 0.017606243 0.06246766
000240 76 c5 c4 3d 11 08 c8 3d ae 9e 81 3d c4 50 ab 3d
       0.09607975 0.097671635 0.06329094 0.08365014
000250 1e 50 94 bd ab 67 51 bd 82 a9 8d bd e7 e2 c6 3c
       -0.07241844 -0.051124256 -0.06917097 0.024278117
000260 4b 0e 9f 3d 78 d8 ab bc c7 36 c5 bd 2d 0a bf bd
       0.07766398 -0.020977244 -0.096295886 -0.09328113
000270 c9 98 c1 3c bd 11 3a bc 67 55 b3 bd 71 c5 19 bd
       0.023632424 -0.011356768 -0.087565236 -0.03754181
000280 a0 65 e0 3b f0 04 7f 3d f3 1a 88 3d 95 ae 2b ba
       0.006848052 0.06226057 0.06645765 -0.0006549147
000290 43 18 15 ba e2 6d 9b 3d e3 98 4a bd af 17 97 bc
       -0.0005687514 0.07589318 -0.04946221 -0.01844391
0002a0 2d e3 49 bd 0b 37 37 bd 1e 1a a7 3c a3 14 aa bc
       -0.049288917 -0.044730227 0.020398196 -0.020761793
0002b0 36 bf cc 3d b7 2f 8e 3d 79 2e 24 3d 96 1e 16 3d
       0.09997408 0.06942695 0.040083382 0.036650263
0002c0 18 7d ab 3d 44 b5 9d 3c cc 43 ee 3c c3 29 98 bc
       0.08373469 0.019251473 0.029085062 -0.018574601
0002d0 98 b4 af 3d 85 ac a4 3d 80 a3 91 3d c8 8d 97 3d
       0.085793674 0.08040718 0.07111263 0.074000895
0002e0 00 52 0a bd a4 43 c4 3c 38 f2 9f bd 8b 2d 88 3d
       -0.033769608 0.023958035 -0.078098714 0.06649312
0002f0 ab dd 02 bd f9 e7 5a 3d c1 e3 90 3d a3 4c da bc
       -0.03194968 0.053443883 0.070746906 -0.026647871
000300 af f3 6d bd b1 f4 3d bc c6 94 84 bd 30 38 b4 3d
       -0.058093723 -0.0115939835 -0.06473689 0.087997794
000310 59 9a 3c 3d 22 d2 67 bd 42 be 8c bd 90 d0 94 bd
       0.046045635 -0.056596883 -0.06872226 -0.07266343

fc3.weight f4 [100, 200]
000000 1a 1a 1e 3d b3 23 38 3d c8 51 18 3d 17 97 0b bd
       0.03859911 0.04495592 0.037187368 -0.034079637
000010 60 79 60 3d aa cf 65 3c db f3 6d 3d 11 bd c3 3b
       0.054803252 0.014026562 0.058093887 0.005973466
000020 3a 6b cb bc d6 76 d6 3b 6b 93 38 bc 88 f3 2b bc
       -0.024831403 0.006544928 -0.011265616 -0.010495074
000030 ac 32 a9 bc 87 ba 6e 3c 0a a0 34 3d bc 5c 3f 3d
       -0.020654045 0.014570839 0.044097938 0.046719298
000040 27 2a 50 3d 90 01 98 3d dd 42 e0 bc 9e ff 01 bc
       0.05082145 0.07422173 -0.027375633 -0.007934479
000050 b8 f6 10 3c 8d 71 bb 3c 24 0a af 3c 3a 36 c5 bc
       0.008847885 0.022881294 0.02136714 -0.024073709
000060 d8 f0 89 bc fd 25 b0 bc 19 39 73 bd a2 98 34 3d
       -0.016838476 -0.02150249 -0.059380624 0.044090874
000070 f9 4b 6a 3c 8f e5 70 3d d2 8f 6a bd 59 3a 02 bd
       0.01430034 0.058812674 -0.057266064 -0.031793926
000080 c8 d8 c6 3c b7 ad 6e bd 5e 4f ba bc 75 a3 71 bd
       0.024273291 -0.058271136 -0.022742923 -0.058993775
000090 cc d1 8b bd d8 64 7f bd 4d 30 08 bd e2 45 7c 3c
       -0.06827125 -0.06235203 -0.03324919 0.015397521
0000a0 82 74 0f 3d 78 89 df 3c ed ae 28 3d c7 4a 1a bc
       0.03502322 0.02728723 0.041182447 -0.009417242
0000b0 20 91 10 3d 1a 1f 8b 3d 72 13 8d 3c f4 ca 76 3d
       0.035294652 0.067930415 0.017221186 0.060252145
0000c0 7d 5d 17 3d be 68 94 3d 53 74 82 bd 0e 3c 02 bd
       0.03695439 0.072465405 -0.06369843 -0.031795554
0000d0 39 1f 42 bc 2c 84 82 3d ae 69 77 bd 28 1f 00 3c
       -0.011848264 0.06372866 -0.06040352 0.007819928
0000e0 1b 0c 8e bc 1a 96 ab 3c 3f b5 57 bd 5e ac 74 bc
       -0.017339757 0.020945597 -0.052663084 -0.014933674
0000f0 80 7f 6e 3d 93 9b 85 bd 48 c2 db 3c 60 19 5e bd
       0.058227062 -0.06523814 0.026826039 -0.05422342
000100 0d c6 c6 3b 29 0d 6d 3d 65 13 03 bd 83 7a 5d 3d
       0.00606609 0.05787388 -0.032000918 0.054071914
000110 2b c1 b7 bb 62 1b c2 bc 4b c1 d6 bc e4 90 ac 3a
       -0.005607744 -0.023694698 -0.026215216 0.0013165739
000120 40 dd 83 bd f3 7b 83 bd 68 7d 6b bd a9 d1 20 bc
       -0.064386845 -0.06420126 -0.057492644 -0.009815612
000130 84 0c a3 3c 3d 52 0f bc 34 38 38 bd f5 24 39 bd
       0.019903429 -0.0087476345 -0.044975474 -0.04520126
000140 5f 09 bc bc 4b a7 34 3d 47 51 40 3d 84 b2 8f 3d
       -0.022953687 0.044104856 0.046952512 0.07016471
000150 5e 3d 08 3c 6f 02 5b 3c b9 cd 39 bc 63 a6 0e 3d
       0.008315412 0.013367279 -0.011340552 0.034826647
000160 74 b1 9d 3c 78 6a 7d bd 9b 3d 12 bd f1 a5 01 3c
       0.019249655 -0.061869115 -0.035703283 0.007913099
000170 ce df 3b 3d cf d2 69 3c e9 78 4a bc 52 2e ed 3c
       0.045867734 0.014271452 -0.012357929 0.028952751
000180 d9 ad 3d 3b 75 b1 97 3d e8 09 7a 3d 29 46 f2 3c
       0.0028942733 0.07406894 0.061044604 0.02957447
000190 b3 4a 1f 3d 0e da 3c 3d 70 30 8b bd fa 04 29 bd
       0.038889598 0.04610639 -0.06796348 -0.04126451
0001a0 1d d6 b8 3c c1 04 5b bd e1 62 7c 3d 8e 01 85 3c
       0.022563035 -0.05347133 0.061617736 0.016236093
0001b0 7f 44 49 bd fb 15 b0 bc 59 59 39 3d 94 d3 6e 3d
       -0.04913759 -0.021494856 0.045251224 0.058307245
0001c0 93 37 33 3d d9 be 4b 3d 2c 5b ae bc be 12 12 bd
       0.04375417 0.049742553 -0.021283709 -0.035662405
0001d0 0e 10 c7 bc 0c 12 fe 3c b3 15 3b bd 27 b2 7d bb
       -0.024299648 0.031014465 -0.04567499 -0.0038710923
0001e0 f6 74 8f bd ef 93 6c bd 1a 31 81 3d e3 3d 30 bd
       -0.070047304 -0.057758268 0.063081935 -0.04302777
0001f0 2f 20 80 3c d5 af e1 3b 9b 76 85 bd 71 a4 5f 3d
       0.015640346 0.006887416 -0.06516763 0.054600183
000200 30 50 05 bd 05 ea 51 bd f8 9b d5 bc 51 84 44 bd
       -0.032547176 -0.05124857 -0.026075348 -0.04797775
000210 ac 76 83 bd d9 04 33 3d a3 79 19 bd b8 ba 66 bd
       -0.06419119 0.043705795 -0.037469517 -0.056330413
000220 e8 3f 43 3c 83 4b 44 3d 95 4b 42 bd f8 c7 0e bd
       0.011917092 0.047923576 -0.047435362 -0.034858674
000230 ff d8 69 bc b0 12 5b bd 72 9b 2d bd 03 7b 45 bd
       -0.014272927 -0.05348462 -0.042384572 -0.048213016
000240 25 4b 1e bd a6 c0 0e bd 17 30 d5 bc ef 60 85 bc
       -0.038645882 -0.034851693 -0.026023908 -0.016281573
000250 1d 2a 1d 3d 32 10 17 3c cc 58 ac bc db 74 f9 bc
       0.03837024 0.00922017 -0.021038435 -0.030451229
000260 8b dd de bc c2 a4 20 3d 9d 78 86 3d 7a f9 2f bd
       -0.02720525 0.039219625 0.06565974 -0.04296253
000270 b5 ce 4d 3d 74 bf 91 3d f0 46 89 bd fa 01 eb bb
       0.05024596 0.07116595 -0.067029834 -0.0071718665
000280 5f 23 ee 3c 4c 7c 30 3d 0e 5b 28 bd b4 2d 49 3d
       0.0290696 0.04308729 -0.04110246 0.04911585
000290 e6 62 47 bd ba 40 fb bc 75 68 4e 3d 22 be 2f 3d
       -0.0486783 -0.030670512 0.050392587 0.042905934
0002a0 6b 3e 2d bd de d5 89 bd b2 10 25 3d 23 bc 17 3d
       -0.042295855 -0.06730245 0.040299125 0.037044656
0002b0 ec 9a 3d 3c ba 68 6d bc c9 06 8c 3d af 57 17 3d
       0.011572581 -0.014490301 0.06837232 0.036948856
0002c0 f1 a3 1e 3d 7a 4e 29 bd 8d cc 51 3d 5b e4 b1 3b
       0.038730565 -0.041334607 0.051220465 0.0054288334
0002d0 13 1e 8d 3c df ba 20 3d 88 46 0b bd be 99 34 3c
       0.017226255 0.039240714 -0.03400281 0.011022983
0002e0 31 d1 69 bd 1a 04 88 bd a7 90 63 3d ce 3d 3d bd
       -0.057084266 -0.06641407 0.055557873 -0.04620152
0002f0 a8 80 c0 bc d1 d7 90 bc 50 79 4d bd 72 ac 60 bd
       -0.023498848 -0.017681034 -0.05016452 -0.054851957
000300 af a5 10 bd 65 f3 c0 3b cf 35 73 bb e4 6d 8f 3b
       -0.03531426 0.00588839 -0.003711093 0.0043771137
000310 26 41 50 bd 04 de 24 bd a5 16 2d bd cc e9 dc bc
       -0.05084338 -0.040250793 -0.042257924 -0.026966952
000320 ae f6 7b 3c 78 c3 36 bc 48 1a 07 3d eb 3f 30 3d
       0.015378637 -0.011155002 0.032984048 0.043029707
000330 46 8b 00 3d f0 76 a9 bc d3 3e 27 3d ed 9c c9 3c
       0.03138282 -0.020686597 0.0408314 0.02461096
000340 21 7e e3 bb 52 c4 42 bd e7 bf 3a 39 fb 7c 9d bc
       -0.006942526 -0.047550507 0.00017809831 -0.019224634
000350 76 cd 15 3d f8 77 75 3d c0 6f b4 bc 3c 92 4e bd
       0.036572896 0.059928864 -0.022025943 -0.05043243
000360 c0 3c 2e bc 02 51 ae ba 8f 2e 83 3d 8a 74 21 bd
       -0.010634601 -0.0013299289 0.06405365 -0.03941778
000370 ca 64 40 bd f9 71 92 bd b6 87 5e 3d b2 48 81 bd
       -0.04697112 -0.07150645 0.054328643 -0.06312694
000380 83 a5 52 3d c7 45 67 bd 77 35 6c bd ba ab ba 3c
       0.051427376 -0.05646303 -0.057668176 0.022786964
000390 ba 4a 76 bc ad 0d 89 bd 57 fb 2c bd cb f1 5d bb
       -0.015032465 -0.066920616 -0.042231884 -0.0033866044
0003a0 0f b1 88 bd 23 c9 35 bb 59 f2 48 bd 72 8b 93 bc
       -0.06674396 -0.0027738295 -0.049059246 -0.018010829
0003b0 e7 b2 67 3d 28 aa 87 bd 96 46 36 bb 26 40 38 3d
       0.0565671 -0.066242516 -0.0027813069 0.04498305
0003c0 85 fb 69 3d 90 c5 67 bd bd 01 f1 3c 0e 2f 41 3d
       0.057124633 -0.056584895 0.029419774 0.047164015
0003d0 60 07 53 3c 63 09 28 b9 57 b1 6e 3c 75 fc 3e bc
       0.012880176 -0.00016025225 0.014568648 -0.01165687
0003e0 95 a6 4a 3d 22 ce 39 bc 97 f2 31 3d ac ce 3f 3d
       0.04947527 -0.01134065 0.043444242 0.046827957
0003f0 7b 1e 8e bc fb 6d 8e bd 56 88 73 3d db ea 2e bd
       -0.017348519 -0.06954571 0.059456192 -0.042704444

fc3.bias f4 [100]
000000 5d 5c 91 3d 1d ce 6c bd de 76 ea bc ac 7c 82 bc
       0.07097695 -0.057813752 -0.028621133 -0.015928589
000010 d7 f2 30 3d 1b e1 36 bd 47 58 d4 3d e1 08 0d 3a
       0.04320034 -0.04464827 0.103684 0.0005380046
000020 5b 5a 3e 3d 1d 10 a0 3c e6 e1 16 bd bf 1d af bc
       0.04647289 0.019538933 -0.036836527 -0.021376489
000030 ff e6 c5 3b 6c 3f 85 3d b8 c2 ef bc fa 6d 83 bc
       0.0060395 0.065062374 -0.029267654 -0.016043652
000040 db d5 20 bd 58 16 dd 3c 76 1f 11 3d 08 e0 5a bc
       -0.03926645 0.026988193 0.035430394 -0.013359077
000050 78 57 50 bd 8b 98 2f 3c 0b dd 87 3c 19 5e 48 3c
       -0.050864667 0.010717521 0.016584894 0.012229466
000060 e6 8c e1 bc d3 be 51 3d 18 e1 e3 3b bf 47 88 bc
       -0.027533006 0.051207375 0.0069543235 -0.016635774
000070 a0 bf 50 3a d5 df 79 3d 1d a2 d8 bb 24 19 51 3d
       0.00079631247 0.06100448 -0.0066111223 0.051049367
000080 37 df a7 3d be 94 86 3d b4 2b 85 bd cd 58 0f bd
       0.08196872 0.06571339 -0.06502476 -0.034996796
000090 b4 65 08 bc 30 ed 87 3d 1e 3c 54 bd 58 b2 69 3d
       -0.008325029 0.06637037 -0.051815145 0.057054847
0000a0 38 99 29 bd 09 b9 7c 3c 6d e1 97 bb 6d 40 2e bd
       -0.041405886 0.015424975 -0.004635027 -0.04254191
0000b0 0f 07 72 bc e8 aa 39 3d b0 ad 21 3d 1a e8 8f bd
       -0.014772191 0.045329005 0.039472282 -0.07026692
0000c0 8c f1 ed 3c 4c d3 1b 3d 2a f8 3b bd a0 83 f1 3c
       0.029045843 0.038043305 -0.045890965 0.029481709
0000d0 33 dc 2b bd d1 3c 23 bd 7c 07 f0 bc 56 5b 7a 3d
       -0.041958045 -0.03985292 -0.029300444 0.06112226
0000e0 0c 5a e3 3c c2 0e b7 3b c4 30 8e 3d ee f6 86 bc
       0.027752899 0.005586476 0.06942895 -0.016475167
0000f0 50 e0 86 3c 54 2a 1a 3d c1 3f 6e bd 4a 66 b4 3c
       0.016464382 0.037638023 -0.05816627 0.022021431
000100 7e f8 77 3c 93 7d 2e bd 86 14 73 3c 6e b4 75 bd
       0.015134929 -0.042600226 0.014836436 -0.059986524
000110 73 be 8d bd 54 d3 c0 3c 5d fd c9 bb 17 e0 b7 bc
       -0.06921091 0.02353827 -0.0061642365 -0.022445722
000120 74 19 ae bc 76 39 3b bd dd 81 89 3d d7 35 08 3d
       -0.021252371 -0.045709096 0.067142226 0.03325447
000130 8a bf b0 bc 56 df fa bc af b9 7f bb c0 76 96 bc
       -0.021575708 -0.030624073 -0.0039020588 -0.018367171
000140 61 93 8b bd 1e ca e4 bc d4 d1 80 3d ee 49 63 3d
       -0.0681522 -0.027928408 0.062900215 0.055490427
000150 84 89 34 3c 51 ed cb 3c c3 7a 65 3d b0 be 48 bd
       0.011019114 0.024893435 0.056025278 -0.04900998
000160 30 49 b0 bc d4 f4 1a bd 97 85 31 bd bb 11 1a 3d
       -0.021519274 -0.037831143 -0.04334029 0.037614565
000170 17 01 3c 3d e2 07 89 bd cd d3 bc bc f6 59 44 3d
       0.045899477 -0.06690957 -0.023050213 0.047937356
000180 45 bd 92 3d f8 90 14 bc e6 33 4d 3d da 0c cc 3c
       0.071650065 -0.009067766 0.050098322 0.024908472

fc7.weight f4 [1, 100]
000000 ca b4 b8 bd d6 a0 24 3d 62 28 a2 38 e8 75 bb bd
       -0.09018858 0.040192448 7.732284e-05 -0.09153348
000010 d2 d6 cb 3d 77 dd ac bd 00 54 f1 bd 46 b6 1d bd
       0.09953083 -0.084406786 -0.117836 -0.038503908
000020 d6 3d af bd af a9 52 bd 8e c1 bf bd 99 de 8c 3c
       -0.08556716 -0.051431354 -0.093630895 0.017195987
000030 6b 5f a7 3d 36 66 7e 3d eb 14 95 bd a6 68 98 3d
       0.081724964 0.062109195 -0.072793804 0.07441835
000040 4b 49 5c 3c 6f 0b f1 bc de ea 9f 3c 5f ba 27 3d
       0.013445209 -0.029424397 0.019521173 0.04094922
000050 80 ef d9 3c 41 f9 a2 3d 4d 73 aa 3d b0 38 98 3d
       0.02660346 0.07957698 0.08322773 0.07432687
000060 59 8b e9 bb c4 7d 16 bd 15 cd d2 bc db bc 34 3d
       -0.0071272072 -0.036741033 -0.025732556 0.04412542
000070 21 01 2c 3d af 9b 9c bc b9 c2 b2 3d b5 b4 28 bc
       0.041993264 -0.019117204 0.08728547 -0.01029699
000080 db b2 58 bd 8e c2 55 3d 18 fe 99 3c 13 27 72 bd
       -0.052904945 0.052187495 0.01879792 -0.059119295
000090 03 6f ac 3d 71 fe af bd c0 b9 ab 3d 40 c3 7c bd
       0.08419611 -0.08593453 0.083850384 -0.061709642
0000a0 0f da b0 3d 7e c8 b1 3d 7a 1c ca 3b 90 49 b8 bd
       0.086353414 0.08680819 0.0061679455 -0.08998406
0000b0 43 56 87 3d 2c be 8d 3d 5f e4 c0 3d 8c a9 c9 3d
       0.0660825 0.06921038 0.09418558 0.098467916
0000c0 d7 a1 2c 3d 40 b5 8a bd 97 bf 5f bd f4 18 55 bd
       0.04214653 -0.06772852 -0.054626074 -0.05202575
0000d0 f3 2c 13 3c e7 d8 a4 bd 38 a3 f0 3b 12 8c 93 3d
       0.008982885 -0.08049183 0.007343676 0.07204451
0000e0 ef f9 25 ba a9 64 05 3d 7f b5 e4 bd e0 65 3c 3d
       -0.00063314935 0.0325667 -0.1116743 0.045995593
0000f0 4a 96 ca 3d aa 4d 7c bd dd 87 50 bd 41 aa aa bb
       0.098919466 -0.061597504 -0.05091082 -0.005208284
000100 2a ae af 3d b3 73 a0 3d 94 fd a4 bd 0b d4 75 bd
       0.08578141 0.07834568 -0.08056179 -0.060016673
000110 89 57 cb 3d 85 09 3e bd d7 34 9c 3d 6f 4e 78 bd
       0.099288054 -0.046395797 0.07627266 -0.060621675
000120 9b 76 5f 3d a9 c5 7f 3d 5d f6 e3 3c 6f 6e af bd
       0.05455647 0.062444363 0.027827436 -0.085659854
000130 46 d0 87 bd 5c aa ec bc 38 e4 60 3d f6 b0 57 bd
       -0.06631522 -0.028889827 0.054905146 -0.052658997
000140 30 05 5e bd d4 45 b6 3c 9a d7 72 bd 01 ff 78 bd
       -0.054204166 0.022250094 -0.059287645 -0.060790066
000150 77 0e 8d bd 51 6e d4 bc f3 e1 98 3d b1 48 18 3d
       -0.068875246 -0.02593151 0.074649714 0.0371787
000160 b3 25 87 3c 99 32 8b bd 08 a6 0c bd f5 d9 ab 3d
       0.016497469 -0.0679676 -0.034338027 0.083911814
000170 03 c3 ad bd 4b 21 a4 bd 49 22 67 bd be a5 76 3d
       -0.08484461 -0.08014163 -0.05642918 0.060216658
000180 a5 c7 63 bd 00 56 8a bd 02 9a c4 bc b6 bf 35 3b
       -0.055610318 -0.067546844 -0.023999218 0.0027732677
