Amos/Z08.pth (torch, 185583 bytes, 7 tensors)

fc1.weight f4 [100, 52]
0.0994927 0.056012947 -0.0357967 0.11072122 -0.11650785 0.055085886 0.1056541 0.052231263
0.054408506 0.043533485 -0.020350015 0.07492943 -0.07400964 0.058016453 -0.07125477 0.12470174
0.10706747 0.033671424 0.13919836 -0.11745963 0.08029755 0.00826072 0.112792306 0.12486056
-0.12000524 -0.14697017 0.07438471 -0.132023 0.13280813 0.12590298 -0.029556436 -0.13101852
0.0021357578 0.11263013 -0.10615146 0.084027626 0.044324562 0.0433355 0.011187752 -0.061414655
-0.034014355 -0.05218038 -0.13590422 -0.08467063 0.13166802 0.06999255 0.058538653 0.1307339
-0.08119623 0.10792707 -0.1297909 0.124918215 0.1093648 0.1286377 0.10033624 0.01491594
-0.040699985 -0.1293213 -0.0709444 -0.0053204396 -0.014936588 0.09980234 -0.041298952 -0.046467848
-0.0087026125 0.077610016 -0.05265116 0.009618599 0.00873976 0.044213288 -0.05047463 -0.07237209
-0.046674762 -0.05991985 0.10231794 0.09361615 -0.09084499 -0.11902216 -0.08233562 0.10602806
-0.072673544 -0.07924421 -0.12273363 0.11386372 0.09808748 0.017388701 0.06538805 -0.02074361
-0.01603034 -0.14108181 0.03400324 0.035479728 0.10679834 -0.037497953 0.07043444 0.080471136
0.009286168 0.016444622 0.05663534 0.084254794 -0.05654133 -0.065121025 0.036503803 -0.011951425
0.011065703 -0.09483639 -0.10040699 -0.054069117 0.061668955 -0.088828094 -0.025195884 0.10461319
0.0079249265 -0.057973705 0.0189776 -0.05303183 0.009995755 -0.084673725 0.004340535 0.11284477
-0.13003539 0.11689885 0.034761585 -0.051878195 -0.094734445 0.047762547 0.12806776 0.040184505
0.011153783 0.10078793 -0.048040695 0.13485676 0.081375375 -0.118390985 -0.12393334 0.13435537
0.023058778 -0.01088697 0.11521061 -0.032495517 0.11480783 -0.08919258 -0.12917499 -0.05957106
-0.106172934 -0.09774756 -0.06285165 0.06892637 -0.008546129 0.083304405 0.124488965 0.12735265
-0.004049583 -0.12982246 -0.105491824 0.12684311 -0.10848157 0.102386534 -0.022721646 0.12995405
0.042207003 -0.046057403 0.10380844 0.003535824 -0.10963328 -0.11661145 0.027602207 0.067170456
-0.023182023 -0.08604556 -0.023123408 -0.12604807 -0.06708744 -0.071696445 0.10412757 -0.12382194
0.026712574 0.11220937 0.044762824 -0.027012287 0.065050445 0.013923729 0.03514045 0.08505228
7.390902e-05 0.029763058 0.12109011 -0.04937697 -0.025532786 -0.078019105 -0.08628171 -0.05586067
-0.0973366 0.0619222 -0.040903855 -0.034235135 0.051421557 0.11266083 0.111645445 0.08280036
-0.06336962 0.116387114 0.040448412 0.060566664 -0.003763389 0.07273565 0.12525904 -0.10709463
0.12263737 0.09564699 -0.05804914 0.086703114 -0.0756486 -0.027739642 0.084755324 -0.068451166
0.010555302 -0.12620091 0.016847339 -0.062743545 -0.074539945 -0.09211813 -0.00074783375 0.09290656
0.069908924 -6.458319e-05 -0.05381669 -0.11711591 -0.08424997 0.07681471 0.033719603 -0.08130723
0.06641715 0.07687889 0.052090764 -0.07804019 0.13104379 0.059762985 -0.12971206 -0.12590136
0.12398069 0.11906052 -0.068888515 -0.021516677 -0.08281817 -0.13112773 -0.12939344 -0.066074185
-0.12003823 0.07283739 -0.10748159 0.090057455 0.11323155 0.008347277 0.004347562 -0.013218168
00000000: d4c2 cb3d d56d 653d 8f9f 12bd cfc1 e23d
00000010: ab9b eebd bda1 613d 2d61 d83d 73f0 553d
00000020: 74db 5e3d 2b50 323d 13b5 a6bc 9a74 993d
00000030: 5e92 97bd a9a2 6d3d 05ee 91bd a063 ff3d
00000040: 3146 db3d 0ceb 093d 048a 0e3e ad8e f0bd
00000050: 0b73 a43d f957 073c a7ff e63d e5b6 ff3d
00000060: 4fc5 f5bd 597f 16be 0357 983d 0a31 07be
00000070: dbfe 073e b6ec 003e 5720 f2bc b829 06be
00000080: 12f8 0b3b a0aa e63d f065 d9bd ad16 ac3d
00000090: ac8d 353d 9180 313d d54c 373c ef8d 7bbd
000000a0: a352 0bbd 18bb 55bd 7a2a 0bbe cc67 adbd
000000b0: fbd3 063e 4158 8f3d 3ac6 6f3d 1cdf 053e
000000c0: 364a a6bd de08 dd3d e8e7 04be 1fd5 ff3d
000000d0: a7fa df3d 9ab9 033e 167d cd3d fd61 743c
000000e0: 07b5 26bd ce6c 04be 4c4b 91bd 1557 aebb
000000f0: 97b8 74bc 2b65 cc3d 1729 29bd 1255 3ebd
00000100: 6795 0ebc 00f2 9e3d bea8 57bd 5497 1d3c
00000110: 3631 0f3c fe18 353d 7cbe 4ebd d137 94bd
00000120: 092e 3fbd 846e 75bd 118c d13d d3b9 bf3d
00000130: f00c babd e4c1 f3bd 949f a8bd 3d25 d93d
00000140: ded5 94bd ca4a a2bd c55b fbbd 6231 e93d
00000150: 17e2 c83d c072 8e3c 2cea 853d 81ee a9bc
00000160: 0f52 83bc c077 10be fb46 0b3d 3153 113d
00000170: 17b9 da3d 7497 19bd ef3f 903d 0dce a43d
00000180: 0325 183c dfb6 863c 75fa 673d c78d ac3d
00000190: e297 67bd 2c5e 85bd 0385 153d e9cf 43bc
000001a0: ec4c 353c 9539 c2bd 2ea2 cdbd 9477 5dbd
000001b0: 9698 7c3d 81eb b5bd 9967 cebc 713f d63d
000001c0: 8dd7 013c d675 6dbd e976 9b3c e737 59bd
000001d0: 3cc5 233c 6b69 adbd 0c3b 8e3b 291b e73d
000001e0: ff27 05be aa68 ef3d 2a62 0e3d 3b7e 54bd
000001f0: 2204 c2bd a9a2 433d 3224 033e 8298 243d
00000200: 5bbe 363c e769 ce3d 52c6 44bd e417 0a3e
00000210: 22a8 a63d f976 f2bd c3d0 fdbd 7494 093e
00000220: c3e5 bc3c 435f 32bc 8af3 eb3d 051a 05bd
00000230: 5e20 eb3d 99aa b6bd 7346 04be c900 74bd
00000240: 3271 d9bd df2f c8bd 5eb8 80bd 4529 8d3d
00000250: 1005 0cbc 809b aa3d 12f4 fe3d bc68 023e
00000260: 5db2 84bb 2ef0 04be 190c d8bd 29e3 013e
00000270: 962b debd 08b0 d13d bf22 babc ad12 053e
00000280: 40e1 2c3d b0a6 3cbd 8599 d43d 48b9 673b
00000290: 6a87 e0bd fcd1 eebd 061e e23c aa90 893d
000002a0: 3ae8 bdbc a838 b0bd 4d6d bdbc bf12 01be
000002b0: 2465 89bd 96d5 92bd d640 d53d 5b96 fdbd
000002c0: 54d4 da3c 07ce e53d 3959 373d df48 ddbc
000002d0: 2b39 853d 5a20 643c 6fef 0f3d e42f ae3d
000002e0: 9aff 9a38 a8d1 f33c 17fe f73d 813f 4abd
000002f0: 222a d1bc 7bc8 9fbd 77b4 b0bd 28ce 64bd
00000300: 6958 c7bd 22a2 7d3d cd8a 27bd 243a 0cbd
00000310: 699f 523d b9ba e63d 5ea6 e43d 3c93 a93d
00000320: eec7 81bd 5e5c ee3d 3cad 253d c014 783d
00000330: 31a3 76bb 6ef6 943d e843 003e 6e54 dbbd
00000340: 4d29 fb3d 92e2 c33d efc4 6dbd 6791 b13d
00000350: a7ed 9abd 3f3e e3bc 3394 ad3d 2030 8cbd
00000360: 25f0 2c3c d03a 01be 6e03 8a3c b07f 80bd
00000370: 66a8 98bd 6ea8 bcbd 460a 44ba cb45 be3d
00000380: 692c 8f3d d670 87b8 e46e 5cbd 77da efbd
00000390: 408b acbd 0851 9d3d 911d 0a3d 6884 a6bd
000003a0: b705 883d ae72 9d3d 205d 553d 89d3 9fbd
000003b0: 5830 063e 08ca 743d 3dd3 04be 49ec 00be
000003c0: 97e9 fd3d 00d6 f33d 6c15 8dbd be43 b0bc
000003d0: 939c a9bd 5946 06be b77f 04be e751 87bd
000003e0: 9bd6 f5bd c52b 953d 4f1f dcbd 0b70 b83d
000003f0: f1e5 e73d 04c3 083c fe75 8e3b 0491 58bc

fc1.bias f4 [100]
0.038281307 -0.13019335 -0.10463669 0.041634455 0.086763434 0.099019215 -0.021675462 0.048598804
-0.12721343 0.13168943 -0.04062695 0.023977654 0.026005214 -0.13854839 -0.070069715 -0.030037064
-0.042385045 -0.0659804 0.08847923 -0.06740378 -0.041106414 0.073189914 0.13475488 0.099732526
0.024633875 -0.10581506 0.05047752 -0.12042954 0.10639137 0.061853003 -0.12798662 0.026103701
0.111586444 0.11507916 0.1058606 -0.06952193 -0.0061901608 0.059223734 -0.095323704 -0.0035089029
-0.04971607 -0.10299999 0.12733516 -0.080953196 -0.1123391 -0.1394159 0.12778082 -0.0452634
0.012763965 -0.03342948 0.1325818 -0.084506266 -0.05734583 -0.012658525 0.009457643 -0.088396266
0.044615474 -0.08991621 -0.07124607 0.055867564 -0.0708796 0.104351975 -0.1252551 -0.052803196
0.058072887 -0.00993333 0.089565456 0.010319682 -0.067042135 0.13001183 -0.045377426 0.06433771
0.022497818 0.04629725 -0.027418993 -0.13044739 0.05373726 0.086026214 0.09318502 0.13790901
-0.13296725 0.06902964 0.13242608 0.12166323 -0.08509717 0.13856764 0.122113496 -0.13728282
-0.07575412 -0.05391665 0.018451093 0.073973835 0.002648572 0.027982587 0.050271165 0.015304255
0.06236319 0.14448427 0.051481064 0.10998909
00000000: dccc 1c3d 6851 05be c34b d6bd e488 2a3d
00000010: 07b1 b13d 96ca ca3d bd90 b1bc 8a0f 473d
00000020: 3d44 02be 98d9 063e 7268 26bd c96c c43c
00000030: e308 d53c a1df 0dbe b680 8fbd 4a10 f6bc
00000040: f19b 2dbd bb20 87bd 9934 b53d fe0a 8abd
00000050: 335f 28bd 98e4 953d 2ffd 093e 9140 cc3d
00000060: fbcc c93c 91b5 d8bd 84c1 4e3d c3a3 f6bd
00000070: b8e3 d93d 9359 7d3d ed0e 03be 6ed7 d53c
00000080: 6f87 e43d 9fae eb3d 71cd d83d 8361 8ebd
00000090: d5d6 cabb 9694 723d 1339 c3bd 9ff5 65bb
000000a0: 14a3 4bbd a9f1 d2bd 2664 023e caca a5bd
000000b0: 0b12 e6bd 0bc3 0ebe fad8 023e 1d66 39bd
000000c0: f31f 513c 5aed 08bd 86c3 073e 9f11 adbd
000000d0: 76e3 6abd b465 4fbc 3bf4 1a3c 1a09 b5bd
000000e0: b7be 363d fd25 b8bd 76e9 91bd 63d5 643d
000000f0: 5329 91bd 7db6 d53d df42 00be 2a48 58bd
00000100: d6dd 6d3d 68bf 22bc 186e b73d e213 293c
00000110: 634d 89bd d221 053e aedd 39bd 7dc3 833d
00000120: 584d b83c 2fa2 3d3d cc9d e0bc 0094 05be
00000130: 9a1b 5c3d 832e b03d cad7 be3d 0538 0d3e
00000140: 9128 08be 695f 8d3d b49a 073e 922a f93d
00000150: 6d47 aebd ade4 0d3e a416 fa3d de93 0cbe
00000160: fa24 9bbd b5d7 5cbd bf26 973c 987f 973d
00000170: aa93 2d3b bd3b e53c 23e9 4d3d b3be 7a3c
00000180: 8b70 7f3d aff3 133e cfdd 523d f641 e13d

fc2.weight f4 [200, 100]
0.049361568 0.0029581462 -0.017502526 0.037878323 0.06352656 -0.037341885 0.08052501 -0.087695315
0.07753972 -0.006107686 -0.025958039 0.023309866 0.0817288 0.020395497 -0.051177375 0.059852615
-0.09635673 0.05087059 -0.05661906 -0.061489105 0.091617435 -0.06846532 0.03828873 -0.011274699
0.026783146 0.06912458 -0.045270838 -0.07738404 -0.064949945 -0.014929061 0.07828065 0.0467129
-0.02371717 -0.050598457 -0.09179286 0.041143507 -0.030414617 -0.009469971 -0.08354792 0.08273726
-0.09871966 -0.014623324 -0.040031653 -0.0008035794 -0.092919305 0.024991337 0.022081163 0.096647575
-0.06669348 -0.054255404 -0.083202355 -0.0015681349 0.08560056 -0.09042106 -0.072856665 0.04933314
-0.037590634 0.055097144 -0.07566034 -0.079531014 -0.0272721 -0.08246681 0.05316474 -0.04940215
0.045208756 -0.03929551 -0.09874556 -0.052353512 -0.013943677 -0.0648654 0.08974636 -0.034106217
-0.09347679 -0.066431925 0.022569628 -0.063238606 -0.017354961 0.05781991 -0.07134012 -0.0609334
-0.024713518 0.0023931644 -0.0015905899 -0.036589097 -0.09086285 -0.043698877 -0.02070364 -0.048013996
-0.055694208 0.015525353 0.0029244053 0.0012164414 -0.09707989 -0.0967802 -0.048957575 0.08874004
-0.09646821 -0.07912907 -0.07551822 -0.08053087 0.00029800436 0.013952758 -0.049870733 -0.019683965
-0.07562377 -0.06602099 0.08184822 0.09296463 0.058076527 0.060818322 -0.0007978739 -0.079461716
0.054933686 0.06648922 -0.06461566 -0.08972211 -0.096763544 0.010429434 -0.08991962 0.056754827
-0.09597328 -0.065962635 -0.078489706 -0.099411204 -0.02208051 0.045823205 0.08851318 0.011435187
-0.03733859 0.078831755 0.025213301 0.034043774 -0.020614838 -0.007432532 0.075775504 -0.002602023
-0.018819988 0.026181843 -0.0393823 -0.06555464 -0.054472383 0.028668616 -0.07750294 -0.0037755975
0.069458865 -0.049683653 -0.081536986 -0.0105452975 0.08456313 0.057853606 -0.016804038 0.06501795
0.057740048 0.06673696 0.020439385 -0.024939628 -0.008577529 0.053993803 -0.0039292034 -0.031809114
0.07351432 0.09382258 -0.041011333 -0.03859257 -0.05885528 -0.07141056 0.06108183 0.083923325
0.012957391 -0.013407368 0.08793389 -0.06188582 0.041052688 0.06615422 0.011421352 0.022549847
-0.09884804 0.023489295 -0.0847501 0.0627599 -0.0017498418 0.041984465 0.08524003 0.09407058
0.018268315 0.022594623 0.02618196 0.018322434 -0.028736567 -0.06757376 0.0073616537 -0.027587468
0.04214508 -0.031557202 -0.011951453 0.097449444 0.014584862 0.052355442 0.027510852 -0.017090058
0.065871395 0.0761417 -0.09833021 -0.0948122 0.07948407 -0.021174222 -0.050948076 -0.03553749
-0.0076223854 0.04743665 -0.07692269 0.088816434 -0.027886234 -0.07443957 -0.005194709 -0.062349074
0.058629576 -0.0671732 0.046404358 -0.040185187 0.09992821 0.031703398 -0.072656944 -0.06482849
0.03984859 -0.022753706 0.07664964 -0.06261031 0.028601049 0.08398296 0.062461525 0.01969197
-0.07550799 -0.010303377 0.088187754 0.07610779 -0.016705774 0.08795641 0.07012215 -0.044757437
0.026493663 0.02138402 0.08557401 0.09405856 0.09115089 -0.046460643 -0.019944137 -0.021165967
-0.06798959 0.09790542 0.0005385547 0.07116044 0.05422337 -0.07340281 0.0082513625 0.028438412
00000000: 5b2f 4a3d 75dd 413b 7561 8fbc 4d26 1b3d
00000010: 371a 823d cef3 18bd 4cea a43d 9a99 b3bd
00000020: 25cd 9e3d fc22 c8bb f4a5 d4bc 55f4 be3c
00000030: 6e61 a73d 7514 a73c 5e9f 51bd 0428 753d
00000040: ad56 c5bd ae5d 503d 63e9 67bd 00dc 7bbd
00000050: eca1 bb3d 8c37 8cbd a5d4 1c3d 84b9 38bc
00000060: 5468 db3c 3091 8d3d ea6d 39bd 867b 9ebd
00000070: 7a04 85bd 0599 74bc 9b51 a03d 0756 3f3d
00000080: 834a c2bc 5440 4fbd e5fd bbbd 1886 283d
00000090: 1328 f9bc f027 1bbc 2c1b abbd 2772 a93d
000000a0: 882d cabd ab96 6fbc 3bf8 23bd 4da7 52ba
000000b0: 7a4c bebd a2ba cc3c 8ee3 b43c 2aef c53d
000000c0: 9796 88bd ea3a 5ebd ff65 aabd e089 cdba
000000d0: 594f af3d ad2e b9bd e035 95bd 8c11 4a3d
000000e0: a3f8 19bd 8bad 613d cff3 9abd 28e1 a2bd
000000f0: bd69 dfbc 5ce4 a8bd 45c3 593d e959 4abd
00000100: d12c 393d 54f4 20bd 1d3b cabd a370 56bd
00000110: 0574 64bc 27d8 84bd f1cc b73d f6b2 0bbd
00000120: c270 bfbd 760d 88bd f1e3 b83c 3e83 81bd
00000130: fe2b 8ebc 92d4 6c3d c51a 92bd 4d95 79bd
00000140: 0174 cabc a3d6 1c3b 577b d0ba 73de 15bd
00000150: 4d16 babd 98fd 32bd ae9a a9bc 53aa 44bd
00000160: 9c1f 64bd 0d5e 7e3c 61a7 3f3b 0071 9f3a
00000170: d2d1 c6bd b334 c6bd bd87 48bd 57bd b53d
00000180: 2091 c5bd 6c0e a2bd 4ca9 9abd 5eed a4bd
00000190: 783d 9c39 1c9a 643c 4145 4cbd 4440 a1bc
000001a0: a3e0 9abd 0336 87bd 0aa0 a73d 3d64 be3d
000001b0: a7e1 6d3d a21c 793d 6928 51ba d3bc a2bd
000001c0: 2502 613d 802b 883d 3755 84bd 3ac0 b7bd
000001d0: f72b c6bd 37e0 2a3c c727 b8bd c077 683d
000001e0: a48d c4bd 6b17 87bd 36bf a0bd 1a98 cbbd
000001f0: 30e2 b4bc 1db1 3b3d 6646 b53d a75a 3b3c
00000200: 59f0 18bd 8b72 a13d 208c ce3c 7c71 0b3d
00000210: 73e0 a8bc 998c f3bb 3030 9b3d b486 2abb
00000220: 602c 9abc 4e7b d63c 564f 21bd 8341 86bd
00000230: 6f1e 5fbd 72da ea3c ddb9 9ebd 0470 77bb
00000240: 7340 8e3d 1681 4bbd ddfc a6bd 2fc6 2cbc
00000250: 6f2f ad3d e7f7 6c3d 9fa8 89bc 2228 853d
00000260: d480 6c3d 63ad 883d 7f70 a73c 314e ccbc
00000270: c488 0cbc 9b28 5d3d 8cc0 80bb 464a 02bd
00000280: ad8e 963d 0e26 c03d 80fb 27bd 3e13 1ebd
00000290: 3c12 71bd b33f 92bd f130 7a3d fedf ab3d
000002a0: 3d4b 543c 94aa 5bbc af16 b43d fc7b 7dbd
000002b0: dd26 283d dd7b 873d 9f20 3b3c 75ba b83c
000002c0: d770 cabd 9f6c c03c 7691 adbd 4388 803d
000002d0: f35a e5ba e7f7 2b3d 5392 ae3d 14a8 c03d
000002e0: 6fa7 953c 5c18 b93c 8d7b d63c ee18 963c
000002f0: f368 ebbc 1d64 8abd 073a f13b 1dff e1bc
00000300: 52a0 2c3d 2042 01bd 07d0 43bc 9393 c73d
00000310: 58f5 6e3c a972 563d 705e e13c 7300 8cbc
00000320: 95e7 863d 2ef0 9b3d 5961 c9bd e62c c2bd
00000330: 8bc8 a23d 9075 adbc eeae 50bd c28f 11bd
00000340: 34c5 f9bb ef4c 423d a589 9dbd 64e5 b53d
00000350: ac71 e4bc c673 98bd 6138 aabb be61 7fbd
00000360: 9125 703d 1a92 89bd 7f12 3e3d 3999 24bd
00000370: 29a7 cc3d 6cdb 013d 2acd 94bd cdc4 84bd
00000380: 4638 233d fb65 babc 7dfa 9c3d d639 80bd
00000390: bf4c ea3c 42ff ab3d a8d7 7f3d 0e51 a13c
000003a0: efa3 9abd 7fcf 28bc c89b b43d 67de 9b3d
000003b0: 8cda 88bc 7e22 b43d 349c 8f3d 9353 37bd
000003c0: 3d09 d93c 8a2d af3c 6d41 af3d c6a1 c03d
000003d0: 51ad ba3d 844d 3ebd e361 a3bc 4064 adbc
000003e0: 203e 8bbd a382 c83d cb2d 0d3a 91bc 913d
000003f0: 5319 5e3d 3654 96bd b930 073c acf7 e83c

fc2.bias f4 [200]
0.09045283 -0.09623791 -0.08922255 0.07572961 0.016740358 -0.023375059 0.090690576 -0.029913101
0.08637116 0.062766165 -0.04246878 0.032422468 -0.028821796 -0.015292695 -0.027797632 -0.049802113
0.024848364 0.090376705 -0.040386096 0.04409451 -0.008839969 0.017960574 0.01817265 -0.030453334
0.011143653 -0.0071760607 -0.026865905 0.01858841 -0.09222304 0.023785014 0.018156031 0.015592614
0.020316666 0.02416492 0.04772509 0.0019634103 0.04722102 0.09883238 0.060248233 0.050522882
0.055442885 0.013794518 0.03149899 -0.066917576 0.023774657 0.053137384 0.06439102 0.0736884
-0.044223096 0.0070467666 0.03472714 0.045772698 -0.022434592 -0.007211087 0.07816624 0.046763275
0.092716575 0.039255407 0.01364477 -0.07194042 -0.029473063 -0.06729386 0.029411921 0.044093337
0.01763722 0.014426946 0.029829456 0.068436414 -0.030886877 0.042035148 -0.059707157 -0.09555531
-0.009273512 -0.041991364 0.003343188 0.072329015 0.050336745 0.042811383 -0.07885783 -0.035326038
-0.098880276 0.07568916 0.018754428 0.01760394 -0.01616438 -0.028199894 -0.020596143 -0.024906667
0.07709773 -0.08560369 -0.03582347 0.0240773 -0.026724806 0.088723846 -0.09312386 0.024175944
-0.019715669 -0.010396318 -0.06528251 0.029635198 0.08322866 0.0072553097 -0.0018004236 -0.016300313
-0.07789853 0.0023985223 -0.024782613 -0.06766741 0.043547053 -0.08683225 -0.09597138 -0.062949575
-0.023641534 -0.0470371 0.06983545 -0.09134528 0.00029472145 0.057925183 -0.061241236 0.102633394
-0.00014763689 0.027492033 0.006684191 0.057112943 0.0675787 -0.083700866 -0.03292392 0.08567861
-0.049491752 -0.023664752 0.017114028 0.055074938 -0.08093143 0.09508144 -0.05611602 -0.05235571
-0.0030512505 0.011365003 -0.015903383 -0.022175636 -0.04837262 0.067335546 0.017803645 0.060731612
0.09499479 0.095673986 0.06224374 0.08313923 -0.07306324 -0.0506932 -0.06918538 0.02412513
0.077795796 -0.022946049 -0.095502175 -0.09273076 0.023512915 -0.011578647 -0.088537 -0.03791251
0.0070739957 0.060957067 0.064879656 -0.0006074625 -0.0007990887 0.07490376 -0.04870758 -0.018949376
-0.050413847 -0.044598043 0.020873854 -0.020191403 0.09946247 0.06756633 0.039023466 0.036203835
0.08283907 0.019187417 0.029535891 -0.017793719 0.085652 0.08008859 0.0712398 0.07427268
-0.03274131 0.024107333 -0.07740541 0.066364735 -0.03174582 0.05208547 0.06982797 -0.026370794
-0.05874441 -0.012007243 -0.06515471 0.08774074 0.04544025 -0.056609303 -0.06851053 -0.0738452
00000000: 553f b93d 6218 c5bd 50ba b6bd 2018 9b3d
00000010: 1323 893c 0d7d bfbc fbbb b93d 520c f5bc
00000020: 5de3 b03d 8c8b 803d bef3 2dbd 6ccd 043d
00000030: b01b ecbc 368e 7abc dcb7 e3bc 4dfd 4bbd
00000040: cc8e cb3c 6c17 b93d e46b 25bd 729c 343d
00000050: 84d5 10bc 0e22 933c cfde 943c 4579 f9bc
00000060: de93 363c 2925 ebbb e315 dcbc b946 983c
00000070: 6fdf bcbd cad8 c23c f5bb 943c 2a78 7f3c
00000080: 236f a63c 83f5 c53c 627b 433d 8fac 003b
00000090: d46a 413d a168 ca3d dac6 763d 15f1 4e3d
000000a0: 1418 633d 6702 623c 1605 013d 150c 89bd
000000b0: 12c3 c23c 96a6 593d 70df 833d f2e9 963d
000000c0: 4723 35bd 90e8 e63b 0c3e 0e3d 277c 3b3d
000000d0: c0c8 b7bc fb4a ecbb 9f15 a03d d98a 3f3d
000000e0: 30e2 bd3d 47ca 203d 508e 5f3c 8055 93bd
000000f0: 7e71 f1bc 5dd1 89bd 45f1 f03c 379b 343d
00000100: ee7b 903c ff5e 6c3c e75c f43c 6428 8c3d
00000110: 7a06 fdbc 0c2d 2c3d 7e8f 74bd 81b2 c3bd
00000120: eeef 17bc 23ff 2bbd 6319 5b3b 3c21 943d
00000130: e72d 4e3d fd5a 2f3d 3780 a1bd 09b2 10bd
00000140: be81 cabd eb02 9b3d e3a2 993c 2336 903c
00000150: 296b 84bc 7703 e7bc 3eb9 a8bc 1109 ccbc
00000160: 6ae5 9d3d fd50 afbd a2bb 12bd c23d c53c
00000170: fbed dabc d9b4 b53d b9b7 bebd a10c c63c
00000180: c182 a1bc 5155 2abc d6b2 85bd 84c5 f23c
00000190: ca73 aa3d f3bd ed3b 31fc ebba 3c88 85bc
000001a0: 4489 9fbd 8730 1d3b e804 cbbc 3695 8abd
000001b0: 655e 323d 1bd5 b1bd a58c c4bd b5eb 80bd
000001c0: e4ab c1bc f9a9 40bd e305 8f3d 3c13 bbbd
000001d0: d884 9a39 f542 6d3d 17d8 7abd 7531 d23d
000001e0: face 1ab9 f936 e13c 0f07 db3b 43ef 693d
000001f0: b466 8a3d 5c6b abbd 3bdb 06bd 4478 af3d
00000200: ddb7 4abd 95dc c1bc b832 8c3c 4296 613d
00000210: 61bf a5bd 0fba c23d e9d9 65bd f172 56bd
00000220: 7df7 47bb 4734 3a3c d047 82bc aea9 b5bc
00000230: 5e22 46bd 38e7 893d f3d8 913c b6c1 783d
00000240: a18c c23d b9f0 c33d 4bf3 7e3d e744 aa3d
00000250: 2ea2 95bd aca3 4fbd 11b1 8dbd 11a2 c53c
00000260: 6753 9f3d 5af9 bbbc a596 c3bd a0e9 bdbd
00000270: 289e c03c 5eb4 3dbc e352 b5bd 264a 1bbd
00000280: facc e73b 1eae 793d a0df 843d 1e3e 1fba
00000290: ef79 51ba 2467 993d 9981 47bd b93b 9bbc
000002a0: c07e 4ebd 70ac 36bd a5ff aa3c 7168 a5bc
000002b0: fbb2 cb3d 3760 8a3d 12d7 1f3d 794a 143d
000002c0: 88a7 a93d ee2e 9d3c 41f5 f13c 22c4 91bc
000002d0: 516a af3d 7d05 a43d 2ce6 913d 461c 983d
000002e0: c01b 06bd be7c c53c ba86 9ebd 3cea 873d
000002f0: e807 02bd 9357 553d f701 8f3d 9007 d8bc
00000300: fa9d 70bd 07ba 44bc d56f 85bd 6bb1 b33d
00000310: 8e1f 3a3d 28df 67bd 404f 8cbd 273c 97bd

fc3.weight f4 [100, 200]
0.03849429 0.044565104 0.036262576 -0.03403528 0.055040076 0.015116031 0.058522854 0.0057570753
-0.025910825 0.0055106427 -0.011169405 -0.010333545 -0.020922529 0.0132515 0.043629885 0.046499368
0.050309725 0.07362323 -0.026104778 -0.0075931023 0.008586122 0.02244174 0.021078905 -0.023929171
-0.016043311 -0.021634566 -0.059509765 0.044514127 0.014228671 0.058755692 -0.055859335 -0.03177001
0.023744492 -0.05839933 -0.022771249 -0.05882169 -0.06799223 -0.06225621 -0.032402582 0.014554477
0.037722826 0.025597682 0.04109597 -0.00996464 0.03413368 0.06626225 0.017760213 0.0620986
0.036563776 0.07337034 -0.063753985 -0.031482894 -0.0115148015 0.06393621 -0.059706904 0.007338495
-0.016644677 0.021842146 -0.052598063 -0.01453153 0.058163185 -0.06505525 0.026830101 -0.053763665
0.006216661 0.05758237 -0.03161477 0.053623445 -0.0046419995 -0.024676507 -0.026528426 0.002042905
-0.065076366 -0.063928775 -0.057203975 -0.009494268 0.018878257 -0.009504839 -0.044592354 -0.045617845
-0.022886885 0.043494403 0.04789133 0.07149455 0.0103786355 0.014227463 -0.011393079 0.034920428
0.018321142 -0.061818466 -0.035417117 0.008145382 0.046409518 0.014480984 -0.012397469 0.029447244
0.00259393 0.07510572 0.061252303 0.030408904 0.04090023 0.044925373 -0.06867161 -0.03959229
0.022648374 -0.051875908 0.061962776 0.016246123 -0.049701884 -0.021415673 0.043794103 0.059199106
0.043609697 0.050345372 -0.021530591 -0.035737112 -0.024264658 0.031335894 -0.042950254 -0.003915198
-0.070177525 -0.05914497 0.06272959 -0.041267112 0.015777128 0.007926037 -0.065056846 0.05456146
-0.033518665 -0.052515734 -0.025413863 -0.048057027 -0.06516167 0.04253349 -0.036657497 -0.056202125
0.012819693 0.048404206 -0.048015717 -0.034400318 -0.01439595 -0.05517895 -0.042848386 -0.047496744
-0.0390926 -0.033825066 -0.026783198 -0.015168282 0.038251463 0.007249807 -0.020695738 -0.030328441
-0.02788301 0.037911728 0.0659823 -0.04281878 0.048760623 0.071569666 -0.066755444 -0.006886509
0.028826969 0.041023687 -0.042187802 0.04782226 -0.048906222 -0.028035125 0.05073378 0.042304534
-0.04209776 -0.0672594 0.039389297 0.03722124 0.011537156 -0.012872767 0.06674159 0.038101833
0.037794136 -0.040639043 0.0508616 0.0051486613 0.016666427 0.03903779 -0.03448094 0.011155761
-0.057545718 -0.06637577 0.055789184 -0.045482367 -0.023461957 -0.016997023 -0.049981095 -0.055317722
-0.035521533 0.0039065364 -0.0033351274 0.004440172 -0.05110628 -0.04122073 -0.04217697 -0.024844097
0.015409593 -0.011077025 0.03326632 0.042894535 0.031298067 -0.02114928 0.040439725 0.024672596
-0.006591358 -0.047671147 0.0001421161 -0.019287879 0.036522318 0.060243946 -0.021941448 -0.05036483
-0.010496465 -0.0013103425 0.06321029 -0.039721884 -0.04731502 -0.071570225 0.05439791 -0.06328016
0.05098792 -0.05645739 -0.057604287 0.022474907 -0.015076142 -0.066847816 -0.04286608 -0.0034598142
-0.06656714 -0.0029094468 -0.048952524 -0.018125525 0.056484632 -0.06641393 -0.0031077168 0.04513514
0.05587648 -0.05615388 0.029458107 0.0472292 0.013200351 0.0001233215 0.014247645 -0.012374954
0.049625464 -0.01204368 0.043398 0.04669944 -0.017662672 -0.06966708 0.05900508 -0.042566024
00000000: 30ac 1d3d e689 363d 1188 143d 9468 0bbd
00000010: b471 613d 3ba9 773c a9b5 6f3d d9a5 bc3b
00000020: f042 d4bc 9f92 b43b e1ff 36bc 074e 29bc
00000030: b965 abbc d21c 593c 40b5 323d 1f76 3e3d
00000040: 9211 4e3d c7c7 963d b0d9 d5bc 8fcf f8bb
00000050: ceac 0c3c bdd7 b73c abad ac3c 1c07 c4bc
00000060: 436d 83bc f93a b1bc 83c0 73bd 7254 363d
00000070: 5f1f 693c cfa9 703d c2cc 64bd 4521 02bd
00000080: cf83 c23c 2334 6fbd c58a babc 03ef 70bd
00000090: 833f 8bbd 5e00 7fbd 92b8 04bd e775 6e3c
000000a0: 4083 1a3d 3bb2 d13c 3f54 283d bb42 23bc
000000b0: c2cf 0b3d 81b4 873d de7d 913c 1a5b 7e3d
000000c0: e6c3 153d 3043 963d 7391 82bd 35f4 00bd
000000d0: 94a8 3cbc fdf0 823d 3a8f 74bd c277 f03b
000000e0: 6b5a 88bc 4dee b23c 1171 57bd a815 6ebc
000000f0: 853c 6e3d b03b 85bd cdca db3c 4a37 5cbd
00000100: 22b5 cb3b 7edb 6b3d 7d7e 01bd 42a4 5b3d
00000110: ea1b 98bb 6326 cabc 2452 d9bc 42e2 053b
00000120: c246 85bd 17ed 82bd b74e 6abd d98d 1bbc
00000130: 93a6 9a3c 2fba 1bbc 79a6 36bd c7d9 3abd
00000140: 477d bbbc 3027 323d b329 443d bc6b 923d
00000150: 270b 2a3c 4e1a 693c 09aa 3abc b908 0f3d
00000160: 3816 963c 5c35 7dbd 8a11 11bd 3574 053c
00000170: e817 3e3d a641 6d3c c11e 4bbc 593b f13c
00000180: edfe 293b 07d1 993d b2e3 7a3d 181c f93c
00000190: 0087 273d ab03 383d b3a3 8cbd 862b 22bd
000001a0: 1589 b93c d57b 54bd aecc 7d3d 9716 853c
000001b0: 3494 4bbd ec6f afbc 7261 333d c37a 723d
000001c0: 15a0 323d f336 4e3d ec60 b0bc 1461 12bd
000001d0: adc6 c6bc 115a 003d 9bec 2fbd 104b 80bb
000001e0: 3cb9 8fbd ff41 72bd 5f78 803d b407 29bd
000001f0: 093f 813c 35dc 013c 863c 85bd d67b 5f3d
00000200: de4a 09bd bd1a 57bd bc30 d0bc 72d7 44bd
00000210: 7b73 85bd 9937 2e3d 2c26 16bd 3334 66bd
00000220: b109 523c 7d43 463d 21ac 44bd 59e7 0cbd
00000230: fedc 6bbc 5303 62bd ca81 2fbd f28b 42bd
00000240: 901f 20bd 278c 0abd 7068 dbbc 6384 78bc
00000250: 91ad 1c3d ca8f ed3b 1c8a a9bc 5a73 f8bc
00000260: e96a e4bc 5449 1b3d ba21 873d bf62 2fbd
00000270: 38b9 473d 1e93 923d 14b7 88bd 39a8 e1bb
00000280: 8926 ec3c 7408 283d 1ecd 2cbd 46e1 433d
00000290: e451 48bd eba9 e5bc 39ce 4f3d 8547 2d3d
000002a0: b36e 2cbd 4cbf 89bd ac56 213d 4d75 183d
000002b0: 5706 3d3c 4ce8 52bc d1af 883d ab10 1c3d
000002c0: 06ce 1a3d 2075 26bd 4154 503d 1ab6 a83b
000002d0: 0888 883c 17e6 1f3d e33b 0dbd a7c6 363c
000002e0: 0fb5 6bbd 05f0 87bd 3383 643d b84b 3abd
000002f0: 4a33 c0bc 573d 8bbc fab8 4cbd d694 62bd
00000300: 077f 11bd 6702 803b 2792 5abb dd7e 913b
00000310: d254 51bd 11d7 28bd c2c1 2cbd d985 cbbc
00000320: 8478 7c3c 697c 35bc 4442 083d 2eb2 2f3d
00000330: 6732 003d 4141 adbc 20a4 253d 2f1e ca3c
00000340: 52fc d7bb d242 43bd 0005 1539 9d01 9ebc
00000350: 6d98 153d 5bc2 763d 8dbe b3bc 5a4b 4ebd
00000360: 5df9 2bbc ccbf abba 6674 813d 6ab3 22bd
00000370: 65cd 41bd 6993 92bd 58d0 5e3d 0799 81bd
00000380: b6d8 503d dd3f 67bd 79f2 6bbd 4c1d b83c
00000390: ec01 77bc 82e7 88bd 5894 2fbd 0dbe 62bb
000003a0: 5a54 88bd 6bac 3ebb 7182 48bd fb7b 94bc
000003b0: 6e5c 673d 0704 88bd d6aa 4bbb a0df 383d
000003c0: bcde 643d 9c01 66bd 2152 f13c 6873 413d
000003d0: 4946 583c dd4f 0139 f46e 693c 52c0 4abc
000003e0: 1244 4b3d db52 45bc 1ac2 313d e947 3f3d
000003f0: 4fb1 90bc 9dad 8ebd 50af 713d b659 2ebd

fc3.bias f4 [100]
0.07059852 -0.05849614 -0.02858264 -0.015153257 0.042441707 -0.040758286 0.101210214 0.0004836577
0.045271024 0.018527282 -0.03315506 -0.021836266 0.0048481626 0.064436756 -0.027271373 -0.01540649
-0.039557297 0.02577528 0.035568025 -0.013632989 -0.049868617 0.010874031 0.0116153825 0.0048422697
-0.027381726 0.05132953 0.006858062 -0.016265588 0.005181027 0.06060153 -0.004151349 0.05099949
0.07958038 0.06572508 -0.064497456 -0.03730676 -0.009375927 0.06349478 -0.053682335 0.056277044
-0.041758604 0.014075906 -0.004644492 -0.044618458 -0.015983008 0.044458114 0.039535765 -0.07024691
0.028989205 0.036482964 -0.045875862 0.028940642 -0.04180894 -0.039795436 -0.029413689 0.062228262
0.02774342 0.0053608236 0.06826365 -0.016523816 0.017670542 0.034930218 -0.059730813 0.021936996
0.016664935 -0.0471587 0.019871702 -0.05674122 -0.068688706 0.023642309 -0.007825104 -0.024480568
-0.02053945 -0.046529744 0.068462476 0.032267 -0.020933425 -0.03220126 -0.005675299 -0.018032871
-0.0681522 -0.027747834 0.06278547 0.05450042 0.012887435 0.024310866 0.056522515 -0.048241854
-0.021332052 -0.037340328 -0.043617133 0.038664714 0.04497449 -0.062791035 -0.02290112 0.04826208
0.0715279 -0.0122693 0.04913586 0.024794871
00000000: f595 903d a699 6fbd 2426 eabc 5e45 78bc
00000010: 5bd7 2d3d 29f2 26bd 4d47 cf3d 7093 fd39
00000020: 1c6e 393d 87c6 973c 9acd 07bd f8e1 b2bc
00000030: 56dd 9e3b 6bf7 833d 3768 dfbc 816b 7cbc
00000040: d506 22bd ae26 d33c c7af 113d e65c 5fbc
00000050: 0943 4cbd fe28 323c 724e 3e3c e7ab 9e3b
00000060: a44f e0bc ea3e 523d 98b9 e03b 693f 85bc
00000070: 9bc5 a93b 4f39 783d 0a08 88bb d7e4 503d
00000080: 0afb a23d df9a 863d 3e17 84bd f9ce 18bd
00000090: 7d9d 19bc 8d09 823d 02e2 5bbd c282 663d
000000a0: 120b 2bbd a19e 663c d330 98bb d8c1 36bd
000000b0: ccee 82bc b619 363d 41f0 213d 9ddd 8fbd
000000c0: c57a ed3c 296f 153d 54e8 3bbd ed14 ed3c
000000d0: da3f 2bbd 8a00 23bd faf4 f0bc 10e3 7e3d
000000e0: 2b46 e33c d9a9 af3b d0cd 8b3d f45c 87bc
000000f0: d0c1 903c fd12 0f3d 4ca8 74bd 37b5 b33c
00000100: e784 883c 7b29 41bd fbc9 a23c 7b69 68bd
00000110: aaac 8cbd 84ad c13c dd34 00bc 798b c8bc
00000120: 5942 a8bc f995 3ebd 0e36 8c3d 672a 043d
00000130: 937c abbc 78e5 03bd dcf7 b9bb acb9 93bc
00000140: 6193 8bbd 6d4f e3bc ab95 803d d53b 5f3d
00000150: d225 533c 9527 c73c 2784 673d 4099 45bd
00000160: 8ec0 aebc 2cf2 18bd e1a7 32bd e45e 1e3d
00000170: 2c37 383d 9698 80bd 219b bbbc 75ae 453d
00000180: 387d 923d 2d05 49bc af42 493d 9d1e cb3c

fc7.weight f4 [1, 100]
-0.08411176 0.035924193 0.0026342634 -0.0918493 0.08897731 -0.0862968 -0.11106083 -0.038553573
-0.07883906 -0.05242415 -0.09573051 0.013523734 0.08116053 0.050656203 -0.07370012 0.072524615
0.012279426 -0.027303614 0.02208884 0.034534533 0.02867176 0.06777749 0.08007906 0.07245802
-0.0068423515 -0.037549708 -0.025703793 0.044751994 0.047322184 -0.010695702 0.08783224 -0.011185602
-0.036645908 0.04079363 0.018137487 -0.056419145 0.08403871 -0.076101355 0.081005454 -0.06291502
0.08633186 0.08591239 0.006253512 -0.08920998 0.055449612 0.06277956 0.09346512 0.098467916
0.039738595 -0.06018316 -0.054592263 -0.048558857 0.008894448 -0.08221181 0.00416654 0.06258144
0.0008396021 0.033236843 -0.0996071 0.045637153 0.08511028 -0.058579613 -0.043673553 -0.006995734
0.08242997 0.07288155 -0.08342902 -0.06337378 0.09936625 -0.050285663 0.07170556 -0.054918736
0.05427221 0.060036324 0.03099786 -0.08412374 -0.06787419 -0.026124788 0.054267135 -0.053794578
-0.054204166 0.022700189 -0.053413782 -0.05907832 -0.07066765 -0.030373976 0.0724643 0.03881876
0.016730558 -0.06977945 -0.034191232 0.08154651 -0.066165574 -0.08211534 -0.056396525 0.06259303
-0.05742942 -0.06639132 -0.016776096 0.0029444115
00000000: c942 acbd 3f25 133d 9ba3 2c3b 7c1b bcbd
00000010: bc39 b63d 60bc b0bd dc73 e3bd 5aea 1dbd
00000020: 6076 a1bd b5ba 56bd 5c0e c4bd a792 5d3c
00000030: 7e37 a63d e17c 4f3d 17f0 96bd c987 943d
00000040: a52f 493c d4ab dfbc a8f3 b43c 1574 0d3d
00000050: 0ae1 ea3c edce 8a3d 7d00 a43d df64 943d
00000060: ce35 e0bb b9cd 19bd c390 d2bc de4d 373d
00000070: e8d4 413d 073d 2fbc 64e1 b33d d143 37bc
00000080: 051a 16bd 3917 273d 1195 943c c317 67bd
00000090: 7d1c ac3d 07db 9bbd 30e6 a53d 97d9 80bd
000000a0: c2ce b03d d6f2 af3d 43ea cc3b b9b3 b6bd
000000b0: 221f 633d 9292 803d a46a bf3d 8ca9 c93d
000000c0: f0c4 223d 9e82 76bd 239c 5fbd a7e5 46bd
000000d0: 05ba 113c aa5e a8bd 7987 883b b32a 803d
000000e0: be18 5c3a 5b23 083d cffe cbbd 06ee 3a3d
000000f0: 4c4e ae3d 2df1 6fbd 0ae3 32bd 783c e5bb
00000100: 0bd1 a83d ec42 953d d6dc aabd 1dca 81bd
00000110: 8880 cb3d 57f8 4dbd 5dda 923d 78f2 60bd
00000120: 894c 5e3d a6e8 753d 39ef fd3c 1149 acbd
00000130: a001 8bbd a703 d6bc 3747 5e3d b457 5cbd
00000140: 3005 5ebd bff5 b93c 69c8 5abd 1cfc 71bd
00000150: 33ba 90bd d8d2 f8bc 2a68 943d 6c00 1f3d
00000160: 860e 893c 87e8 8ebd 1b0c 0cbd db01 a73d
00000170: d181 87bd 162c a8bd 0b00 67bd c630 803d
00000180: 1d3b 6bbd 2cf8 87bd 066e 89bc 07f7 403b
