Amos/Z09.pth (torch, 185583 bytes, 7 tensors)

fc1.weight f4 [100, 52]
0.09962873 0.05600112 -0.03582664 0.11061432 -0.116483085 0.055302132 0.10526632 0.05210401
0.054485768 0.043793127 -0.020333566 0.07469009 -0.07399235 0.058081593 -0.07132251 0.12437241
0.10705415 0.033692162 0.1389374 -0.117570855 0.08033637 0.007896571 0.112527676 0.12466071
-0.11969823 -0.14681521 0.07434686 -0.13202074 0.13277093 0.12588166 -0.029543174 -0.13091853
0.0022002915 0.112616554 -0.10617226 0.083986536 0.044335186 0.043201603 0.010662391 -0.061872702
-0.03447795 -0.052580565 -0.13636667 -0.08521833 0.1311565 0.06952957 0.058525134 0.13071632
-0.08118131 0.10758624 -0.12937665 0.124835536 0.10923774 0.12863074 0.100392625 0.014879834
-0.04064993 -0.12929034 -0.07097638 -0.0051546707 -0.014823713 0.10002097 -0.04111857 -0.045933705
-0.008614194 0.077326715 -0.05253772 0.00930378 0.008940559 0.044044364 -0.050730716 -0.072331704
-0.046382554 -0.059879486 0.10214126 0.09306882 -0.08984323 -0.117874175 -0.082313605 0.106007606
-0.07268196 -0.07925049 -0.12269977 0.11390358 0.09814549 0.017385233 0.065352716 -0.020764755
-0.016009199 -0.14163198 0.033615854 0.035026874 0.10635115 -0.03780158 0.07006566 0.0800623
0.008906351 0.016059998 0.056647576 0.08426376 -0.056540873 -0.065543726 0.036714833 -0.011858945
0.01120906 -0.09461531 -0.10013483 -0.053905465 0.06151625 -0.08858841 -0.025642794 0.1043075
0.008210156 -0.057675116 0.01902517 -0.0531313 0.010104431 -0.08491858 0.0044067153 0.11217054
-0.12941787 0.11665558 0.03443812 -0.051879533 -0.0942067 0.04759896 0.12794632 0.039853107
0.011673778 0.10121389 -0.048044235 0.13484852 0.081347615 -0.11839572 -0.12390953 0.13439895
0.023113256 -0.010887467 0.11517828 -0.032508366 0.114806466 -0.08931983 -0.12941629 -0.05985021
-0.10645936 -0.098023 -0.06317129 0.06860374 -0.008841111 0.08301771 0.124496885 0.12733945
-0.004057879 -0.13002525 -0.1053099 0.1266961 -0.10820732 0.10265872 -0.022596935 0.13008144
0.04223008 -0.04583109 0.1033287 0.0030779506 -0.109320134 -0.1162447 0.027587606 0.066864945
-0.023158392 -0.086504586 -0.022949254 -0.12664545 -0.06673988 -0.07180966 0.10356806 -0.12393026
0.026915958 0.111853205 0.04473291 -0.027272101 0.06612896 0.014997132 0.035124913 0.08503413
7.0251284e-05 0.029751895 0.12107064 -0.049355187 -0.025519602 -0.07801285 -0.08628008 -0.0558676
-0.097325794 0.062121727 -0.041010406 -0.034433167 0.051316325 0.112559974 0.11159765 0.08269008
-0.063420385 0.11630284 0.04045106 0.060566552 -0.0037384266 0.07241542 0.12549333 -0.10689603
0.12252268 0.09570316 -0.05819933 0.08665829 -0.075436115 -0.027467903 0.084128544 -0.06876223
0.010988387 -0.12532832 0.016859211 -0.06261892 -0.07437868 -0.09240191 -0.0005124204 0.0914781
0.070148245 -0.00017485136 -0.05418303 -0.11731975 -0.08386797 0.076466024 0.033618383 -0.081273906
0.067590944 0.078381926 0.052080803 -0.078044996 0.13101557 0.059734803 -0.12968016 -0.12580858
0.1240516 0.1190416 -0.068917565 -0.021544822 -0.08278578 -0.13119024 -0.12982768 -0.06651132
-0.12041319 0.07241365 -0.107805654 0.089538395 0.112819016 0.007910115 0.004353282 -0.013237746
00000000: 260a cc3d 6e61 653d f4be 12bd c389 e23d
00000010: af8e eebd 7d84 623d de95 d73d 046b 553d
00000020: 782c 5f3d 6c60 333d 9492 a6bc 1ef7 983d
00000030: 4d89 97bd f7e6 6d3d 8911 92bd f6b6 fe3d
00000040: 353f db3d cb00 0a3d 9b45 0e3e fdc8 f0bd
00000050: 6587 a43d 9f60 013c e974 e63d 1d4e ff3d
00000060: 5824 f5bd ba56 16be 2b43 983d 7230 07be
00000070: 1af5 073e 1fe7 003e 8704 f2bc 820f 06be
00000080: c432 103b 82a3 e63d d870 d9bd 2201 ac3d
00000090: d098 353d 2af4 303d 4fb1 2e3c 3b6e 7dbd
000000a0: c038 0dbd b85e 57bd b4a3 0bbe f386 aebd
000000b0: e44d 063e 8565 8e3d 0db8 6f3d 80da 053e
000000c0: 6342 a6bd 2d56 dc3d 507b 04be c6a9 ff3d
000000d0: 09b8 df3d c7b7 033e a69a cd3d 8cca 733c
000000e0: 8a80 26bd b064 04be 105c 91bd 83e8 a8bb
000000f0: 29df 72bc cbd7 cc3d f26b 28bd fb24 3cbd
00000100: 8c22 0dbc 785d 9e3d cb31 57bd e26e 183c
00000110: 6c7b 123c dd67 343d 03cb 4fbd a522 94bd
00000120: a2fb 3dbd 3144 75bd 702f d13d de9a be3d
00000130: baff b7bd 0468 f1bd 0994 a8bd 841a d93d
00000140: 48da 94bd 154e a2bd 044a fbbd 4846 e93d
00000150: 8100 c93d 7a6b 8e3c a5d7 853d d91a aabc
00000160: b925 83bc f907 11be c7b0 093d 5778 0f3d
00000170: a2ce d93d d4d5 1abd 967e 8f3d b4f7 a33d
00000180: f2eb 113c 4290 833c 4a07 683d 7a92 ac3d
00000190: 6797 67bd ca3b 86bd 4b62 163d 054c 42bc
000001a0: 35a6 373c acc5 c1bd 7d13 cdbd facb 5cbd
000001b0: 77f8 7b3d d76d b5bd d610 d2bc 2c9f d53d
000001c0: e483 063c be3c 6cbd acda 9b3c 35a0 59bd
000001d0: 0e8d 253c cbe9 adbd 3566 903b abb9 e53d
000001e0: 1e86 04be 1fe9 ee3d fc0e 0d3d a27f 54bd
000001f0: 71ef c0bd 21f7 423d 5c04 033e 033d 233d
00000200: 6043 3f3c 3a49 cf3d 08ca 44bd bb15 0a3e
00000210: 9499 a63d 7579 f2bd 48c4 fdbd e19f 093e
00000220: 0358 bd3c 5961 32bc 97e2 eb3d 7e27 05bd
00000230: a71f eb3d 51ed b6bd b485 04be 7e25 75bd
00000240: 5d07 dabd 48c0 c8bd f35f 81bd 1e80 8c3d
00000250: 4fda 10bc 3005 aa3d 39f8 fe3d 4665 023e
00000260: f5f7 84bb 5725 05be b8ac d7bd 9fbc 013e
00000270: cd9b ddbd bc3e d23d 351d b9bc 1234 053e
00000280: 73f9 2c3d 62b9 3bbd ff9d d33d 71b7 493b
00000290: 3ce3 dfbd b411 eebd 67ff e13c 7df0 883d
000002a0: abb6 bdbc 5129 b1bd 1300 bcbc 58af 01be
000002b0: ebae 88bd f110 93bd 7e1b d43d 26cf fdbd
000002c0: db7e dc3c 4b13 e53d db39 373d be69 dfbc
000002d0: 9f6e 873d 88b6 753c 24df 0f3d 6026 ae3d
000002e0: df53 9338 3fba f33c e2f3 f73d aa28 4abd
000002f0: 7c0e d1bc 33c5 9fbd 9cb3 b0bd 6dd5 64bd
00000300: bf52 c7bd 5a73 7e3d 87fa 27bd cb09 0dbd
00000310: 1131 523d d885 e63d 4f8d e43d 6b59 a93d
00000320: 8ce2 81bd 2f30 ee3d 03b0 253d a214 783d
00000330: 6400 75bb 894e 943d 5381 003e 4eec dabd
00000340: 2ced fa3d 0500 c43d 6c62 6ebd e779 b13d
00000350: 407e 9abd 5e04 e1bc 964b ac3d 36d3 8cbd
00000360: a308 343c 1156 00be 541c 8a3c 593e 80bd
00000370: d953 98bd 363d bdbd f353 06ba df58 bb3d
00000380: e2a9 8f3d 4e58 37b9 06ef 5dbd 5645 f0bd
00000390: f8c2 abbd 389a 9c3d 6eb3 093d ef72 a6bd
000003a0: 1f6d 8a3d b486 a03d ae52 553d 0ed6 9fbd
000003b0: f228 063e 7bac 743d e0ca 04be f7d3 00be
000003c0: c40e fe3d 15cc f33d a724 8dbd c47e b0bc
000003d0: 978b a9bd bc56 06be 8cf1 04be 1637 88bd
000003e0: 319b f6bd 9c4d 943d 36c9 dcbd e85f b73d
000003f0: a80d e73d 6d99 013c faa5 8e3b 22e3 58bc

fc1.bias f4 [100]
0.037314214 -0.13101587 -0.105252236 0.041377526 0.08578167 0.099019915 -0.023237735 0.049547084
-0.12699956 0.13368909 -0.04086908 0.024162358 0.025773183 -0.13873675 -0.06880447 -0.02824458
-0.042963084 -0.06621235 0.088921264 -0.066329055 -0.041123338 0.07419667 0.13618101 0.10091453
0.02668404 -0.10361531 0.051241927 -0.12079382 0.106731966 0.05977517 -0.12668394 0.027328344
0.111449316 0.114768475 0.105957456 -0.069540575 -0.005353868 0.05886382 -0.09524983 -0.0017741953
-0.04816988 -0.1052157 0.12894806 -0.08121163 -0.11297988 -0.13994297 0.1280777 -0.04545575
0.013739281 -0.033562656 0.13150491 -0.08300254 -0.06059345 -0.013632982 0.009250748 -0.0880913
0.04509894 -0.08902408 -0.07101877 0.057057623 -0.071140535 0.10571341 -0.12471927 -0.052093305
0.05939855 -0.009203226 0.08853268 0.010127882 -0.06651378 0.12860976 -0.044768 0.0645764
0.023530494 0.04739786 -0.025779037 -0.1308037 0.05330831 0.08625084 0.093686484 0.1409392
-0.13223666 0.06935762 0.13346286 0.12117293 -0.08660586 0.13905108 0.122774534 -0.13874952
-0.076298535 -0.05359761 0.018531255 0.07352041 0.0035556327 0.029205656 0.05050546 0.016346755
0.06348055 0.14675096 0.05159384 0.11165944
00000000: cad6 183d 0629 06be 7c8e d7bd 7b7b 293d
00000010: 4dae af3d f4ca ca3d 105d bebc e2f1 4a3d
00000020: 2c0c 02be cbe5 083e 5666 27bd 23f0 c53c
00000030: 4822 d33c 0211 0ebe 5ce9 8cbd 2d61 e7bc
00000040: 0ffa 2fbd 579a 87bd 5a1c b63d 87d7 87bd
00000050: f270 28bd 6cf4 973d 0973 0b3e 47ac ce3d
00000060: 7d98 da3c 4334 d4bd 0ee3 513d c062 f7bd
00000070: 4a96 da3d cfd6 743d 6fb9 01be b1df df3c
00000080: 8a3f e43d bc0b eb3d 3900 d93d 4a6b 8ebd
00000090: 806f afbb 301b 713d 5812 c3bd 1e8c e8ba
000000a0: c84d 45bd 547b d7bd f60a 043e 4852 a6bd
000000b0: ff61 e7bd 364d 0fbe cd26 033e cf2f 3abd
000000c0: b91a 613c ff78 09bd 39a9 063e 3cfd a9bd
000000d0: d630 78bd df5c 5fbc 7390 173c 3669 b4bd
000000e0: abb9 383d 4252 b6bd 4a72 91bd 41b5 693d
000000f0: 21b2 91bd 4680 d83d d16c ffbd ca5f 55bd
00000100: e54b 733d 21c9 16bc 9f50 b53d 6aef 253c
00000110: 6038 88bd 47b2 033e a65e 37bd a240 843d
00000120: 06c3 c03c 4224 423d 8f2e d3bc 68f1 05be
00000130: d159 5a3d 48a4 b03d b3de bf3d 5e52 103e
00000140: 0c69 07be 5e0b 8e3d 7daa 083e 8329 f83d
00000150: 6a5e b1bd 6863 0e3e 3771 fb3d 5b14 0ebe
00000160: 6842 9cbd 2b89 5bbd dcce 973c de91 963d
00000170: 9e05 693b b340 ef3c d0de 4e3d a1e9 853c
00000180: 1702 823d e245 163e 1054 533d b4ad e43d

fc2.weight f4 [200, 100]
0.049158808 0.0029335644 -0.017517572 0.037737735 0.06345579 -0.03739169 0.080312714 -0.087744355
0.077514924 -0.00615617 -0.02605504 0.023296207 0.081549376 0.020365024 -0.051202156 0.05978774
-0.09640924 0.050757103 -0.05667797 -0.06154005 0.09157713 -0.068505175 0.038174964 -0.0112829665
0.026674189 0.06900593 -0.04526683 -0.07739052 -0.064948454 -0.015063156 0.07815648 0.046547808
-0.023766467 -0.05063448 -0.09191358 0.041007712 -0.030478738 -0.009469035 -0.08356676 0.082534924
-0.09873654 -0.014692422 -0.040067535 -0.0008169023 -0.09293401 0.02492281 0.021980504 0.09655213
-0.06672436 -0.054283977 -0.083230145 -0.0016671563 0.08550499 -0.09042688 -0.07286561 0.049324382
-0.037644546 0.054944415 -0.07567439 -0.07958498 -0.027300047 -0.082551196 0.053143837 -0.049445607
0.045174398 -0.039356567 -0.09879793 -0.052380774 -0.014000301 -0.06491602 0.08971573 -0.034149162
-0.09351347 -0.066443294 0.022499666 -0.0632971 -0.01738398 0.057751182 -0.07141437 -0.06103825
-0.024740014 0.0023558012 -0.0017611904 -0.036619242 -0.0908797 -0.043768317 -0.020756617 -0.048066664
-0.055693075 0.015404483 0.0028751262 0.0009684208 -0.097108066 -0.09688661 -0.04904368 0.08857981
-0.096469834 -0.0791538 -0.07553256 -0.08058237 -0.00070693635 0.013445508 -0.050001506 -0.020543464
-0.075732015 -0.06632567 0.08060198 0.09263438 0.057760265 0.06016641 -0.0014238664 -0.07964966
0.054423295 0.066312015 -0.06477927 -0.08993023 -0.09776123 0.00995263 -0.090215884 0.055838913
-0.09612993 -0.066779 -0.07866869 -0.099453844 -0.022895003 0.045428026 0.0884425 0.011066687
-0.03769762 0.0774573 0.02476564 0.033265423 -0.021297807 -0.0076663834 0.07487796 -0.0031097962
-0.01949436 0.025898123 -0.03983684 -0.06622663 -0.055197816 0.02773829 -0.077834 -0.0042163422
0.068705 -0.050084155 -0.08228039 -0.011108742 0.08354537 0.057758983 -0.017188873 0.064764395
0.05693788 0.06570711 0.019991513 -0.02512174 -0.008679159 0.053152386 -0.0040394343 -0.032372836
0.073295444 0.09328564 -0.04113772 -0.038942654 -0.05923786 -0.071531475 0.060317323 0.08357267
0.012761309 -0.014605514 0.087763056 -0.06212433 0.04062542 0.06597135 0.011052111 0.021906411
-0.09919025 0.023079272 -0.085160814 0.061727602 -0.001983371 0.041482475 0.08432451 0.0934843
0.017862558 0.022032818 0.025700659 0.017501386 -0.028805718 -0.06814674 0.0067884624 -0.02855769
0.04150583 -0.032989573 -0.012709635 0.09676812 0.0143005885 0.052017614 0.02724697 -0.017715322
0.065567315 0.07589819 -0.09840227 -0.095150925 0.07936677 -0.021352695 -0.051239077 -0.035766877
-0.007738326 0.04727572 -0.077195086 0.08870218 -0.028225938 -0.0745051 -0.0053321533 -0.062372565
0.057866342 -0.06742602 0.046201374 -0.04055575 0.0997453 0.031442683 -0.07260411 -0.06486899
0.039359953 -0.022874417 0.076638535 -0.06287953 0.02838802 0.08325647 0.062298343 0.0192412
-0.07579464 -0.01045247 0.08763308 0.075858265 -0.017082242 0.08773865 0.06978694 -0.04512306
0.026017766 0.020923847 0.08523481 0.0937187 0.09077199 -0.046573736 -0.02032382 -0.021449149
-0.06841706 0.09782486 0.00027624212 0.07092698 0.053895567 -0.07392392 0.008104259 0.028400538
00000000: bf5a 493d 0b41 403b 0381 8fbc e292 1a3d
00000010: 1cf5 813d 0728 19bd fe7a a43d 50b3 b3bd
00000020: 25c0 9e3d b2b9 c9bb 6171 d5bc b0d7 be3c
00000030: 5c03 a73d 8dd4 a63c 5ab9 51bd fde3 743d
00000040: 3572 c5bd aee6 4f3d 2927 68bd 6b11 7cbd
00000050: ca8c bb3d 714c 8cbd 5a5d 1c3d 31dc 38bc
00000060: d483 da3c fb52 8d3d b669 39bd ec7e 9ebd
00000070: b203 85bd 75cb 76bc 8110 a03d eaa8 3e3d
00000080: e5b1 c2bc 1a66 4fbd 303d bcbd b4f7 273d
00000090: 8cae f9bc 0324 1bbc 0d25 abbd 1208 a93d
000000a0: 6236 cabd 7cb8 70bc db1d 24bd 6325 56ba
000000b0: 3054 bebd ec2a cc3c 7510 b43c 20bd c53d
000000c0: c8a6 88bd e058 5ebd 9174 aabd 7c84 daba
000000d0: 3d1d af3d ba31 b9bd 913a 95bd 5d08 4a3d
000000e0: 2b31 1abd 650d 613d 2dfb 9abd 73fd a2bd
000000f0: 59a4 dfbc 9a10 a9bd 5aad 593d 7a87 4abd
00000100: ca08 393d 5a34 21bd 9256 cabd 398d 56bd
00000110: 8561 65bc b1f2 84bd e1bc b73d fedf 0bbd
00000120: fd83 bfbd 6c13 88bd 3851 b83c e9a1 81bd
00000130: d968 8ebc 818c 6c3d b241 92bd 3e03 7abd
00000140: 92ab cabc c963 1a3b bed7 e6ba 0ffe 15bd
00000150: 231f babd 6846 33bd c809 aabc 8de1 44bd
00000160: 6c1e 64bd 1663 7c3c 9d6c 3c3b 9fdd 7d3a
00000170: 98e0 c6bd 7d6c c6bd 07e2 48bd 5569 b53d
00000180: fa91 c5bd 631b a2bd d1b0 9abd 5f08 a5bd
00000190: b251 39ba 8c4a 5c3c 61ce 4cbd c44a a8bc
000001a0: 6319 9bbd c1d5 87bd a712 a53d 18b7 bd3d
000001b0: 0796 6c3d 0e71 763d 07a1 baba 5c1f a3bd
000001c0: f6ea 5e3d 98ce 873d feaa 84bd 572d b8bd
000001d0: 0a37 c8bd 5b10 233c 1bc3 b8bd 58b7 643d
000001e0: c5df c4bd 6ec3 88bd 0d1d a1bd 75ae cbbd
000001f0: 4d8e bbbc bd12 3a3d 5721 b53d 0d51 353c
00000200: d268 1abd efa1 9e3d 50e1 ca3c 5341 083d
00000210: bd78 aebc 4936 fbbb 9e59 993d b9cd 4bbb
00000220: a3b2 9fbc 4d28 d43c f42b 23bd d4a1 87bd
00000230: 1b17 62bd 693b e33c 6f67 9fbd 3e29 8abb
00000240: 35b5 8c3d 0b25 4dbd 9f82 a8bd 7101 36bc
00000250: d619 ab3d af94 6c3d aecf 8cbc 32a3 843d
00000260: b237 693d 7391 863d 3ec5 a33c 1bcc cdbc
00000270: 0833 0ebc 51b6 593d 3b5d 84bb 6199 04bd
00000280: ec1b 963d 8b0c bf3d 0780 28bd 5582 1fbd
00000290: 66a3 72bd 187f 92bd 4c0f 773d 2628 ab3d
000002a0: cf14 513c f74b 6fbc 1ebd b33d 1576 7ebd
000002b0: d766 263d fd1b 873d ea13 353c 1375 b33c
000002c0: 4224 cbbd be10 bd3c cb68 aebd 15d6 7c3d
000002d0: 72fb 01bb 87e9 293d 54b2 ac3d b274 bf3d
000002e0: 8054 923c 2b7e b43c 308a d23c 115f 8f3c
000002f0: f8f9 ebbc 8590 8bbd c071 de3b d1f1 e9bc
00000300: 0402 2a3d 1320 07bd 133c 50bc 5d2e c63d
00000310: 044d 6a3c 6c10 553d 0a35 df3c b91f 91bc
00000320: 2848 863d 8370 9b3d 2187 c9bd 7dde c2bd
00000330: 0c8b a23d d9eb aebc 11e0 51bd 4a80 12bd
00000340: c991 fdbb 2fa4 413d 7518 9ebd 7da9 b53d
00000350: 153a e7bc 2196 98bd 58b9 aebb 607a 7fbd
00000360: 4205 6d3d a716 8abd a73d 3d3d c91d 26bd
00000370: 4447 cc3d 0bca 003d 77b1 94bd 08da 84bd
00000380: e737 213d 2163 bbbc aaf4 9c3d fcc6 80bd
00000390: fe8d e83c 5e82 aa3d 8c2c 7f3d b99f 9d3c
000003a0: 383a 9bbd d640 2bbc f978 b33d 945b 9b3d
000003b0: 0ff0 8bbc 52b0 b33d 75ec 8e3d f5d2 38bd
000003c0: 3623 d53c 7d68 ab3c 978f ae3d 97ef bf3d
000003d0: aae6 b93d 1ac4 3ebd 247e a6bc 20b6 afbc
000003e0: 3e1e 8cbd 6658 c83d 97d4 9039 2a42 913d
000003f0: 99c1 5c3d 6d65 97bd bac7 043c 3fa8 e83c

fc2.bias f4 [200]
0.09006865 -0.09926976 -0.09091741 0.07791796 0.014461171 -0.02402534 0.08880091 -0.029754683
0.085981496 0.06906759 -0.042788383 0.03416844 -0.028627712 -0.017445622 -0.03215388 -0.05020419
0.020845681 0.09042327 -0.04352047 0.045204133 -0.010874109 0.01484698 0.011944309 -0.029218942
0.011914323 -0.0073316456 -0.02761077 0.019074129 -0.09570004 0.021699565 0.026487648 0.015141797
0.02086908 0.028725382 0.048119042 0.00083490735 0.0438777 0.10596171 0.061768316 0.05851918
0.057625636 0.0074588 0.031763222 -0.06614006 0.024129368 0.047294274 0.070959814 0.07900175
-0.04640088 0.013776972 0.036720112 0.045910083 -0.0228337 -0.0075817057 0.08646124 0.04671925
0.089189105 0.03991011 0.013600224 -0.07040086 -0.029586712 -0.06326221 0.02777923 0.046308547
0.016787808 0.0155833615 0.03227646 0.069920376 -0.030827653 0.03975797 -0.06225998 -0.09337682
-0.01168012 -0.04277161 0.004177909 0.077891335 0.047589127 0.04003795 -0.0765637 -0.03562696
-0.09868308 0.077426806 0.017801426 0.019044818 -0.014573301 -0.02905128 -0.019850517 -0.02629052
0.080448754 -0.08528294 -0.035093237 0.024515284 -0.028673874 0.08690957 -0.09376852 0.018367888
-0.018825442 -0.01353587 -0.0660292 0.029418204 0.0888409 0.005817652 -0.0007866358 -0.011934117
-0.07879098 0.005450655 -0.025087792 -0.067597665 0.050318405 -0.08680165 -0.09850551 -0.06595715
-0.024898289 -0.04890735 0.068997465 -0.091709055 0.004594558 0.05448405 -0.05654249 0.10008434
-0.0008406 0.025637712 0.0049806004 0.07135092 0.064976886 -0.08380905 -0.031459328 0.0868686
-0.050930917 -0.01828337 0.01601575 0.05603412 -0.07534071 0.099783115 -0.05575779 -0.052860845
-0.0030284992 0.010291414 -0.016789084 -0.018137716 -0.048375886 0.06549387 0.0200772 0.06511966
0.09424322 0.09981838 0.060145497 0.08303411 -0.07391742 -0.05189401 -0.0690085 0.023584338
0.08080837 -0.023025401 -0.09551415 -0.09136806 0.015217696 -0.01214911 -0.08830426 -0.03633844
0.006519831 0.052420627 0.06219455 0.0020858839 -0.0022090771 0.08145885 -0.0503652 -0.016207898
-0.04932382 -0.044130623 0.024456313 -0.019357633 0.09858233 0.06945465 0.04404735 0.04207161
0.080060154 0.020077143 0.033414274 -0.016677747 0.08917236 0.0865319 0.07133134 0.073707186
-0.03232367 0.024431014 -0.07554009 0.06863327 -0.032063097 0.058077823 0.072043255 -0.025702443
-0.05839522 -0.01400413 -0.06557387 0.08825711 0.043799333 -0.056506895 -0.06850178 -0.06348265
00000000: ea75 b83d f24d cbbd e832 babd 7493 9f3d
00000010: 8cee 6c3c cad0 c4bc 40dd b53d 18c0 f3bc
00000020: 1117 b03d 4f73 8d3d df42 2fbd 35f4 0b3d
00000030: aa84 eabc 1fea 8ebc c9b3 03bd e9a2 4dbd
00000040: 90c4 aa3c d62f b93d 8542 32bd f827 393d
00000050: 5229 32bc bf40 733c 10b2 433c 905c efbc
00000060: 4b34 433c 4d3e f0bb fb2f e2bc 5941 9c3c
00000070: 62fe c3bd 49c3 b13c a0fc d83c 4d15 783c
00000080: a2f5 aa3c 7e51 eb3c 7918 453d afdd 5a3a
00000090: 1ab9 333d 7402 d93d c600 7d3d cfb1 6f3d
000000a0: dc08 6c3d f368 f43b 271a 023d 7174 87bd
000000b0: f4aa c53c a4b7 413d 6153 913d abcb a13d
000000c0: d90e 3ebd cfb8 613c d467 163d 360c 3c3d
000000d0: bd0d bbbc f56f f8bb 9712 b13d af5c 3f3d
000000e0: c7a8 b63d c978 233d 79d3 5e3c 532e 90bd
000000f0: d55f f2bc 9e8f 81bd 4591 e33c 08ae 3d3d
00000100: 9686 893c 5b51 7f3c 5234 043d 6a32 8f3d
00000110: 468a fcbc 41d9 223d 5204 7fbd 593c bfbd
00000120: f95d 3fbc 4931 2fbd d7e6 883b 7e85 9f3d
00000130: d1ec 423d d5fe 233d 6ecd 9cbd 93ed 11bd
00000140: 5b1a cabd f291 9e3d 4cd4 913c e103 9c3c
00000150: dbc4 6ebc f3fc edbc 8d9d a2bc 375f d7bc
00000160: 51c2 a43d d2a8 aebd edbd 0fbd 47d4 c83c
00000170: 79e5 eabc a5fd b13d b609 c0bd 4178 963c
00000180: d037 9abc 8ec5 5dbc 513a 87bd 72fe f03c
00000190: 38f2 b53d 01a2 be3b 3c36 4eba 5187 43bc
000001a0: 2a5d a1bd 689b b23b ea84 cdbc a570 8abd
000001b0: ac1a 4e3d 10c5 b1bd 42bd c9bd 8b14 87bd
000001c0: 7ff7 cbbc 1353 48bd 8b4e 8d3d f5d1 bbbd
000001d0: f28d 963b ab2a 5f3d 1999 67bd 05f9 cc3d
000001e0: b65b 5cba 2e06 d23c 4e34 a33b 6e20 923d
000001f0: 9a12 853d 14a4 abbd 7fdb 00bd 2ae8 b13d
00000200: f09c 50bd 02c7 95bc 7633 833c 0984 653d
00000210: 3b4c 9abd 175b cc3d 4862 64bd 9d84 58bd
00000220: c979 46bb 529d 283c 4389 89bc 8c95 94bc
00000230: cb25 46bd a621 863d f178 a43c 755d 853d
00000240: 9702 c13d 946d cc3d 205b 763d ca0d aa3d
00000250: 0462 97bd d08e 54bd 5454 8dbd f133 c13c
00000260: dc7e a53d c49f bcbc ec9c c3bd 2d1f bbbd
00000270: a553 793c 100d 47bc ddd8 b4bd 9ed7 14bd
00000280: 4ea4 d53b 03b7 563d b6bf 7e3d 53b3 083b
00000290: 2ac6 10bb e6d3 a63d bd4b 4ebd 6dc6 84bc
000002a0: c607 4abd 50c2 34bd 9b58 c83c e693 9ebc
000002b0: 88e5 c93d 3d3e 8e3d fe6a 343d 4853 2c3d
000002c0: 94f6 a33d d278 a43c 68dd 083d c59f 88bc
000002d0: 00a0 b63d a337 b13d 2a16 923d cbf3 963d
000002e0: d365 04bd 8d23 c83c c3b4 9abd 9a8f 8c3d
000002f0: 9854 03bd 03e3 6d3d 6a8b 933d ee8d d2bc
00000300: d42f 6fbd 9471 65bc 984b 86bd 25c0 b43d
00000310: ee66 333d c673 67bd a94a 8cbd 3103 82bd

fc3.weight f4 [100, 200]
0.038431387 0.043499064 0.03473736 -0.03635679 0.054390088 0.015308552 0.055316962 0.005653728
-0.026800768 0.00065095845 -0.011256868 -0.010811929 -0.021317434 0.011771718 0.042227723 0.0463365
0.048999824 0.071630485 -0.028615946 -0.0074941106 0.0045715556 0.021585459 0.019906878 -0.025331825
-0.01625735 -0.022418894 -0.059614833 0.04160388 0.01349193 0.058386702 -0.058502223 -0.031903002
0.023390304 -0.059992928 -0.024063576 -0.059251487 -0.06910263 -0.06441138 -0.033067316 0.012983619
0.035871703 0.022101952 0.0406828 -0.010784436 0.032927282 0.06200023 0.0142586725 0.061000902
0.036188804 0.07126544 -0.06537183 -0.031828716 -0.012603225 0.06397291 -0.06199792 0.006727145
-0.019219328 0.021037621 -0.052641504 -0.014820686 0.057855736 -0.066155285 0.023086345 -0.0545479
0.005774905 0.056181222 -0.03194023 0.048309214 -0.0068380837 -0.027344646 -0.027087286 0.0013731091
-0.065622866 -0.06400506 -0.058434732 -0.010711765 0.016988948 -0.011200896 -0.04541031 -0.046451394
-0.022972187 0.041890327 0.04684749 0.06963399 0.009994322 0.0135087455 -0.0115573 0.03387228
0.017211331 -0.061846077 -0.035799433 0.0075662155 0.044366557 0.010967512 -0.012569485 0.028287841
0.002131444 0.07364855 0.061072543 0.02875718 0.03841582 0.04447977 -0.07041164 -0.04074807
0.0216235 -0.05271036 0.06163739 0.01623844 -0.05200033 -0.021430159 0.04208384 0.058456074
0.04299136 0.049877554 -0.021811042 -0.035885774 -0.028288243 0.030361302 -0.043975018 -0.007637784
-0.07027524 -0.06079973 0.062284354 -0.043897297 0.014726623 0.007290562 -0.0653033 0.051146124
-0.03443747 -0.05634892 -0.028616654 -0.04822652 -0.06875351 0.038745288 -0.03658458 -0.056397066
0.012587093 0.047573335 -0.04931334 -0.03504946 -0.014584341 -0.0566216 -0.044899497 -0.048880737
-0.04333584 -0.035428572 -0.028646687 -0.016780628 0.038163047 0.0045016264 -0.020751698 -0.030616783
-0.029205488 0.036311354 0.06617416 -0.04348814 0.0448649 0.07177342 -0.06671011 -0.0076216604
0.028607566 0.0380765 -0.0437175 0.045464747 -0.04917814 -0.029963091 0.04953251 0.03951741
-0.04237005 -0.06754766 0.03708151 0.03709855 0.007621278 -0.013054275 0.064283885 0.036033966
0.03650701 -0.04108385 0.048553646 0.0044741407 0.015092365 0.036250703 -0.034816463 0.01019838
-0.05842029 -0.066708624 0.05498453 -0.04746054 -0.023823945 -0.019903006 -0.050477803 -0.055695858
-0.035847273 0.0018652127 -0.005615453 0.004379432 -0.051478878 -0.042129003 -0.04215324 -0.026415626
0.015446306 -0.010545166 0.034034614 0.04406711 0.03139081 -0.021383297 0.04179426 0.02473636
-0.006151505 -0.045636397 0.00015318108 -0.01905019 0.03650098 0.060807284 -0.021352658 -0.050268766
-0.010027177 -0.0005431283 0.064223625 -0.04013875 -0.04569281 -0.07116086 0.0551739 -0.0629643
0.050919402 -0.056049615 -0.05755114 0.02408062 -0.014706532 -0.06668535 -0.041958407 -0.003494522
-0.06672011 -0.002264599 -0.048580304 -0.017970359 0.05699946 -0.06560671 -0.002841119 0.0458109
0.055940095 -0.054566223 0.029701423 0.047717858 0.013681478 0.0020804491 0.015100315 -0.012427165
0.049817502 -0.011285536 0.04424024 0.046608824 -0.017479619 -0.06974795 0.06002584 -0.04231075
00000000: 3b6a 1d3d 132c 323d c348 0e3d dcea 14bd
00000010: 24c8 5e3d b9d0 7a3c 0a94 623d e842 b93b
00000020: 498d dbbc 15a5 2a3a ba6e 38bc 8424 31bc
00000030: e6a1 aebc 2ade 403c faf6 2c3d 58cb 3d3d
00000040: 0ab4 483d 01b3 923d fd6b eabc 2891 f5bb
00000050: fdcc 953b fdd3 b03c c013 a33c b084 cfbc
00000060: 222e 85bc d4a7 b7bc af2e 74bd d468 2a3d
00000070: 420d 5d3c e526 6f3d 07a0 6fbd b9ac 02bd
00000080: 069d bf3c 25bb 75bd fa20 c5bc b0b1 72bd
00000090: ae85 8dbd 1dea 83bd 9871 07bd 3fb9 543c
000000a0: 35ee 123d 270f b53c 02a3 263d 34b1 30bc
000000b0: c2de 063d f4f3 7d3d 359d 693c 15dc 793d
000000c0: b63a 143d 9df3 913d aae1 85bd d45e 02bd
000000d0: c27d 4ebc 3b04 833d 88f1 7dbd 626f dc3b
000000e0: da71 9dbc 1757 ac3c 9e9e 57bd 76d2 72bc
000000f0: 23fa 6c3d 6c7c 87bd 931f bd3c 9e6d 5fbd
00000100: 6a3b bd3b 481e 663d c2d3 02bd e2df 453d
00000110: 0112 e0bb e101 e0bc 28e6 ddbc e5f9 b33a
00000120: 4865 86bd 1615 83bd 4259 6fbd 6680 2fbc
00000130: 682c 8b3c f783 37bc 2900 3abd d143 3ebd
00000140: 2b30 bcbc 3195 2b3d 27e3 3f3d 449c 8e3d
00000150: 3abf 233c c953 5d3c d45a 3dbc a9bd 0a3d
00000160: c7fe 8c3c 5052 7dbd 6da2 12bd 04ee f73b
00000170: b5b9 353d 14b1 333c 3ef0 4dbc e7bb e73c
00000180: b2af 0b3b 0dd5 963d 3427 7a3d 2d94 eb3c
00000190: e859 1d3d 6b30 363d fa33 90bd 73e7 26bd
000001a0: c423 b13c d2e6 57bd 7d77 7c3d 7a06 853c
000001b0: 4cfe 54bd 4d8e afbc 1b60 2c3d a36f 6f3d
000001c0: b517 303d 684c 4c3d 12ad b2bc f6fc 12bd
000001d0: bfbc e7bc 44b8 f83c 261f 34bd 6046 fabb
000001e0: 77ec 8fbd 2309 79bd e11d 7f3d a7cd 33bd
000001f0: ef47 713c abe5 ee3b bdbd 85bd 997e 513d
00000200: 4e0e 0dbd 20ce 66bd 796d eabc 2c89 45bd
00000210: a4ce 8cbd 61b3 1e3d b6d9 15bd 9c00 67bd
00000220: 183a 4e3c 42dc 423d c9fc 49bd 0690 0fbd
00000230: 29f3 6ebc 0dec 67bd 89e8 37bd 2b37 48bd
00000240: ec80 31bd 8d1d 11bd 75ac eabc 8777 89bc
00000250: db50 1c3d 6182 933b 77ff a9bc 0cd0 fabc
00000260: 5940 efbc 37bb 143d 5186 873d 9f20 32bd
00000270: 42c4 373d f1fd 923d 4f9f 88bd 1fbf f9bb
00000280: 6a5a ea3c 1bf6 1b3d 1f11 33bd 3e39 3a3d
00000290: 046f 49bd 2875 f5bc 9ae2 4a3d 02dd 213d
000002a0: 388c 2dbd 6d56 8abd c8e2 173d a6f4 173d
000002b0: eabb f93b 99e1 55bc 45a7 833d 5a98 133d
000002c0: 6088 153d 8a47 28bd 30e0 463d d09b 923b
000002d0: f845 773c 9e7b 143d b59b 0ebd 1b17 273c
000002e0: 1d4a 6fbd 889e 88bd 7537 613d fc65 42bd
000002f0: 6f2a c3bc a10b a3bc d0c1 4ebd 5721 64bd
00000300: 97d4 12bd 277a f43a d501 b8bb 5781 8f3b
00000310: 84db 52bd 768f 2cbd e0a8 2cbd 9565 d8bc
00000320: 8112 7d3c a2c5 2cbc e167 0b3d b77f 343d
00000330: a693 003d 062c afbc 7530 2b3d e8a3 ca3c
00000340: 9092 c9bb 3bed 3abd 3c9f 2039 250f 9cbc
00000350: 0d82 153d 0f11 793d c5eb aebc 9fe6 4dbd
00000360: 0749 24bc b960 0eba ad87 833d 8868 24bd
00000370: 6228 3bbd c9bc 91bd 07fe 613d 6df3 80bd
00000380: dd90 503d 4894 65bd bfba 6bbd b844 c53c
00000390: aaf3 70bc 5492 88bd 94dc 2bbd 5a04 65bb
000003a0: 8ea4 88bd ab69 14bb 24fc 46bd 9336 93bc
000003b0: 4478 693d d05c 86bd 1132 3abb 36a4 3b3d
000003c0: 7121 653d d580 5fbd 6650 f33c cd73 433d
000003d0: 4728 603c 2558 083b 5067 773c 4f9b 4bbc
000003e0: 700d 4c3d f8e6 38bc 4135 353d e5e8 3e3d
000003f0: 6b31 8fbc 03d8 8ebd a8dd 753d 094e 2dbd

fc3.bias f4 [100]
0.050939325 -0.04973085 -0.02732468 -0.0150677245 0.06980132 -0.051536534 0.072457485 -0.0022185757
0.027660884 0.008881752 -0.03884812 -0.017862411 0.0061120577 0.08120452 -0.031273775 0.008273444
-0.039208565 0.02370422 0.046167154 -0.0004938928 -0.045955203 0.033857234 0.026870063 0.007954106
-0.027717978 0.044933498 0.006834382 -0.0117137935 0.012770705 0.060827926 0.0026846011 0.052455362
0.07211428 0.079721525 -0.061130024 -0.043342125 -0.008198962 0.046688195 -0.03841051 0.041299645
-0.04171408 0.017898407 -0.00322279 -0.048263717 0.0024114542 0.060475845 0.06593714 -0.07025145
0.040891293 0.02748355 -0.0458773 0.020836174 -0.0400647 -0.054456573 -0.028224949 0.08350016
0.031437065 0.0055926926 0.044567846 -0.014641167 0.048130136 0.026708242 -0.06850713 0.024341397
0.043860793 -0.027488736 0.015539471 -0.064553864 -0.06870598 0.0138705745 0.007938616 -0.029000314
-0.015416664 -0.03961373 0.07752829 0.015706299 -0.026595052 -0.0357452 -0.005036969 -0.027884554
-0.0681522 -0.02694609 0.050610017 0.042525727 0.008584687 0.019902365 0.075996384 -0.040058814
-0.020989975 -0.044300698 -0.04368373 0.06603522 0.031624157 -0.065498 -0.023073195 0.06935064
0.059777264 -0.018506456 0.04709928 0.025320407
00000000: c1a5 503d 93b2 4bbd 02d8 dfbc 9ede 76bc
00000010: fff3 8e3d f917 53bd 9764 943d 8665 11bb
00000020: 1499 e23c c584 113c 351f 1fbd 3154 92bc
00000030: a847 c83b 8e4e a63d ee18 00bd 578d 073c
00000040: 2999 20bd 5a2f c23c c519 3d3d 9678 01ba
00000050: 863b 3cbd e2ad 0a3d 9b1e dc3c f051 023c
00000060: d010 e3bc 300c 383d f4f2 df3b 36eb 3fbc
00000070: 383c 513c b426 793d 22f0 2f3b 6fdb 563d
00000080: a7b0 933d 0a45 a33d 7a63 7abd 8387 31bd
00000090: f054 06bc 1f3c 3f3d 5754 1dbd d129 293d
000000a0: 62dc 2abd ae9f 923c 7235 53bb 2db0 45bd
000000b0: 7d09 1e3b 85b5 773d 0d0a 873d fedf 8fbd
000000c0: a17d 273d 2f25 e13c d6e9 3bbd a0b0 aa3c
000000d0: e21a 24bd db0d 5fbd 0238 e7bc 2202 ab3d
000000e0: 27c4 003d e842 b73b c68c 363d 81e1 6fbc
000000f0: 1b24 453d 3ecb da3c 774d 8cbd 9c67 c73c
00000100: 60a7 333d 0f30 e1bc 4499 7e3c d134 84bd
00000110: b9b5 8cbd 6841 633c f810 023c 1192 edbc
00000120: 2d96 7cbc 0242 22bd 27c7 9e3d 7faa 803c
00000130: dedd d9bc 8f69 12bd 290d a5bb 266e e4bc
00000140: 6193 8bbd 0cbe dcbc 734c 4f3d 752f 2e3d
00000150: c9a6 0c3c 490a a33c fea3 9b3d b614 24bd
00000160: 2bf3 abbc a674 35bd b6ed 32bd 793d 873d
00000170: 5588 013d d123 86bd ff03 bdbc b507 8e3d
00000180: 01d9 743d da9a 97bc 2deb 403d be6c cf3c

fc7.weight f4 [1, 100]
-0.056401964 0.043558512 0.01014559 -0.09197568 0.108001985 -0.08162034 -0.082888156 -0.036765624
-0.054289967 -0.042837303 -0.09374558 0.019623904 0.08142018 0.070805654 -0.072493516 0.092872724
0.012917776 -0.025668845 0.052568436 0.05735045 0.032516573 0.09121393 0.08484805 0.07356228
-0.0056736753 -0.027787358 -0.025702551 0.04650645 0.053685606 0.012627636 0.089851275 0.015642092
-0.012242477 0.055462398 0.020125484 -0.051250804 0.084146336 -0.05666568 0.085713714 -0.046168182
0.08632485 0.08672732 0.010530025 -0.08780626 0.077488095 0.07772592 0.11089795 0.098467916
0.05313603 -0.053063992 -0.0545936 -0.03952946 0.009866614 -0.07569531 0.0054974533 0.087427415
0.023649987 0.033205308 -0.065461166 0.04660301 0.11851821 -0.051887464 -0.030062277 0.017389966
0.10630515 0.07668353 -0.08257346 -0.05789592 0.099367574 -0.030660562 0.080152564 -0.05141777
0.05735099 0.060815085 0.045879636 -0.07396208 -0.0671459 -0.020419072 0.05423295 -0.043153267
-0.054204166 0.023401698 -0.030264275 -0.04513171 -0.068533905 -0.014910558 0.09133936 0.043736752
0.017054986 -0.066755965 -0.034179058 0.110360265 -0.027421003 -0.08189429 -0.056363624 0.09139793
-0.042469658 -0.06313095 0.0016557775 0.0069659897
00000000: bf05 67bd 696a 323d b039 263c bf5d bcbd
00000010: 2530 dd3d 9128 a7bd 44c1 a9bd 8d97 16bd
00000020: 285f 5ebd 2b76 2fbd affd bfbd 4fc2 a03c
00000030: a0bf a63d 8e02 913d 7b77 94bd 0e34 be3d
00000040: 14a5 533c 7847 d2bc 0052 573d 4ee8 6a3d
00000050: 1930 053d 5ece ba3d d0c4 ad3d d2a7 963d
00000060: 3dea b9bb 50a2 e3bc 288e d2bc 8c7d 3e3d
00000070: 70e5 5b3d 25e4 4e3c f203 b83d d823 803c
00000080: ac94 48bc 8a2c 633d 33de a43c 5dec 51bd
00000090: ea54 ac3d 461a 68bd ac8a af3d d91a 3dbd
000000a0: 15cb b03d 189e b13d 2086 2c3c c5d3 b3bd
000000b0: 14b2 9e3d c42e 9f3d 771e e33d 8ca9 c93d
000000c0: 2aa5 593d a159 59bd 8a9d 5fbd a5e9 21bd
000000d0: 94a7 213c 2506 9bbd fb23 b43b 250d b33d
000000e0: 9ebd c13c 4a02 083d 8110 86bd cce2 3e3d
000000f0: adb9 f23d f387 54bd 2a45 f6bc 6775 8e3c
00000100: 84b6 d93d 410c 9d3d 461c a9bd 4624 6dbd
00000110: 3a81 cb3d dc2b fbbc 0727 a43d 719b 52bd
00000120: dfe8 6a3d 3d19 793d 49ec 3b3d 6e79 97bd
00000130: ca83 89bd e645 a7bc 5f23 5e3d 7bc1 30bd
00000140: 3005 5ebd ebb4 bf3c c9ec f7bc 07dc 38bd
00000150: 815b 8cbd 6a4b 74bc 2110 bb3d 4f25 333d
00000160: e6b6 8b3c 5ab7 88bd 57ff 0bbd 9004 e23d
00000170: 03a2 e0bc 32b8 a7bd 8bdd 66bd d72e bb3d
00000180: aaf4 2dbd cd4a 81bd ac06 d93a f542 e43b
