Amos/Z10.pth (torch, 185583 bytes, 7 tensors)

fc1.weight f4 [100, 52]
00000000: 1933 cc3d 036d 663d 5de2 12bd 9d57 e23d
00000010: 737d eebd 5a51 623d 9153 d73d a8a3 553d
00000020: 8ff9 5e3d e670 333d 1a83 a6bc c6d9 983d
00000030: 387c 97bd f1ef 6d3d 24de 91bd 429f fe3d
00000040: 921b db3d 8064 093d f028 0e3e a0b9 f0bd
00000050: d664 a43d 5ba8 033c 3157 e63d 4409 ff3d
00000060: 3311 f5bd 3b4b 16be 6c49 983d 9930 07be
00000070: 6ef4 073e e5e5 003e c201 f2bc 6815 06be
00000080: d61d 0e3b eba3 e63d 0c6b d9bd d002 ac3d
00000090: 4b86 353d 56d5 303d 40aa 2d3c c2af 7dbd
000000a0: b187 0dbd 00b5 57bd c3ad 0bbe a7af aebd
000000b0: 4e33 063e 1435 8e3d a5b0 6f3d 75da 053e
000000c0: 9841 a6bd cc56 dc3d 086d 04be 09cf ff3d
000000d0: 5dcc df3d 1c9e 023e 55d8 cd3d 4a61 753c
000000e0: bd03 27bd fc84 04be 816a 91bd 6f3b aabb
000000f0: e4e6 74bc 59e1 cc3d c148 29bd 5432 3cbd
00000100: 977b 0dbc d371 9e3d 8eb9 56bd 0000 183c
00000110: 58c7 143c e2bb 343d 1d3e 50bd d24b 94bd
00000120: 0c23 3ebd dc1b 76bd 883f d13d 0a00 bf3d
00000130: 3820 b8bd 4150 f1bd ddd2 a8bd ca1c d93d
00000140: 71fb 94bd f646 a2bd 6b4e fbbd e69c e93d
00000150: ef1e c93d aa18 8e3c 3ebf 853d e6ba aabc
00000160: e4eb 82bc 3308 11be f290 0a3d c769 103d
00000170: 813d da3d c9ef 19bd 61ec 8f3d 2b61 a43d
00000180: 4932 153c 4e5a 853c c4fe 673d 8392 ac3d
00000190: 9196 67bd 1c7a 86bd affe 153d 86a9 43bc
000001a0: d8de 313c 7584 c4bd 9826 cdbd 87ea 5cbd
000001b0: 6607 7c3d b3a3 b5bd 5273 d1bc d728 d63d
000001c0: 2a6c 063c 45a7 6cbd 07f4 9a3c 6a0a 59bd
000001d0: d7dc 253c 77f9 adbd 0a07 903b b1dc e53d
000001e0: c6ab 04be ff6c ef3d 0b57 0d3d ea86 55bd
000001f0: a98f c1bd 1c5b 423d 4f31 033e 6d0a 243d
00000200: ca4c 403c 11d4 cf3d a442 45bd 5c16 0a3e
00000210: 5c75 a63d 3d73 f2bd c9c8 fdbd e8c3 093e
00000220: 1fe2 bd3c 4ee3 32bc eac6 eb3d 7971 05bd
00000230: 1c1d eb3d 76fc b6bd 2c1b 04be e462 73bd
00000240: 1f31 d9bd e7e1 c7bd bd89 80bd e74f 8d3d
00000250: a51b 0abc 3adc aa3d 37f6 fe3d d665 023e
00000260: 181d 85bb 8e66 05be a543 d8bd 39d4 013e
00000270: e122 ddbd 5631 d83d bbdb babc 60ea 043e
00000280: 99ae 2d3d d224 3cbd c2a4 d33d 4c43 413b
00000290: d6b4 dfbd 4750 edbd 04e6 e43c eb81 883d
000002a0: c54b bebc 3604 b1bd 66f8 babc af6d 01be
000002b0: 483a 89bd aa62 93bd ecb1 d33d b177 fdbd
000002c0: be1c dc3c 2156 e53d 7d32 373d 3a7b e1bc
000002d0: eac3 863d a99b 703c a627 113d e4fa ad3d
000002e0: 1a23 8f39 09a9 f33c 60eb f73d 896e 4cbd
000002f0: 0397 d3bc 5892 9fbd a26c b0bd a7cc 63bd
00000300: c483 c7bd b6c9 7b3d 3dcf 27bd b0db 0cbd
00000310: c963 523d 1586 e63d 3fa1 e43d cf65 a93d
00000320: 24ce 81bd 8d37 ee3d 5fb2 253d 0c0b 783d
00000330: cf83 74bb 588b 943d a1cb 003e a030 dabd
00000340: bb2e fb3d 2881 c03d 1135 6ebd fcf1 b13d
00000350: 4a2b 9bbd a956 e1bc 5a68 ac3d 6df6 8cbd
00000360: 9be8 323c 5fc2 00be 5f7c 893c cf2d 80bd
00000370: 06dc 98bd 5c7d bdbd 9cb2 08ba 15b0 bb3d
00000380: 2b1a 903d 22c8 5137 1604 5ebd c5fd f0bd
00000390: c5ef abbd fb84 9c3d 606d 0a3d 0f67 a6bd
000003a0: 06a2 8a3d fb27 a13d 9971 543d 8cae 9fbd
000003b0: a207 063e 3ec7 743d f3d1 04be 8083 00be
000003c0: 2947 fe3d a3a0 f33d 643b 8dbd eb90 b1bc
000003d0: bd6d a9bd 094e 06be 3c92 04be de69 87bd
000003e0: c8dd f5bd 711d 953d fa04 dcbd 4b22 b83d
000003f0: 86d9 e73d bdca 073c 8681 8e3b 61ee 58bc
0.099706836 0.056256305 -0.035860408 0.11051867 -0.11645021 0.055253364 0.10513986 0.052158028
0.054437216 0.04380884 -0.020326186 0.07463412 -0.0739674 0.058090154 -0.07122448 0.1243272
0.10698618 0.03354311 0.13882804 -0.11754155 0.080270454 0.008035745 0.11247099 0.12452939
-0.11966171 -0.14677136 0.07435879 -0.13202132 0.13276836 0.12587698 -0.029541854 -0.13094103
0.0021685264 0.112617336 -0.10616121 0.08398974 0.044317525 0.043172203 0.010599673 -0.061935194
-0.034553234 -0.05266285 -0.13640504 -0.08529597 0.13105509 0.069437176 0.05851807 0.13071616
-0.0811798 0.10758743 -0.12932217 0.12490661 0.10927651 0.12755626 0.10051028 0.014976809
-0.04077505 -0.12941355 -0.07100392 -0.0051950733 -0.014947627 0.10003919 -0.04132915 -0.045946434
-0.008635423 0.07736554 -0.052423052 0.009277344 0.00908073 0.04412449 -0.050840486 -0.07241024
-0.046420142 -0.060085163 0.10217196 0.09326179 -0.0899052 -0.11782885 -0.08243344 0.10601194
-0.07274521 -0.07923691 -0.122708164 0.11406879 0.09820353 0.017345745 0.06530617 -0.020841073
-0.015981622 -0.14163284 0.033829637 0.035257127 0.10656262 -0.037582193 0.070275076 0.08026346
0.009106227 0.016278412 0.056639448 0.084263824 -0.056540076 -0.06566259 0.03661984 -0.011942273
0.010856353 -0.09595577 -0.10017127 -0.0539346 0.061530493 -0.08869114 -0.025567684 0.10457008
0.008204499 -0.05777671 0.01891519 -0.052988447 0.010123453 -0.08494847 0.0043953704 0.11223734
-0.12956151 0.11690711 0.03450684 -0.052130617 -0.09451229 0.04745017 0.12811778 0.040049005
0.011737058 0.1014787 -0.048159257 0.13485092 0.08127853 -0.11838386 -0.12391812 0.13453639
0.023179112 -0.0109184515 0.11512549 -0.03257892 0.114801615 -0.08934872 -0.1290099 -0.05942048
-0.10605072 -0.09759884 -0.062762715 0.06900006 -0.0084294425 0.08342786 0.124493055 0.1273416
-0.004062306 -0.13027403 -0.10559777 0.12678613 -0.10797668 0.10556285 -0.022809854 0.12980032
0.042402837 -0.045933552 0.103341594 0.0029489575 -0.109231636 -0.11587577 0.027941711 0.06665405
-0.02322949 -0.08643381 -0.022823524 -0.12639497 -0.067005694 -0.07196553 0.1033667 -0.12376345
0.026869174 0.111980684 0.044725884 -0.02752458 0.065803364 0.01468555 0.035438202 0.08495119
0.00027301238 0.029743688 0.12105441 -0.049910102 -0.025828844 -0.07791585 -0.0861447 -0.055615094
-0.09741929 0.061471663 -0.040969122 -0.034389198 0.051364694 0.11256043 0.11163568 0.082713716
-0.06338146 0.11631689 0.04045331 0.06055741 -0.003731001 0.0725314 0.12577678 -0.10653806
0.122647725 0.093996346 -0.058156077 0.08688733 -0.07576616 -0.027507143 0.08418341 -0.068829395
0.010919715 -0.12574147 0.016782938 -0.06258737 -0.07463841 -0.09252426 -0.0005214603 0.09164444
0.07036241 1.2503968e-05 -0.054203115 -0.11767153 -0.08395342 0.076425515 0.033795714 -0.081251256
0.06769185 0.07868954 0.051866148 -0.07796964 0.13088849 0.059760325 -0.12970714 -0.12550163
0.124159165 0.118958734 -0.068960935 -0.021675548 -0.08272884 -0.13115706 -0.12946409 -0.066119894
-0.12005192 0.07281006 -0.10743137 0.08990916 0.11320786 0.008288083 0.0043489365 -0.013240428

fc1.bias f4 [100]
00000000: e834 183d 62b9 05be d3d6 d5bd 72c0 293d
00000010: 6832 b13d 6ccf cc3d 7f16 b8bc 0c5b 483d
00000020: d02f 02be bed8 073e e8d3 29bd d51c c73c
00000030: ef31 cf3c b859 0dbe dad9 90bd ef12 edbc
00000040: 3ecc 2ebd 8eb7 86bd 9974 b63d f18e 88bd
00000050: 940a 2cbd 9220 963d d580 0a3e d86d cd3d
00000060: 2387 d73c 0d6a d7bd 2c7a 523d 7be7 f6bd
00000070: 3d12 db3d 329f 743d 4110 02be 1c55 dd3c
00000080: c5fe e43d 6c8d ed3d 6df3 d73d 724b 8fbd
00000090: a37b c0bb 1766 713d 1ec9 c2bd f747 07bb
000000a0: 9ea6 4abd 49ad d6bd 5727 033e adfa a6bd
000000b0: 5306 e6bd 34da 0ebe 1acc 023e 96a2 36bd
000000c0: 55f0 543c 99cd 0abd 3260 083e c4c8 acbd
000000d0: 40e1 6fbd 81c5 5abc dcef 0e3c 132b b4bd
000000e0: 2670 393d c8b7 b7bd 86b7 94bd ae3d 673d
000000f0: 5a3b 91bd a2de d53d b57a ffbd 8b7e 55bd
00000100: 59c6 713d 8cd4 25bc 9019 b63d 973b 213c
00000110: f99a 88bd b788 033e aa30 37bd 3011 853d
00000120: 4e89 b73c f074 3f3d 0503 ddbc d403 06be
00000130: a245 5d3d eb45 b03d f351 c13d c7c6 0e3e
00000140: 311c 08be bdf3 8c3d 5856 073e 616b f63d
00000150: e5f5 aebd d115 0f3e 1dea fa3d 10b5 0dbe
00000160: 371c 9cbd 5c66 59bd 5795 963c fa80 963d
00000170: 6bd7 5b3b 71ab f13c a565 4b3d 4f6a 803c
00000180: 3e02 813d ab64 143e 34d4 553d eb92 e53d
0.03715983 -0.13058999 -0.10441365 0.041443296 0.08652192 0.100005 -0.022471664 0.048914954
-0.12713552 0.13266274 -0.041461855 0.02430574 0.025292365 -0.13803756 -0.07072802 -0.028939692
-0.04267525 -0.06577979 0.08908958 -0.06667889 -0.042002276 0.07330431 0.13525708 0.10030717
0.026309555 -0.105182745 0.051386043 -0.1205587 0.10696838 0.059722133 -0.12701513 0.027018122
0.11181406 0.1159924 0.10544477 -0.06996812 -0.0058741136 0.05893525 -0.09511016 -0.002064226
-0.049475305 -0.1048227 0.12807976 -0.08153281 -0.11231675 -0.13950425 0.12773171 -0.044588648
0.012996753 -0.03388748 0.13317946 -0.084367305 -0.058564425 -0.013352753 0.008724179 -0.08797278
0.04527297 -0.089706 -0.07261567 0.056455307 -0.070913985 0.104428545 -0.124745764 -0.052122634
0.05902705 -0.010121476 0.088915944 0.0098408675 -0.06670184 0.12845121 -0.044724144 0.06497419
0.02240434 0.04674238 -0.026978979 -0.13087398 0.054021485 0.08607086 0.09439459 0.13943015
-0.13292004 0.06882427 0.13216531 0.120322 -0.085429944 0.13973166 0.12251685 -0.13838601
-0.07622569 -0.053076133 0.018381758 0.07348819 0.0033545147 0.029500695 0.049657483 0.015675692
0.06299256 0.14491527 0.052204326 0.11209663

fc2.weight f4 [200, 100]
00000000: a08f 493d cca6 403b 7a49 8fbc 06da 1a3d
00000010: c2f6 813d 76f9 18bd c8ce a43d 1eab b3bd
00000020: f4cc 9e3d 49a3 c8bb 5113 d5bc d209 bf3c
00000030: 2722 a73d dbfb a63c fc9b 51bd bd14 753d
00000040: 976e c5bd 150b 503d e1fc 67bd 06e7 7bbd
00000050: 1c9b bb3d de2c 8cbd 4cc1 1c3d cabf 38bc
00000060: a110 db3c c764 8d3d a366 39bd de79 9ebd
00000070: f801 85bd ab81 75bc f325 a03d 68d2 3e3d
00000080: d151 c2bc 0341 4fbd 541e bcbd c24d 283d
00000090: 9b18 f9bc e509 1bbc 0720 abbd b42c a93d
000000a0: 5d1f cabd 9071 70bc 33e2 23bd 1df3 55ba
000000b0: 2f49 bebd 4c87 cc3c 9e75 b43c 40d5 c53d
000000c0: 2099 88bd a639 5ebd eb61 aabd e802 d0ba
000000d0: 593f af3d 932b b9bd 3223 95bd f219 4a3d
000000e0: 031c 1abd f646 613d 0fea 9abd 47e6 a2bd
000000f0: 4a94 dfbc fcf2 a8bd cbac 593d b969 4abd
00000100: 2d0b 393d 38fe 20bd 4a3d cabd 3b6f 56bd
00000110: a34f 64bc d8db 84bd 42bc b73d c2c5 0bbd
00000120: b76b bfbd c40c 88bd 9978 b83c 4896 81bd
00000130: 4722 8ebc f4a0 6c3d d23a 92bd 30c1 79bd
00000140: d378 cabc 9bf7 1a3b a28b d7ba 01e9 15bd
00000150: 3618 babd 8f29 33bd 1dd7 a9bc 82b7 44bd
00000160: 1418 64bd a49b 7d3c 555d 3f3b ee2e 8b3a
00000170: fad9 c6bd b04b c6bd c79e 48bd f99a b53d
00000180: e289 c5bd d7f8 a1bd 3faa 9abd 86d2 a4bd
00000190: 3881 29ba 6f83 5b3c 230d 4cbd 77aa a8bc
000001a0: 8880 9bbd db4b 87bd d984 a63d da62 bd3d
000001b0: 7478 6d3d 7e6f 763d 1f24 aeba ecb3 a2bd
000001c0: 54f5 5f3d d124 883d 4a0a 84bd 5019 b8bd
000001d0: 4fd2 c8bd a245 233c 9c64 b8bd 5afc 653d
000001e0: e964 c4bd 66b2 87bd 7d80 a0bd 35cc cbbd
000001f0: fbbe b6bc 7d6d 393d ea06 b53d 931e 383c
00000200: 48d3 19bd ba21 9f3d 4f46 cc3c a68f 083d
00000210: d0c5 abbc 3afd ecbb e6cb 993d 7159 35bb
00000220: b9a7 9cbc 0f51 d43c 2dd1 22bd 0d6c 87bd
00000230: 5bed 60bd cba5 e13c 7da9 9ebd d010 8dbb
00000240: 91cb 8d3d 5fde 4bbd d314 a8bd fb58 32bc
00000250: 0f73 ab3d d702 6d3d 8929 89bc 8d96 853d
00000260: 7ff0 6a3d 6d58 863d b0be a63c 6327 ccbc
00000270: 964f 0ebc 90c4 5a3d 5c94 76bb 0641 04bd
00000280: fc93 953d 05ba bf3d db79 28bd ba7d 1fbd
00000290: 77d1 72bd b02a 92bd 33e8 773d 8bc5 ab3d
000002a0: 3dcb 553c e671 6abc 19a6 b33d 8e9e 7ebd
000002b0: 040b 283d cc9f 873d 5f12 363c 0206 b43c
000002c0: 787e cabd bc94 bc3c 9ac4 aebd 964d 7d3d
000002d0: 3d18 e9ba 01bf 283d 9756 ad3d 01d3 bf3d
000002e0: 23e0 943c 9f55 b53c 7a2e d33c 9c63 913c
000002f0: 43e3 ecbc ece9 8abd 6f57 e43b 7673 e9bc
00000300: 0297 283d b2b8 06bd d0b5 4ebc 7177 c73d
00000310: 2e31 6c3c cde9 573d 5e63 de3c 032f 8bbc
00000320: f935 863d 722d 9b3d c0cc c8bd 5bbd c2bd
00000330: 04df a13d 62de a8bc a515 4ebd f72b 13bd
00000340: 06aa f3bb 153f 413d 6eb4 9dbd 9c23 b73d
00000350: 664c e4bc 6b35 98bd 6377 97bb ebe5 7ebd
00000360: 243d 6a3d 2f17 8abd a8c9 3f3d 95d8 23bd
00000370: 51f6 cd3d c538 043d 9768 93bd 3ac3 84bd
00000380: 08c9 253d 84fb bbbc 20d5 9c3d 6701 80bd
00000390: cd5d ea3c 4b9c ab3d 1141 803d a3ef 9d3c
000003a0: 13ed 99bd 9033 1cbc 9c49 b43d 4dac 9c3d
000003b0: 15ae 85bc 5ad7 b33d d231 8f3d 7ee9 37bd
000003c0: 3b28 db3c 473a a93c 50ea b03d 2aa2 bf3d
000003d0: 66d4 bb3d a848 3cbd 75e2 a3bc c8d5 abbc
000003e0: f63a 8bbd fffe c83d 7345 a93a aa50 933d
000003f0: 61bd 5e3d 4e80 97bd 7e99 0c3c 3e86 ed3c
0.049209237 0.0029396294 -0.017491091 0.03780558 0.063458934 -0.03734728 0.08047253 -0.087728724
0.077539355 -0.0061229807 -0.026010187 0.023320112 0.08160811 0.020383766 -0.05117415 0.05983423
-0.09640234 0.05079182 -0.05663765 -0.061499618 0.09160444 -0.06844495 0.03827028 -0.011276195
0.026741328 0.069039874 -0.045263898 -0.07738088 -0.06494516 -0.0149845285 0.07819738 0.046587378
-0.023720654 -0.05059911 -0.09185472 0.04108978 -0.03040724 -0.009462808 -0.08355718 0.082604796
-0.09869263 -0.014675513 -0.040010642 -0.0008161532 -0.092913024 0.024966858 0.02202874 0.09659815
-0.06669831 -0.054254197 -0.083194576 -0.0015870007 0.085570045 -0.09041514 -0.072821036 0.04934115
-0.03762437 0.054999314 -0.075641744 -0.07954078 -0.02729239 -0.082494706 0.053143304 -0.04941723
0.045176674 -0.039304942 -0.09874971 -0.05235217 -0.0139350025 -0.06487244 0.08971454 -0.034124143
-0.09346717 -0.0664306 0.022518443 -0.06327492 -0.01735033 0.057770684 -0.07140125 -0.060975254
-0.024715817 0.002364612 -0.0016444812 -0.036599163 -0.09086649 -0.043740805 -0.020732457 -0.04802657
-0.055687025 0.015479002 0.0029199917 0.0010618845 -0.097095445 -0.09682405 -0.048979547 0.08867449
-0.0964544 -0.079087906 -0.07552003 -0.08047967 -0.00064660935 0.013398035 -0.049817216 -0.020589096
-0.07592875 -0.06606265 0.081308074 0.0924737 0.0579762 0.06016492 -0.0013285911 -0.079444736
0.054677323 0.06647647 -0.06447275 -0.08989203 -0.09805738 0.009965332 -0.09003565 0.056148864
-0.095895596 -0.06625824 -0.07837007 -0.09951059 -0.022307863 0.04527043 0.088392094 0.011237758
-0.03755501 0.07770105 0.02493587 0.03334012 -0.020968348 -0.0072323354 0.07509594 -0.002767172
-0.019122945 0.025917558 -0.039750267 -0.06612406 -0.05491386 0.027544877 -0.07747171 -0.0043049827
0.06923593 -0.049772616 -0.08207097 -0.010885472 0.08371555 0.057864036 -0.016743438 0.06522856
0.05735826 0.06559835 0.020354599 -0.024921125 -0.008685967 0.053410113 -0.003762505 -0.032288574
0.073036164 0.09361652 -0.041131835 -0.03893826 -0.059281792 -0.07137048 0.060524177 0.08387288
0.013048944 -0.014309382 0.08771915 -0.06216293 0.04102613 0.06622276 0.011112778 0.021975521
-0.09887403 0.02302014 -0.085335925 0.06184157 -0.0017783713 0.04119778 0.08463781 0.09366418
0.018173283 0.022135554 0.025778998 0.017747693 -0.02891696 -0.06782898 0.0069684307 -0.028497439
0.041159637 -0.032890983 -0.01261659 0.097395785 0.014416022 0.052713204 0.027146991 -0.01699019
0.06553263 0.075770274 -0.09804678 -0.09508773 0.07903865 -0.020613853 -0.05031361 -0.0359306
-0.00743604 0.0471793 -0.0770043 0.08942339 -0.02786846 -0.07432064 -0.0046223863 -0.062230986
0.057187214 -0.06742703 0.046823174 -0.04000147 0.10056747 0.032280702 -0.07197683 -0.06482549
0.04047492 -0.02294708 0.07657838 -0.062502675 0.02860918 0.0837942 0.062624104 0.019279307
-0.075159214 -0.009533778 0.088031024 0.07650051 -0.01631836 0.087813094 0.06991924 -0.04490041
0.026752582 0.020657672 0.086384416 0.09357102 0.09171371 -0.045967728 -0.020005444 -0.020975962
-0.06798355 0.09814262 0.0012914374 0.0719312 0.054379825 -0.07397519 0.008581517 0.028994676

fc2.bias f4 [200]
00000000: b0ee b83d 95e2 c8bd 210d b5bd c317 9d3d
00000010: 15b5 a83c 723b c7bc d3e7 b73d 99d3 f3bc
00000020: e14c b03d 2d3b 7e3d 515e 2ebd 291d 053d
00000030: 15e9 e9bc 6bc6 7abc 98c8 efbc 9013 4cbd
00000040: 277f ce3c 75b2 bd3d c0b2 2ebd f074 3c3d
00000050: 9313 0abc c459 803c db9c 723c 4b61 f6bc
00000060: d2f1 2d3c ee5e e2bb b86f debc bfe8 973c
00000070: 6a4f bebd afa5 b93c 25e4 a93c db83 843c
00000080: d394 ad3c 6cea d73c 5c3d 463d 811b c33a
00000090: 8b01 403d 1f29 cd3d fc69 7a3d 56aa 4f3d
000000a0: 80e9 683d 85dd 213c 720e 023d 7df5 88bd
000000b0: 2c31 c63c f860 4b3d 9140 8a3d d270 983d
000000c0: 0a67 3bbd 90d9 223c c344 103d c40d 3a3d
000000d0: 76d1 b8bc 6876 f0bb a4d9 a63d 16ea 413d
000000e0: ac43 c13d d101 2a3d 837d 5e3c d002 91bd
000000f0: 543f f2bc c17e 82bd a8d8 f23c bfff 383d
00000100: 4c43 913c 6a7c 693c d47d 013d 8c80 8d3d
00000110: c7fa 01bd 60c6 2b3d c56a 7abd 30dc c3bd
00000120: c84e 3cbc 769e 25bd 5336 673b dde1 953d
00000130: 80f0 463d 6b70 2a3d cb62 a0bd 8d71 13bd
00000140: 2581 cabd 3522 9f3d 5a3d 8f3c 1473 9c3c
00000150: c24b 84bc cabc e2bc fc4e acbc 4970 cabc
00000160: 63f0 a03d 5a13 afbd 99ab 0fbd ac44 ca3c
00000170: df77 d3bc 611f b43d 813f c0bd 0304 ad3c
00000180: 5da4 93bc 4fb3 23bc 7bb5 86bd df4f 003d
00000190: 84ab b13d dd32 fe3b 5c86 93ba 4712 80bc
000001a0: 2aa2 9fbd f07b 3b3b bd2f cabc 9657 89bd
000001b0: 5a34 373d 23f4 b1bd a543 c2bd 4453 79bd
000001c0: 215f c2bc dab3 46bd 457b 8d3d 00b4 babd
000001d0: 6a7e 2d3b f8a5 673d 1b34 6fbd 2542 cf3d
000001e0: e0fa 2eba 5b01 d23c 8a5c c33b 5ac8 793d
000001f0: 5729 873d a247 abbd 6e8e 08bd de14 b03d
00000200: eea1 4dbd 22fa babc f9d9 863c f6c7 643d
00000210: 4253 a1bd 2701 c93d 0f9d 66bd 8fca 59bd
00000220: 857f 8cbb ffdc 573c 4426 8cbc e510 a8bc
00000230: ea14 47bd 2e41 873d f18e 973c af21 7a3d
00000240: 3896 c23d 96cb c73d d06e 773d 07da a93d
00000250: c695 96bd e243 4dbd 6e20 8dbd 1af3 c13c
00000260: 8029 a03d 056b b8bc 0fbd c2bd 0e9a bdbd
00000270: 4b31 a13c 2102 5cbc 1c2f b7bd 7654 18bd
00000280: 0c3c df3b b3ae 5e3d 19d9 823d 3270 043a
00000290: ecb3 4eba ecd8 9e3d f139 4cbd fb5b 99bc
000002a0: 1e80 4dbd 0572 36bd 2bb7 b33c e475 a9bc
000002b0: 4982 c93d 3aec 873d f869 2b3d 1d68 173d
000002c0: 5bdc aa3d bfc0 a23c 4849 ff3c 82f7 8dbc
000002d0: db8d b03d 5fb0 a93d 0fca 913d ce46 983d
000002e0: d65d 03bd e7e7 c23c 1c0d 9dbd 917f 8c3d
000002f0: 592e 03bd de63 5d3d 5ea8 913d 6ace dabc
00000300: a650 71bd de06 5bbc 3b8e 86bd bc43 b33d
00000310: 54b7 323d eb7b 64bd 64b1 8bbd 770f 89bd
0.09029901 -0.09808842 -0.08840395 0.07670548 0.02059416 -0.024320338 0.08979764 -0.029763984
0.086084135 0.062068153 -0.042570416 0.032498512 -0.028553525 -0.015306096 -0.029270455 -0.049823344
0.025207115 0.092625536 -0.042650938 0.046009958 -0.008427518 0.015667804 0.014807905 -0.03007569
0.0106167365 -0.006908289 -0.027152881 0.0185436 -0.09292491 0.022662012 0.02073867 0.016176155
0.021189129 0.026356898 0.04839836 0.0014885516 0.04687647 0.10017609 0.06113623 0.050699554
0.056863308 0.0098794745 0.031752057 -0.06687448 0.024193369 0.049653023 0.06750596 0.07443394
-0.045752563 0.009939566 0.035221826 0.045423284 -0.022560816 -0.007338334 0.081469804 0.047342382
0.094367355 0.04150564 0.013579729 -0.070806146 -0.029571213 -0.06371833 0.029644325 0.045165773
0.017732285 0.014250854 0.03161414 0.06909284 -0.0317333 0.041937232 -0.06113698 -0.09563482
-0.011493392 -0.040434323 0.0035280182 0.073184706 0.048569202 0.041611116 -0.07831343 -0.035996962
-0.098879136 0.07770196 0.01748531 0.019097842 -0.016149405 -0.027677912 -0.021033756 -0.024711745
0.0785835 -0.08548613 -0.035075758 0.024690948 -0.025813995 0.087950476 -0.093871124 0.021120077
-0.01802271 -0.009991481 -0.065775834 0.03132617 0.08675292 0.007757528 -0.0011255252 -0.015633715
-0.07794602 0.0028607808 -0.024680967 -0.06706159 0.04472766 -0.086891435 -0.094855584 -0.060870424
-0.023727002 -0.048511364 0.069082774 -0.091163635 0.0026473054 0.056554765 -0.0583993 0.10120038
-0.00066749565 0.025635412 0.0059619593 0.060982086 0.06599682 -0.08363272 -0.033338957 0.0859773
-0.050203256 -0.02282435 0.01646136 0.05585476 -0.07877208 0.09814673 -0.056302126 -0.05317169
-0.0042876625 0.013175248 -0.01710809 -0.020515868 -0.04860393 0.06604229 0.018500777 0.06106728
0.09501308 0.09755628 0.060408413 0.082935385 -0.07352786 -0.050113566 -0.06890951 0.02367549
0.078204155 -0.022511968 -0.09508716 -0.09257899 0.019676825 -0.013428242 -0.08944532 -0.037189923
0.006812578 0.054365825 0.06389064 0.0005052119 -0.0007885087 0.07756218 -0.049859945 -0.018720618
-0.05017101 -0.04454233 0.021937927 -0.020686097 0.09839303 0.066368535 0.041849107 0.036964525
0.08342811 0.0198673 0.031162873 -0.017329935 0.08620807 0.08285593 0.07118618 0.0743538
-0.03207191 0.02379222 -0.07668516 0.06860269 -0.032026622 0.05405032 0.071121916 -0.026709754
-0.058914803 -0.0133683365 -0.06570097 0.08753154 0.043631867 -0.05578224 -0.06820944 -0.06692403

fc3.weight f4 [100, 200]
00000000: 1682 1d3d 04f3 323d f59c 113d c39e 0fbd
00000010: e0b5 673d fffe 7e3c 447f 643d 492f bb3b
00000020: c88e d8bc e296 943b 0ede 38bc 0b87 27bc
00000030: 63e6 b0bc 7517 5a3c 308a 2e3d ec25 3e3d
00000040: 1769 4d3d c5c8 923d 7fe6 e7bc 3f75 c8bb
00000050: 9bd4 c73b 04ba b13c 8cda a73c a421 c1bc
00000060: 0932 7fbc fb95 b4bc 9de5 73bd 53d7 303d
00000070: 8cce 663c 3abc 6f3d a9fc 6bbd 5a8d 01bd
00000080: 593e ca3c c6bb 71bd 513d c3bc be8b 72bd
00000090: 1737 8bbd f26c 82bd 2ead 07bd cb82 6a3c
000000a0: 02bf 1c3d d4be be3c 955b 273d 7c28 27bc
000000b0: a9ab 093d 16fe 813d 4dbd 843c e22e 823d
000000c0: e6aa 143d 7312 963d c9ac 82bd 00f6 fcbc
000000d0: f284 5abc 3e39 843d 3dbc 7abd 9d15 e13b
000000e0: eff8 94bc 0ebf c53c a8a0 57bd 7838 76bc
000000f0: 78a5 6c3d afe7 87bd af74 d23c 58c4 5dbd
00000100: 2733 cd3b 5f96 6b3d 4b42 04bd db64 533d
00000110: 09aa edbb 640a cebc 1b01 debc 5b4c 003b
00000120: fbcc 86bd 6c29 82bd 0a8d 6dbd d3ba 15bc
00000130: db41 8f3c d36e 4fbc bc8c 34bd c694 3cbd
00000140: f72e babc 5fad 2f3d 1769 413d ab14 8f3d
00000150: 8aff 1e3c 3221 593c f2ec 39bc bd9f 0e3d
00000160: 825a 953c b710 7dbd ace7 12bd d3e0 003c
00000170: c6f9 423d 0bde 523c b058 51bc 6f51 eb3c
00000180: 4923 dd3a f92a 993d c380 7a3d d587 f33c
00000190: e24f 2d3d 122d 3a3d 6225 90bd d4b5 23bd
000001a0: 566e b03c d9c0 53bd 1d43 7d3d e65d 873c
000001b0: 3dfa 4cbd 2f4f afbc 92e5 333d 1d97 743d
000001c0: 452d 313d ea0e 4c3d 141b b4bc 755c 12bd
000001d0: 1ff1 e3bc 009c fd3c 68e9 29bd 534a 9bbb
000001e0: d0cf 8fbd 16c8 79bd c317 803d 6b7a 21bd
000001f0: 87f8 783c 1ce8 f93b 2b87 84bd 1d8a 583d
00000200: cfb8 09bd 9182 5ebd af12 ddbc 9d54 46bd
00000210: 2420 86bd 8804 2b3d 81b9 11bd ca21 66bd
00000220: 8378 653c 341d 4a3d a794 46bd 847e 0cbd
00000230: af61 63bc 7908 63bd 3df8 34bd fe4a 42bd
00000240: e4cb 1ebd 9d54 0cbd e681 ebbc f549 87bc
00000250: 285a 1c3d 30e1 d73b 4c5e aabc d005 fcbc
00000260: 1e86 e5bc fa78 1b3d 6ecd 873d d024 2fbd
00000270: 3c2c 423d c9ed 933d 588d 87bd 7d33 bdbb
00000280: 3e7d ec3c 4613 1c3d 56e3 2dbd b128 3f3d
00000290: db5c 48bd a7cf e2bc 82e9 4a3d 1ce9 293d
000002a0: be9b 2cbd c702 8abd 0363 1b3d c7da 183d
000002b0: 241d 233c 209d 3cbc e79e 8a3d c786 1a3d
000002c0: b754 213d cab4 27bd d3ad 4f3d 90af a83b
000002d0: c731 953c 03ea 163d ec73 0cbd 05e8 343c
000002e0: c167 73bd aab9 87bd 6231 633d 16cd 42bd
000002f0: a971 c2bc 1ed6 88bc f460 4ebd bc8f 62bd
00000300: c0d1 0ebd d0cc 063b a1a3 54bb af0c 933b
00000310: 8111 54bd e0cb 28bd e539 2cbd 9870 dfbc
00000320: 79e3 7c3c 0c01 2fbc aca3 093d fba5 313d
00000330: f834 fa3c d91e b0bc 8484 293d 7f63 ca3c
00000340: adde cdbb 0925 42bd b861 1a39 f42d 9ebc
00000350: 489d 153d 1a6e 763d 2f04 b1bc f004 4ebd
00000360: 6e7d 2dbc fb31 4fba d8c3 823d 7ddf 26bd
00000370: dea5 3ebd 88dd 91bd 81d3 603d 25a8 82bd
00000380: ba5f 4f3d 8b6b 66bd 0acd 6bbd e1ad be3c
00000390: 8cbb 74bc b3a6 88bd b13d 2ebd cc90 6bbb
000003a0: 1ac7 89bd baeb 31bb 08d9 47bd 1ba5 93bc
000003b0: 8360 673d 2b25 87bd 534f 3ebb 3151 393d
000003c0: 5aea 5f3d 42ea 61bd ca6d f23c 984f 423d
000003d0: be07 5a3c 0ccf 963a db85 643c 7b37 5cbc
000003e0: 69c6 4b3d 768c 46bc 3a88 323d 4f2c 3d3d
000003f0: 8ec7 8dbc 793b 8fbd 1ffe 733d 6abe 2dbd
0.038454138 0.04368879 0.035550077 -0.035063516 0.056569934 0.0155637255 0.055785432 0.005712424
-0.02643527 0.004534588 -0.011283411 -0.010225068 -0.021594232 0.013311257 0.042612255 0.046422884
0.05014905 0.071672 -0.028308151 -0.0061174924 0.0060983426 0.021695144 0.020489953 -0.023575611
-0.015575894 -0.022044173 -0.05954515 0.0431741 0.014087331 0.058529116 -0.057614002 -0.031628944
0.024687933 -0.059016965 -0.023832949 -0.0592153 -0.06797617 -0.06368436 -0.03312414 0.01431341
0.038268097 0.023284353 0.040858824 -0.010202523 0.033610974 0.06347291 0.016203547 0.063565984
0.036295794 0.07327738 -0.063806124 -0.03087902 -0.013337361 0.064562306 -0.061214674 0.0068690316
-0.018185107 0.024138954 -0.052643448 -0.015028112 0.05777499 -0.06635987 0.025690405 -0.054142326
0.0062622014 0.057516452 -0.032289784 0.051609855 -0.007252936 -0.025151439 -0.027100137 0.0019576761
-0.06582066 -0.06355557 -0.057995833 -0.009138781 0.017487457 -0.0126607 -0.044079527 -0.04604032
-0.022727473 0.04288995 0.047219362 0.06986364 0.00970448 0.013252543 -0.011347996 0.034820307
0.018231634 -0.06178352 -0.03586547 0.007866102 0.047601484 0.012870322 -0.012777492 0.028725354
0.0016871478 0.074788995 0.061157953 0.029727856 0.04231251 0.04545314 -0.0703838 -0.039968327
0.021536987 -0.051697586 0.061831582 0.016524266 -0.050043333 -0.021400062 0.043920107 0.059714425
0.043256063 0.04981891 -0.021985568 -0.035732705 -0.027824936 0.030958176 -0.04148236 -0.0047390847
-0.07022059 -0.060981832 0.06254532 -0.039423387 0.015195972 0.0076265465 -0.06471094 0.05286609
-0.033623513 -0.054323737 -0.026986448 -0.048420537 -0.06549099 0.04175237 -0.0355773 -0.056184568
0.014005783 0.049344257 -0.04848161 -0.034300342 -0.01387827 -0.055428002 -0.04418205 -0.0474348
-0.038768664 -0.03426038 -0.028748464 -0.016514758 0.038171917 0.0065881237 -0.020796917 -0.03076449
-0.028018054 0.03795717 0.066309795 -0.042759717 0.047405466 0.07223088 -0.06618756 -0.00577396
0.028868314 0.038104318 -0.042453133 0.046669666 -0.04891668 -0.027686907 0.049539097 0.041482076
-0.042140715 -0.06738811 0.03793622 0.037318017 0.009955678 -0.011512071 0.067685895 0.03772619
0.03938743 -0.0409439 0.05070288 0.005147882 0.018212212 0.036844265 -0.03429024 0.011041646
-0.05942512 -0.066272095 0.055467017 -0.047558866 -0.023735838 -0.016703662 -0.05038543 -0.055312857
-0.034868002 0.0020568855 -0.0032446163 0.004487596 -0.051774506 -0.041210055 -0.0420474 -0.027275369
0.015435093 -0.010681402 0.033603355 0.043371182 0.030542836 -0.021499084 0.041386142 0.024705647
-0.0062826485 -0.0473986 0.00014722988 -0.019309022 0.03652695 0.060163595 -0.02160844 -0.050297678
-0.010588987 -0.0007903871 0.063850105 -0.04074048 -0.046544902 -0.07122332 0.054889206 -0.06379727
0.0506284 -0.056254905 -0.057568587 0.023276271 -0.014937293 -0.0667242 -0.042539302 -0.003594446
-0.06727429 -0.002714856 -0.04879096 -0.018023064 0.056488525 -0.06598886 -0.002903898 0.045243446
0.054666854 -0.055155046 0.029593367 0.047439188 0.01330751 0.0011505797 0.013947929 -0.013440962
0.049749766 -0.012118449 0.043586947 0.046184834 -0.01730707 -0.069937654 0.05956852 -0.04241792

fc3.bias f4 [100]
00000000: 0fff 833d f3a1 64bd c59c e7bc d795 7dbc
00000010: 04a2 4b3d 62cd 4fbd 28d2 b23d 364b f4ba
00000020: 0c8d 273d dbde 8e3c d944 1dbd b7b7 a6bc
00000030: 4935 c83b d0b9 8e3d 3f18 e3bc 2aeb 00bc
00000040: 428f 20bd ae4c ce3c 7cb7 1b3d dd41 1cbc
00000050: c6c6 3ebd fcad 953c 0a00 813c ad6b a33b
00000060: d3d3 dcbc 6dcf 4c3d 74f2 df3b 686d 95bc
00000070: ebb7 f33b f3fd 763d aa53 f2ba 27c9 543d
00000080: 711a 9c3d fe77 903d c536 82bd 3910 17bd
00000090: 575b 05bc 3398 733d 6856 40bd 1fa3 493d
000000a0: e38a 2abd 71c2 5a3c ddcb 7abb 4642 43bd
000000b0: 0b22 3ebc 1fd5 4a3d 8122 323d aee0 8fbd
000000c0: f762 053d 7551 1d3d 75d1 3bbd 7931 c63c
000000d0: 8976 26bd 4aa0 1cbd 3c51 e8bc b6cc 8b3d
000000e0: ef58 eb3c ca15 a33b 47a9 743d 2ef2 85bc
000000f0: 0b6e eb3c 3a8f fd3c e963 80bd ade1 c03c
00000100: 1cfc cf3c 8af8 2ebd 8da9 c23c ce96 70bd
00000110: db8e 8cbd c558 ad3c 8747 6fbb efda dfbc
00000120: f506 95bc 0251 2cbd f2b9 8c3d a215 fc3c
00000130: 48f5 54bc f549 08bd 55e0 cebb b06e abbc
00000140: 6193 8bbd 72ca dcbc b3f2 713d 1c7c 503d
00000150: 902d 7e3c 40da cf3c a3aa 6e3d 3170 3cbd
00000160: d189 acbc f61d 17bd 24bc 32bd 415a 3f3d
00000170: 3688 213d d774 62bd 260e bbbc 67ef 593d
00000180: 0b72 8d3d e636 34bc cf87 423d 3ebf cb3c
0.06445133 -0.05581851 -0.028272996 -0.015477619 0.049715057 -0.050732978 0.087314904 -0.0018638137
0.040905997 0.01744025 -0.038395736 -0.020351274 0.0061098677 0.06969035 -0.027721522 -0.0078685675
-0.03919912 0.025183048 0.03801678 -0.009537187 -0.046576284 0.018271439 0.015747089 0.004987201
-0.026956474 0.050002504 0.0068343226 -0.018240646 0.007437696 0.06030078 -0.0018488069 0.051949646
0.07622231 0.07054137 -0.06358103 -0.036880706 -0.008139453 0.05947132 -0.046957403 0.04922783
-0.04163636 0.0133520225 -0.0038268485 -0.047670625 -0.011604796 0.049519654 0.043489937 -0.07025276
0.032565083 0.03840776 -0.04585405 0.024193512 -0.040640388 -0.0382388 -0.028359048 0.06826155
0.02872893 0.0049769627 0.059731748 -0.016350832 0.028738996 0.030952085 -0.06269056 0.02354511
0.02538877 -0.042717494 0.023762489 -0.05873757 -0.06863185 0.021160493 -0.003651114 -0.027326075
-0.018191794 -0.042069443 0.06871404 0.030772034 -0.012997933 -0.033273656 -0.0063133636 -0.020926803
-0.0681522 -0.026952002 0.059069347 0.05089961 0.015513793 0.025372624 0.0582682 -0.04600543
-0.02106181 -0.036893807 -0.043636456 0.046716932 0.03943654 -0.05528721 -0.022833895 0.053206827
0.069065176 -0.010999417 0.0474928 0.024871465

fc7.weight f4 [1, 100]
00000000: 7a09 aabd 3b98 083d 39b7 073b cde2 bbbd
00000010: 3552 ab3d 6c97 a6bd 82bb babd 87ed 12bd
00000020: a576 9ebd 1f55 58bd 60cd bfbd 75d5 6e3b
00000030: 68c5 a63d 4e78 593d 1772 96bd c36c 8a3d
00000040: d90c 553c 710d dcbc 0a44 d03c e663 103d
00000050: 92d5 093d 1f73 783d e86c a13d 18cf 943d
00000060: 2a64 17bc 2c16 0dbd c076 d2bc 6752 263d
00000070: a9ec 443d 0f3b 5ebc bb07 b53d 5851 03bc
00000080: 4a73 f2bc 134b 1f3d 731c 5c3c 3e5c 6cbd
00000090: 8781 ac3d 0454 9abd bc25 a83d 168f 46bd
000000a0: 7ece b03d b990 ae3d c498 173c 028c b3bd
000000b0: 2630 5a3d ac37 8a3d 845f be3d 8ca9 c93d
000000c0: f07e 2a3d b838 89bd 30a0 5fbd b98d 2ebd
000000d0: 14dd aebb feb5 b6bd 8c8b 84bb d575 723d
000000e0: 3745 0b3c 0081 073d 7571 b1bd 6767 3b3d
000000f0: 9403 953d e897 5cbd cff9 1abd 28b6 2abc
00000100: 9723 a13d e1cc 693d d59b afbd 99fa 76bd
00000110: ea7f cb3d dd50 32bd faa8 923d 7bb8 53bd
00000120: 1129 643d c222 783d b882 f03c f11f b2bd
00000130: 7bb2 a3bd 2c26 b4bc 760c 5c3d cac1 39bd
00000140: 3005 5ebd 68d4 bf3c 2fab 57bd b6d2 5abd
00000150: 2373 93bd 468e 12bd b6b2 923d e5e3 133d
00000160: 0c39 8b3c 2f21 87bd 0c16 0cbd b061 983d
00000170: d71a 3cbd c53c b2bd cd25 67bd 9247 863d
00000180: bd51 60bd 96cb 89bd 90d9 77ba 0132 8b3b
-0.08302589 0.033348303 0.0020708574 -0.09174118 0.08365289 -0.0813435 -0.091177955 -0.035871055
-0.077374734 -0.052815553 -0.09365344 0.0036443148 0.08143121 0.053093247 -0.0734598 0.06759026
0.013003551 -0.026861878 0.025423069 0.03525152 0.033650942 0.060656663 0.078821 0.072660625
-0.00924019 -0.034444973 -0.02569139 0.04060593 0.04807726 -0.013563885 0.08839365 -0.008014999
-0.02959599 0.038889956 0.013434517 -0.057705157 0.08423143 -0.07535556 0.08210322 -0.0484763
0.08633135 0.085236974 0.009252731 -0.08766939 0.053268574 0.067489 0.09295562 0.098467916
0.041624963 -0.06700271 -0.054596126 -0.042615626 -0.005336413 -0.08921431 -0.0040449556 0.059194405
0.008500389 0.03308201 -0.08664218 0.04575291 0.07276073 -0.053855807 -0.037835892 -0.010419406
0.07868116 0.057080153 -0.085746445 -0.060297582 0.09936507 -0.04353415 0.07161136 -0.051689606
0.055703226 0.060580023 0.029359207 -0.086974986 -0.07993027 -0.021990858 0.05372282 -0.045350827
-0.054204166 0.023416713 -0.052653488 -0.053423606 -0.07199695 -0.035780214 0.07162993 0.03610601
0.016994976 -0.06598126 -0.034200713 0.074405074 -0.045924034 -0.08702997 -0.056432534 0.0655662
-0.05476545 -0.06728284 -0.00094547216 0.0042479043
