Amos/Z11.pth (torch, 185583 bytes, 7 tensors)

fc1.weight f4 [100, 52]
000000 52 fe cb 3d dc ef 65 3d e5 f6 12 bd c6 4c e2 3d
       0.09960617 0.05613695 -0.03587999 0.110497996
000010 93 7c ee bd 38 84 62 3d 78 70 d7 3d f8 77 55 3d
       -0.116448544 0.055301875 0.105194986 0.052116364
000020 00 e1 5e 3d 73 34 33 3d c8 2e a6 bc fe cf 98 3d
       0.054413795 0.04375119 -0.020285979 0.07461546
000030 7a 83 97 bd 17 cf 6d 3d 21 e2 91 bd 8d 8a fe 3d
       -0.07398124 0.058058824 -0.07123209 0.1242877
000040 3c 0e db 3d 7e 5e 09 3d be 27 0e 3e fc c1 f0 bd
       0.10696074 0.03353738 0.13882348 -0.117557496
000050 5e 6c a4 3d 08 22 03 3c d9 8a e6 3d 6c 0e ff 3d
       0.08028482 0.008003719 0.11256952 0.12453923
000060 0a 02 f5 bd ff 58 16 be f9 48 98 3d 99 30 07 be
       -0.119632795 -0.14682387 0.074357934 -0.13202132
000070 66 f4 07 3e e1 e5 00 3e 72 03 f2 bc 42 14 06 be
       0.13276824 0.12587692 -0.029542658 -0.13093665
000080 1c 74 0d 3b eb a3 e6 3d 7c 6b d9 bd f1 01 ac 3d
       0.00215841 0.112617336 -0.10616204 0.08398808
000090 c5 86 35 3d 6f 2f 31 3d 4b 7b 2e 3c 27 74 7d bd
       0.04431798 0.043258127 0.0106495125 -0.06187835
0000a0 8d 45 0d bd 40 7f 57 bd 62 9c 0b be 26 8d ae bd
       -0.034490157 -0.05261159 -0.13633874 -0.08523016
0000b0 24 37 06 3e f7 4e 8e 3d 97 ac 6f 3d 75 da 05 3e
       0.13106972 0.06948655 0.058514204 0.13071616
0000c0 87 41 a6 bd 14 89 dc 3d 32 6b 04 be 03 d7 ff 3d
       -0.08117967 0.10768333 -0.12931517 0.12492182
0000d0 6c c0 df 3d 2f 1f 03 3e 3e d8 cd 3d ad 4a 76 3c
       0.109253734 0.12804864 0.100510105 0.0150324525
0000e0 79 5f 27 bd a3 76 04 be b3 78 91 bd 40 32 ab bb
       -0.040862534 -0.12935881 -0.071031 -0.005224496
0000f0 43 7b 73 bc f8 cf cc 3d 3c f6 29 bd 02 99 3c bd
       -0.014860931 0.100006044 -0.041494593 -0.046044357
000100 16 50 0e bc ad 74 9e 3d a3 8b 56 bd 98 ec 17 3c
       -0.008686086 0.07737098 -0.05237926 0.009272717
000110 d5 ed 14 3c a2 34 35 3d 29 0b 50 bd c2 6b 94 bd
       0.009089907 0.044239648 -0.050791893 -0.07247116
000120 c0 03 3e bd 2b c4 76 bd 87 3a d1 3d dc 34 bf 3d
       -0.046390295 -0.060245674 0.10216241 0.09336254
000130 fa ca b7 bd 6f 1a f1 bd 96 a9 a8 bd af 1c d9 3d
       -0.089742616 -0.1177262 -0.08235471 0.10601174
000140 49 f5 94 bd 7d 46 a2 bd 7c 4e fb bd bb 6f e9 3d
       -0.07273347 -0.07923601 -0.12270829 0.11398264
000150 98 09 c9 3d e5 36 8e 3c e9 bf 85 3d 6e 6e aa bc
       0.09816283 0.01736016 0.065307446 -0.02080461
000160 60 f8 82 bc f8 e2 10 be f9 d3 0a 3d 53 a5 10 3d
       -0.015987575 -0.14149082 0.03389356 0.035313915
000170 af 61 da 3d e8 ab 19 bd cb 07 90 3d 23 84 a4 3d
       0.10663163 -0.03751746 0.070327364 0.080330156
000180 2a 7b 16 3c 49 de 85 3c b0 fa 67 3d ad 91 ac 3d
       0.009184638 0.016341345 0.05663556 0.08426223
000190 96 93 67 bd 56 98 86 bd a9 fd 15 3d 63 bf 42 bc
       -0.056537233 -0.065720245 0.036618862 -0.01188645
0001a0 2d ca 33 3c eb 32 c3 bd 11 10 cd bd 28 db 5c bd
       0.010973495 -0.09531196 -0.1001283 -0.05391994
0001b0 2f 79 7b 3d 94 6a b5 bd 0c 46 d2 bc 82 18 d6 3d
       0.061394867 -0.08858219 -0.025668167 0.10453893
0001c0 7c 8e 06 3c 5e 14 6d bd 56 6e 99 3c 01 b3 58 bd
       0.008212682 -0.05788075 0.01872937 -0.052905086
0001d0 5a c0 24 3c 35 e9 ad bd 96 da 8d 3b 18 c4 e5 3d
       0.010055626 -0.08491746 0.004329036 0.112190425
0001e0 b7 95 04 be de 95 ef 3d 8b 69 0d 3d b4 be 55 bd
       -0.12947737 0.11698507 0.03452448 -0.05218382
0001f0 a0 6c c1 bd 55 d6 41 3d 90 3e 03 3e 4e 20 24 3d
       -0.09444547 0.047323544 0.12816834 0.04006987
000200 5c 95 3f 3c 93 fc cf 3d 35 0f 45 bd 5c 16 0a 3e
       0.011693325 0.101555966 -0.048110206 0.13485092
000210 80 76 a6 3d a7 72 f2 bd ed c8 fd bd 01 bf 09 3e
       0.08128071 -0.118382744 -0.12391839 0.13451768
000220 cd c9 bd 3c 0c 9f 32 bc 99 c7 eb 3d 7f 4c 05 bd
       0.023167515 -0.010902178 0.115126796 -0.032543655
000230 f6 1b eb 3d 38 bb b6 bd 4c 28 04 be f4 9e 73 bd
       0.114799425 -0.08922428 -0.12905997 -0.05947776
000240 7a 4a d9 bd 9f fc c7 bd 76 ad 80 bd ff 2d 8d 3d
       -0.106099084 -0.097649805 -0.06283085 0.06893539
000250 b9 04 0b bc 80 b0 aa 3d 2b f6 fe 3d d2 65 02 3e
       -0.008485013 0.08334446 0.124492966 0.12734154
000260 02 0f 85 bb b4 70 05 be 84 3d d8 bd 99 c2 01 3e
       -0.004060627 -0.13031274 -0.10558608 0.1267189
000270 3d 2b de bd 77 7f d3 3d 12 a4 bb bc 7c df 04 3e
       -0.10848091 0.10327046 -0.022905383 0.12975878
000280 53 ca 2e 3d 25 6b 3c bd bd 91 d3 3d e0 ae 3a 3b
       0.04267342 -0.04600062 0.10330532 0.0028485581
000290 c2 ee df bd 25 d2 ec bd e3 f3 e7 3c a1 20 88 3d
       -0.10934211 -0.115635194 0.028314536 0.066468485
0002a0 d6 58 be bc c1 2b b1 bd 1a c4 ba bc 77 5a 01 be
       -0.02323572 -0.086509235 -0.022798587 -0.12632166
0002b0 0c 88 89 bd f6 27 94 bd c4 df d3 3d 1d 17 fd bd
       -0.06715402 -0.072341844 0.10345414 -0.12357924
0002c0 eb 8a dc 3c 4a db e5 3d 31 74 36 3d 25 47 e3 bc
       0.02692171 0.11223467 0.044544403 -0.027743885
0002d0 7b bb 86 3d b4 a3 6b 3c ca 6c 10 3d f1 0a ae 3d
       0.06578728 0.014382292 0.03526 0.08498181
0002e0 74 bc 45 39 89 d2 f3 3c fe e7 f7 3d 3e 62 4b bd
       0.00018857588 0.029763477 0.12104796 -0.049654238
0002f0 cf bd d2 bc 57 ae 9f bd 16 75 b0 bd e4 3e 64 bd
       -0.025725273 -0.077969246 -0.08616082 -0.05572404
000300 7a 69 c7 bd d5 f0 79 3d b5 5b 28 bd 6f 72 0d bd
       -0.09736915 0.06102069 -0.041103084 -0.03453296
000310 85 c5 51 3d 35 27 e6 3d 38 64 e4 3d 3d 14 a9 3d
       0.05121376 0.11237947 0.11151928 0.08255813
000320 27 0b 82 bd 03 f4 ed 3d 0d b1 25 3d 8a 06 78 3d
       -0.063497834 0.11618807 0.040452052 0.06055311
000330 15 85 74 bb b4 17 95 3d 04 ac 00 3e 46 02 da bd
       -0.0037310768 0.07279912 0.12565619 -0.10644965
000340 ef 57 fb 3d 07 99 c1 3d b0 f2 6d bd 39 f3 b1 3d
       0.122726314 0.09453016 -0.058092773 0.08688969
000350 30 6b 9b bd 81 f5 e0 bc f4 ae ac 3d 8e d8 8c bd
       -0.07588804 -0.027460815 0.08431807 -0.06877242
000360 2e 0b 34 3c 98 e9 00 be 35 b0 88 3c d5 fb 7f bd
       0.010988994 -0.12589109 0.016685585 -0.062496025
000370 fd c1 98 bd ef 8e bd bd de 84 1c ba e5 a6 bb 3d
       -0.07458875 -0.09255778 -0.00059707265 0.09162692
000380 e5 2e 90 3d 65 ef c6 38 b8 07 5e bd dc e2 f0 bd
       0.070401944 9.4859664e-05 -0.05420658 -0.1176202
000390 00 e0 ab bd be 6c 9c 3d 4f 8b 0a 3d 20 68 a6 bd
       -0.08392334 0.076379284 0.03382426 -0.08125329
0003a0 43 a5 8a 3d 4a 4a a1 3d 05 9a 54 3d 8a ae 9f bd
       0.067698024 0.07875498 0.051904697 -0.077969626
0003b0 dd 07 06 3e 18 c1 74 3d f3 d1 04 be 66 86 00 be
       0.13088937 0.05975446 -0.12970714 -0.12551269
0003c0 2f 33 fe 3d a3 a0 f3 3d 34 3a 8d bd c9 4d b1 bc
       0.12412106 0.118958734 -0.06895867 -0.021643536
0003d0 5a 6e a9 bd 64 28 06 be 53 80 04 be 88 46 87 bd
       -0.08273001 -0.13101345 -0.12939577 -0.0660525
0003e0 73 b2 f5 bd d2 35 95 3d 13 ef db bd 5e 37 b8 3d
       -0.11996927 0.07285656 -0.10738959 0.089949355
0003f0 5d e6 e7 3d 08 70 08 3c 51 95 8e 3b be e8 58 bc
       0.11323235 0.008327492 0.004351296 -0.013239084

fc1.bias f4 [100]
000000 59 94 18 3d 18 8e 05 be 65 0d d6 bd a5 83 28 3d
       0.03725085 -0.13042486 -0.104517736 0.04114117
000010 71 65 b1 3d eb 60 cc 3d 07 40 b9 bc d9 3d 47 3d
       0.086619265 0.09979423 -0.022613538 0.048642967
000020 07 26 02 be 25 53 07 3e 71 53 28 bd 3c d6 c5 3c
       -0.12709819 0.13215311 -0.0410952 0.024150006
000030 8d be ce 3c 6d 74 0d be f7 31 92 bd d1 3d f1 bc
       0.025237346 -0.13813944 -0.07138436 -0.029448422
000040 fa 33 2f bd ed 2b 88 bd 87 ba b6 3d aa 3e 88 bd
       -0.042774178 -0.06649003 0.08922296 -0.06652577
000050 76 4f 2c bd 17 ef 96 3d b7 6f 0a 3e 88 49 cc 3d
       -0.042067967 0.073698215 0.13519178 0.099749625
000060 9b a1 d5 3c c1 f6 d7 bd 0c e6 50 3d cd be f6 bd
       0.026078036 -0.105451114 0.05100064 -0.12048111
000070 b9 9b da 3d 22 6d 75 3d 3c f7 01 be 68 c4 db 3c
       0.10674233 0.05991853 -0.12691969 0.026827052
000080 d2 1b e5 3d 64 75 ed 3d 6c a0 d7 3d 19 94 8f bd
       0.11186947 0.11594656 0.10528645 -0.07010669
000090 f2 bb ca bb ea 2b 71 3d 47 f9 c2 bd b4 e9 23 bb
       -0.0061869556 0.05887977 -0.09520202 -0.0025011124
0000a0 fe 3b 4a bd 50 71 d6 bd 39 53 03 3e c2 82 a7 bd
       -0.04937362 -0.104708314 0.12824716 -0.08179237
0000b0 fb 75 e6 bd 5b c3 0e be 15 f9 02 3e e6 f2 36 bd
       -0.11252972 -0.1394171 0.1279033 -0.04466524
0000c0 dc ce 4f 3c 25 64 0b bd 9c 16 08 3e 7f 5d ad bd
       0.012683596 -0.034031052 0.13289875 -0.084650986
0000d0 de 74 70 bd ae 1f 5c bc 43 1f 10 3c cf ea b4 bd
       -0.058705203 -0.013435287 0.008796516 -0.08833849
0000e0 24 28 38 3d d5 09 b7 bd 79 e8 94 bd cf 1d 67 3d
       0.044960156 -0.08937422 -0.07270903 0.056424912
0000f0 2a 4c 91 bd 32 eb d5 3d a6 71 ff bd b4 a1 58 bd
       -0.07094605 0.104452506 -0.124728486 -0.052888587
000100 18 f9 6e 3d 48 90 25 bc fd 33 b6 3d 12 a9 24 3c
       0.058343023 -0.0101052 0.08896635 0.010050075
000110 ff 51 89 bd f8 53 03 3e 72 9a 39 bd 0e 2a 84 3d
       -0.06705093 0.12825 -0.045313306 0.06453334
000120 d9 b8 b4 3c 84 0c 3f 3d b1 f4 dd bc a5 29 06 be
       0.022060798 0.046642795 -0.027094217 -0.13101824
000130 ca 98 5c 3d b2 ad b0 3d 3d ca c0 3d 9b f2 0d 3e
       0.05385665 0.0862688 0.09413574 0.13862078
000140 9d e3 07 be 2f e2 8d 3d a6 54 07 3e 2a 71 f7 3d
       -0.13270421 0.06927907 0.13215885 0.12082131
000150 57 e6 ae bd 33 fe 0e 3e 3b bd fa 3d 9a a6 0d be
       -0.085400276 0.13964157 0.12243124 -0.13833085
000160 9f e5 9c bd 68 74 59 bd 8f 31 97 3c e6 f1 96 3d
       -0.07660984 -0.05308953 0.018456249 0.07370357
000170 9c 7d 4b 3b 92 c5 f1 3c 42 8e 4d 3d f8 ec 81 3c
       0.003105021 0.029513154 0.050184496 0.015860066
000180 8b d5 80 3d c9 10 14 3e 18 f6 50 3d 6d f4 e3 3d
       0.0629073 0.14459528 0.051015943 0.11130605

fc2.weight f4 [200, 100]
000000 8b bc 49 3d e8 24 41 3b 33 3b 8f bc fc 26 1b 3d
       0.049252074 0.002947146 -0.017484283 0.037878975
000010 fc fd 81 3d ea e5 18 bd 40 dd a4 3d 2c 98 b3 bd
       0.06347272 -0.037328638 0.080500126 -0.08769259
000020 23 d4 9e 3d 67 af c6 bb f6 c0 d4 bc b4 0b bf 3c
       0.077553056 -0.00606339 -0.025970917 0.02332101
000030 47 44 a7 3d ba 0a a7 3c 77 85 51 bd c3 4f 75 3d
       0.0816732 0.020390857 -0.051152673 0.05989052
000040 11 69 c5 bd c0 39 50 3d ba da 67 bd 0b cf 7b bd
       -0.096391805 0.050836325 -0.05660508 -0.06147675
000050 71 9d bb 3d ed 1f 8c bd f0 05 1d 3d 2f 6b 38 bc
       0.09160889 -0.06842027 0.03833574 -0.011256023
000060 9d 2d db 3c fc 86 8d 3d e1 61 39 bd 68 79 9e bd
       0.026755149 0.06910512 -0.04525936 -0.07738
000070 bc 01 85 bd 92 e6 74 bc 20 2c a0 3d 06 fa 3e 3d
       -0.064944714 -0.01494755 0.07820916 0.04662516
000080 0d 41 c2 bc fc 31 4f bd 78 f7 bb bd 56 56 28 3d
       -0.02371266 -0.05058478 -0.0917806 0.04109796
000090 68 ba f8 bc 26 f9 1a bc 3e 1f ab bd 0c 58 a9 3d
       -0.030362323 -0.009458816 -0.08355568 0.08268747
0000a0 da 19 ca bd 2a fd 6f bc 28 cc 23 bd 28 39 53 ba
       -0.09868212 -0.014647761 -0.03998962 -0.0008057528
0000b0 35 47 be bd 30 98 cc 3c dd a0 b4 3c ff d7 c5 3d
       -0.092909254 0.024974912 0.022049362 0.096603386
0000c0 a6 92 88 bd 4e 2b 5e bd 41 60 aa bd 1e ac cb ba
       -0.06668596 -0.054240517 -0.0831914 -0.0015538966
0000d0 f7 44 af 3d ca 29 b9 bd 73 21 95 bd ef 19 4a 3d
       0.08558076 -0.09041174 -0.072817706 0.04934114
0000e0 48 f9 19 bd d1 6f 61 3d b4 e6 9a bd c1 d8 a2 bd
       -0.03759125 0.055038277 -0.075635344 -0.07951499
0000f0 b2 6f df bc 1c e1 a8 bd bb ac 59 3d 05 4a 4a bd
       -0.02727494 -0.08246061 0.053143244 -0.049386997
000100 15 14 39 3d b7 d2 20 bd 86 39 ca bd 10 63 56 bd
       0.045185167 -0.039263453 -0.09874253 -0.052340567
000110 b3 de 63 bc 46 d5 84 bd a3 bc b7 3d 25 9b 0b bd
       -0.013908076 -0.06485991 0.089715265 -0.034083504
000120 d0 68 bf bd d3 0a 88 bd f8 b7 b8 3c 12 8e 81 bd
       -0.09346163 -0.066426896 0.02254866 -0.06325926
000130 cc 16 8e bc 39 b8 6c 3d ea 1b 92 bd 24 7a 79 bd
       -0.017344855 0.057792876 -0.071342304 -0.060907498
000140 e1 6b ca bc d7 29 1c 3b b0 bc cf ba 82 e4 15 bd
       -0.024709644 0.002382865 -0.001584908 -0.036594875
000150 84 17 ba bd bf f7 32 bd 32 97 a9 bc 5d a9 44 bd
       -0.090865165 -0.0436933 -0.020701978 -0.04801308
000160 5f 06 64 bd 2a c3 7d 3c 6b 64 3f 3b 99 1c 94 3a
       -0.05567014 0.015488425 0.002920414 0.0011300027
000170 e4 d3 c6 bd d9 31 c6 bd 0e 81 48 bd d1 a8 b5 3d
       -0.09708384 -0.096774764 -0.0489512 0.0887009
000180 43 88 c5 bd 88 f1 a1 bd f3 9b 9a bd d6 c8 a4 bd
       -0.096451305 -0.079073966 -0.07549276 -0.08046119
000190 ae 00 d4 b9 30 ff 5f 3c 4b 55 4c bd 5c ac a5 bc
       -0.00040436297 0.013671681 -0.04988603 -0.020223789
0001a0 33 db 9a bd 2c 56 87 bd c6 28 a6 3d ac 1d be 3d
       -0.0756134 -0.06608233 0.08113246 0.09283003
0001b0 4e 1a 6e 3d cd c0 77 3d bd 2c a4 ba 52 e2 a2 bd
       0.058130555 0.060486604 -0.001252554 -0.079533234
0001c0 9a 00 61 3d f4 fa 87 3d 4f e8 83 bd 38 7e b7 bd
       0.054932214 0.066396624 -0.06440794 -0.08959621
0001d0 23 50 c8 bd c0 2d 28 3c da 62 b8 bd cb 17 66 3d
       -0.0978091 0.010264814 -0.090032294 0.056175034
0001e0 a3 74 c4 bd 7d b6 87 bd 75 22 a0 bd 7f 8d cb bd
       -0.09592559 -0.06626604 -0.07819072 -0.099390976
0001f0 cf ac b8 bc 9d f1 3a 3d 10 64 b5 3d 10 77 36 3c
       -0.022543339 0.045640577 0.08856976 0.011136785
000200 7d 46 1a bd f4 32 9f 3d 8a 05 cc 3c 5b 1c 09 3d
       -0.03766488 0.077733904 0.024904985 0.033474308
000210 ea d2 ad bc 25 24 f4 bb ec eb 9a 3d 01 76 39 bb
       -0.021218736 -0.007450598 0.0756453 -0.0028299096
000220 05 e4 9a bc 5a 8e d3 3c 13 f4 22 bd 9a c2 86 bd
       -0.018907556 0.025824714 -0.03978355 -0.06580086
000230 19 4b 61 bd e7 59 e2 3c e4 bf 9e bd 45 05 89 bb
       -0.05500326 0.02763076 -0.07751444 -0.0041815364
000240 41 17 8d 3d e2 4e 4c bd 21 f2 a7 bd ae 2f 33 bc
       0.06889201 -0.049879916 -0.08200479 -0.010936661
000250 2a 82 ab 3d ef 14 6d 3d c8 48 8a bc e8 91 85 3d
       0.08374436 0.057881292 -0.016880408 0.0652197
000260 bb 76 6a 3d ce 76 86 3d 11 ec a5 3c b9 0d cd bc
       0.057242136 0.06565629 0.020254167 -0.025030958
000270 1b 2e 0a bc 2f 0c 5b 3d 56 87 7a bb b8 bc 03 bd
       -0.008433844 0.053478416 -0.003822764 -0.032162398
000280 aa a5 95 3d 47 cf bf 3d 1a 65 28 bd 72 d2 1e bd
       0.073069885 0.09365707 -0.041112043 -0.038774915
000290 de 35 72 bd 9e ea 91 bd d0 ba 77 3d 4f c0 ab 3d
       -0.059133403 -0.07124828 0.060480893 0.08386289
0002a0 cc 33 55 3c 7c 8d 68 bc 5c 1e b4 3d 88 51 7d bd
       0.013012838 -0.014193889 0.08794853 -0.061845332
0002b0 46 15 27 3d 65 ae 87 3d fe d7 39 3c aa 96 b4 3c
       0.040791772 0.0662506 0.011343 0.022044498
0002c0 36 a4 ca bd f8 c7 bc 3c 05 eb ad bd e7 18 7f 3d
       -0.09894602 0.023044571 -0.08492092 0.062279608
0002d0 a8 f6 f0 ba 5a b8 29 3d 74 7f ad 3d c8 bc bf 3d
       -0.0018384056 0.041435577 0.084715754 0.09362179
0002e0 0d e4 93 3c 72 c6 b6 3c ee 14 d4 3c 65 4f 90 3c
       0.018053079 0.022311423 0.025888886 0.017615983
0002f0 9e cc eb bc 89 16 8b bd 65 54 dd 3b 20 fb e7 bc
       -0.028784093 -0.067914076 0.0067544454 -0.028317988
000300 9b af 29 3d 2a 3d 06 bd f6 1d 4e bc 54 7a c7 3d
       0.041427236 -0.032773174 -0.012580385 0.09740129
000310 4d 8f 6c 3c 99 0a 57 3d 7e 1d e1 3c 97 d1 8c bc
       0.014438462 0.05250034 0.027479883 -0.017189784
000320 e1 a7 86 3d 33 bd 9b 3d 9f 2f c9 bd bd 4d c2 bd
       0.06574989 0.07604446 -0.09823536 -0.09487484
000330 e7 76 a2 3d 44 f5 ab bc ee 08 50 bd f6 e7 11 bd
       0.07932835 -0.020990975 -0.050789766 -0.035621606
000340 9c f8 f0 bb cc 69 42 3d 83 c0 9d bd e2 cc b5 3d
       -0.0073538553 0.047464177 -0.07702734 0.08876969
000350 86 cf e2 bc f3 67 98 bd 36 a1 98 bb 80 8a 7d bd
       -0.027686846 -0.07441702 -0.0046578897 -0.061899662
000360 61 02 6b 3d 1e 66 89 bd 0c ff 3d 3d 85 aa 24 bd
       0.057375316 -0.067089304 0.04638581 -0.040201683
000370 d1 63 cd 3d 3c 2c 03 3d 34 52 93 bd d9 a9 84 bd
       0.10028804 0.032024607 -0.071934134 -0.06477708
000380 66 fa 22 3d 58 75 b9 bc be 2c 9d 3d b6 7a 80 bd
       0.03978958 -0.022638962 0.076745495 -0.06273405
000390 bd 66 e8 3c b3 42 ab 3d de 77 7f 3d ad 5d 9e 3c
       0.028369302 0.08362331 0.062370174 0.019331777
0003a0 f5 0f 9b bd 3c 4a 2a bc bc ac b5 3d e4 27 9c 3d
       -0.07571403 -0.010393675 0.08870837 0.07624796
0003b0 8c 61 85 bc 9e 22 b3 3d 49 bb 8e 3d 17 82 36 bd
       -0.016281866 0.08746837 0.069693156 -0.044557657
0003c0 58 25 d8 3c 39 70 a8 3c 70 db af 3d 9e c6 bf 3d
       0.026384994 0.020561324 0.08586776 0.09364055
0003d0 e4 2f ba 3d 81 ac 3d bd 71 84 a4 bc 91 c6 ad bc
       0.09091166 -0.04630709 -0.020082684 -0.021212848
0003e0 94 a9 8b bd 41 e0 c8 3d 0f f8 23 3a 4b 77 92 3d
       -0.06819454 0.09808398 0.000625492 0.071516596
0003f0 99 db 5d 3d ad ff 97 bd ec de 09 3c 1c f6 e9 3c
       0.054164503 -0.07421813 0.008414965 0.028559737

fc2.bias f4 [200]
000000 be 32 b9 3d 07 4a c8 bd 07 38 b6 bd 8a 1b 9d 3d
       0.090428814 -0.097797446 -0.08897405 0.07671268
000010 7e f1 a2 3c c2 4d c8 bc 56 dc b9 3d 97 13 f4 bc
       0.019890543 -0.02445114 0.09075229 -0.029794497
000020 a0 0a b0 3d 4e ab 7c 3d 9a 6e 2e bd 24 66 05 3d
       0.085957766 0.061686806 -0.042585947 0.032568112
000030 c4 b2 ec bc d1 c8 7b bc c0 1d eb bc 85 0a 4c bd
       -0.028893836 -0.015367703 -0.02870071 -0.04981472
000040 bc ec d4 3c dd 4d bc 3d d4 5e 2a bd 13 b0 3b 3d
       0.02599179 0.09194539 -0.04159434 0.045822214
000050 31 85 fa bb d3 2a 85 3c a3 4d 71 3c 06 39 f5 bc
       -0.007645272 0.016255772 0.014727983 -0.029934417
000060 f6 57 2c 3c af 4c d9 bb 1e b2 dd bc 88 fe 98 3c
       0.010519018 -0.006631456 -0.027062472 0.018676057
000070 fd 09 bd bd 3a ef b9 3c fe 39 97 3c 52 4c 87 3c
       -0.09230421 0.02269708 0.01846027 0.016515885
000080 57 45 ab 3c 8f 50 d3 3c 54 d7 45 3d 21 90 cf 3a
       0.020907087 0.02579525 0.048301056 0.00158358
000090 29 13 41 3d c3 71 c9 3d 1b 32 76 3d 29 a3 4b 3d
       0.047137413 0.098361515 0.060106378 0.04971615
0000a0 8e f2 6b 3d cf c9 31 3c 78 a9 01 3d 56 e0 88 bd
       0.057604365 0.010851338 0.03165576 -0.06683414
0000b0 41 ef c3 3c 72 ec 50 3d 10 88 89 3d 9b 1e 97 3d
       0.023917796 0.05100674 0.06715405 0.073788844
0000c0 cb 12 3b bd cd 91 13 3c 27 d5 10 3d 93 16 3a 3d
       -0.04567222 0.00900693 0.035359528 0.045431685
0000d0 91 da bd bc fe 8a f4 bb 9d 78 a2 3d ee ae 42 3d
       -0.02317551 -0.007462858 0.079331614 0.047530107
0000e0 8d 8a c2 3d 85 7f 26 3d b5 da 5e 3c 10 bc 94 bd
       0.09499083 0.040648956 0.0136019485 -0.072624326
0000f0 25 99 f3 bc 23 06 88 bd b3 7b f4 3c 73 87 35 3d
       -0.029736111 -0.066417955 0.02984414 0.044318628
000100 3c 29 92 3c ca c7 62 3c b0 a2 f3 3c 92 d2 8d 3d
       0.017841928 0.013841579 0.029740661 0.06924929
000110 f7 5f fe bc df d7 2a 3d d7 70 78 bd 2b 88 c4 bd
       -0.031051619 0.041709777 -0.060654487 -0.095962845
000120 94 b6 34 bc fe a2 29 bd ad f5 40 3b ac 6b 92 3d
       -0.011029858 -0.041415207 0.002944331 0.07149443
000130 a6 a3 47 3d f5 40 2c 3d 11 58 a0 bd 41 50 13 bd
       0.04874005 0.042054135 -0.07829297 -0.035965208
000140 27 7c ca bd a0 87 9e 3d 52 0d 94 3c d3 c3 97 3c
       -0.098869614 0.07740712 0.018072758 0.018525993
000150 cc 2c 86 bc 26 53 e3 bc 91 0f af bc 4e bf c3 bc
       -0.016378783 -0.02774961 -0.021369727 -0.023894932
000160 1e fe a0 3d 4c 45 b1 bd a3 c5 12 bd 60 5c c8 3c
       0.07860969 -0.086557955 -0.035833012 0.02445811
000170 61 35 cc bc a5 c3 b4 3d de ba bf bd a1 96 ad 3c
       -0.024927797 0.08826379 -0.09361814 0.02118999
000180 b4 bd 9c bc e7 aa 15 bc 75 b7 86 bd b4 bd fe 3c
       -0.019133426 -0.009134985 -0.065779604 0.031096317
000190 7c 3a b0 3d ce cd ec 3b be 1a b3 ba 73 d6 8d bc
       0.08604905 0.0072266823 -0.0013664586 -0.017314171
0001a0 bb 36 9f bd cc 32 0f 3b c8 23 c9 bc 6f 67 89 bd
       -0.07774111 0.0021850346 -0.024553195 -0.067091815
0001b0 e0 13 37 3d 33 f1 b1 bd b3 bc c2 bd bf c6 7a bd
       0.04469669 -0.08688583 -0.09508648 -0.061224695
0001c0 da dd c3 bc bb 17 43 bd 75 d8 8d 3d fd 0a bb bd
       -0.023909498 -0.047630053 0.069260515 -0.09132955
0001d0 8c 85 f4 3a 2d f0 6b 3d 6c 49 72 bd 97 02 d0 3d
       0.0018655523 0.057602096 -0.05915205 0.10156744
0001e0 35 39 3b ba 13 c6 d1 3c b3 b5 ba 3b 9b 4c 76 3d
       -0.00071420084 0.025607144 0.0056979298 0.06013165
0001f0 22 e9 87 3d b3 cb aa bd b7 5e 07 bd 21 b6 af 3d
       0.066362634 -0.08339634 -0.03304931 0.0857966
000200 8f 82 4e bd e9 d6 be bc c9 67 91 3c 03 7d 62 3d
       -0.05041748 -0.023295837 0.017749684 0.055295
000210 e1 e8 a1 bd 2e 69 c8 3d a1 a7 66 bd 22 da 58 bd
       -0.07905746 0.097856864 -0.056312207 -0.052942403
000220 04 87 80 bb 24 0b 63 3c cd bf 89 bc 18 14 b5 bc
       -0.003922345 0.013857637 -0.01681509 -0.022104308
000230 56 bd 46 bd ec cb 87 3d b1 1a 9b 3c de ab 75 3d
       -0.04852041 0.06630692 0.018933626 0.05997836
000240 87 96 c3 3d 76 89 c4 3d 35 19 78 3d ec 13 aa 3d
       0.09550195 0.09596531 0.060570914 0.08304581
000250 fb 89 96 bd 2a 9b 4d bd d8 c0 8c bd 8d da c3 3c
       -0.073505364 -0.050196804 -0.068727195 0.023907924
000260 a6 c6 9f 3d 3d 00 bb bc 8d 2c c2 bd 1b b0 bc bd
       0.07801561 -0.022827262 -0.09481154 -0.09213277
000270 c3 28 a5 3c 45 28 57 bc 43 67 b7 bd da 9a 19 bd
       0.020161038 -0.01313216 -0.089552425 -0.037501194
000280 ac 66 df 3b 0b 3d 60 3d 95 cb 82 3d 8f 98 8e 3a
       0.0068176594 0.054745715 0.063864864 0.0010879206
000290 67 ad 81 ba f1 2c 9d 3d e3 d7 49 bd 42 19 9c bc
       -0.0009893597 0.076745875 -0.04927815 -0.019055013
0002a0 09 2b 50 bd 1b 08 35 bd fb 01 b0 3c 8c 9a ab bc
       -0.05082229 -0.044197183 0.02148532 -0.020947717
0002b0 07 f4 c9 3d 2c b3 87 3d e9 ba 29 3d 64 f8 14 3d
       0.09860998 0.06625971 0.041438017 0.036369696
0002c0 cd b4 aa 3d 85 93 a5 3c 14 08 00 3d 35 a6 8d bc
       0.08335266 0.020211944 0.031257704 -0.017291168
0002d0 c7 e8 b0 3d 02 3b a8 3d ac 84 91 3d 60 b7 98 3d
       0.08638149 0.0821438 0.07105383 0.07456851
0002e0 e4 09 05 bd ff d9 c3 3c 58 d2 9d bd fe 38 8a 3d
       -0.032480136 0.02390766 -0.077061355 0.06749152
0002f0 82 06 03 bd 5b f6 5a 3d 39 18 90 3d c5 cd dc bc
       -0.03198863 0.0534576 0.0703587 -0.026953587
000300 7e e5 6f bd c2 2a 53 bc 0f e9 85 bd 2e c8 b3 3d
       -0.05856847 -0.012888612 -0.06538593 0.087784156
000310 b4 30 38 3d bd 1c 66 bd d0 e3 8b bd e1 82 8f bd
       0.044968322 -0.05617975 -0.06830561 -0.07007385

fc3.weight f4 [100, 200]
000000 a7 92 1d 3d 5c b9 33 3d 1a e1 10 3d 77 bb 10 bd
       0.038469937 0.043877944 0.035370924 -0.03533503
000010 52 04 65 3d 6f 5c 80 3c 27 20 6a 3d 22 0f bb 3b
       0.055912323 0.015669076 0.05715957 0.005708591
000020 b6 ec d9 bc d3 7f 9b 3b 47 39 38 bc a6 73 29 bc
       -0.02660213 0.0047454624 -0.011244125 -0.010342514
000030 db db ac bc 75 26 50 3c 23 19 2f 3d 2e 12 3e 3d
       -0.021100929 0.012704481 0.04274858 0.046404056
000040 5e c4 4e 3d 02 ee 94 3d b6 7f da bc 46 89 cd bb
       0.05048024 0.07271959 -0.026672225 -0.006272468
000050 4d 16 ed 3b 1e 91 b4 3c d3 3c a6 3c 68 92 c1 bc
       0.0072353245 0.022041854 0.020292675 -0.023629382
000060 a0 4e 7c bc 18 7d ae bc 3f e1 73 bd 79 98 32 3d
       -0.015399605 -0.021299884 -0.059540983 0.04360244
000070 92 77 68 3c 5b 95 6f 3d f3 41 63 bd 56 02 01 bd
       0.014188664 0.058492046 -0.055482816 -0.03149637
000080 68 3f c6 3c 5f c8 6f bd 28 0a bc bc 48 fb 71 bd
       0.024200156 -0.0585407 -0.022954062 -0.05907753
000090 f5 f8 8a bd 70 04 7e bd 45 01 05 bd c9 3b 70 3c
       -0.06785766 -0.06201595 -0.032471914 0.014662691
0000a0 dd ae 1c 3d 15 36 bf 3c e1 81 27 3d 25 e1 24 bc
       0.0382527 0.023341218 0.040895347 -0.010063444
0000b0 55 c4 07 3d 36 d4 83 3d 33 50 89 3c 96 ba 82 3d
       0.03314622 0.064369604 0.016761875 0.06383245
0000c0 92 90 14 3d 41 04 97 3d 49 fa 82 bd c5 5c ff bc
       0.036270685 0.07373858 -0.06395394 -0.031172166
0000d0 55 ca 4c bc 95 cc 83 3d 3f ef 75 bd 8b 2b f0 3b
       -0.012499412 0.06435505 -0.060042616 0.0073294095
0000e0 16 2d 8f bc d8 85 b5 3c 74 83 57 bd 92 da 65 bc
       -0.017477553 0.022158548 -0.052615598 -0.014029162
0000f0 0c 20 6d 3d e0 4c 85 bd a3 08 d4 3c d9 c2 5a bd
       0.05789189 -0.06508803 0.025883025 -0.053408477
000100 2f f4 c9 3b 94 81 6b 3d 59 7f 00 bd b6 22 56 3d
       0.006163142 0.057496622 -0.03137145 0.052279197
000110 89 4f ac bb 99 b2 d2 bc a6 da dc bc 6e 12 02 3b
       -0.0052585048 -0.025719928 -0.026959728 0.001984741
000120 df b6 86 bd 17 cd 82 bd b4 7c 69 bd bf 5a 09 bc
       -0.06577849 -0.06386774 -0.05700369 -0.008383452
000130 b4 1e 92 3c 74 a2 40 bc 19 a0 35 bd d0 4f 3b bd
       0.017836906 -0.011757482 -0.044342134 -0.045730412
000140 53 c9 ba bc 01 31 2f 3d df 55 44 3d 5e 80 91 3d
       -0.022801077 0.042771343 0.047933456 0.07104562
000150 ce a3 33 3c 1e 18 6b 3c fc 0d 38 bc 0d 5e 10 3d
       0.010964347 0.014349012 -0.011233803 0.035245944
000160 b5 6c 94 3c 7c 3b 7c bd 9b ce 0f bd cd b7 fd 3b
       0.018118242 -0.061580166 -0.035109144 0.007742858
000170 58 e3 3f 3d d7 72 6b 3c 06 13 4d bc 7d 8b eb 3c
       0.04684767 0.014370642 -0.012516743 0.028753037
000180 ba c3 16 3b f4 d0 98 3d 3b 4c 7a 3d 76 01 f8 3c
       0.0023004846 0.0746173 0.061107855 0.030274134
000190 38 be 2a 3d 5d 02 38 3d a2 b0 8f bd 10 87 1e bd
       0.041685313 0.04492413 -0.07016112 -0.038703024
0001a0 b6 29 bc 3c 97 12 52 bd 54 53 7d 3d 67 c2 85 3c
       0.022969108 -0.05128726 0.061847046 0.01632805
0001b0 9a 74 4c bd 39 4a af bc 0c a4 2f 3d 60 26 72 3d
       -0.049915887 -0.021397697 0.042881057 0.05911863
0001c0 99 9d 30 3d cb 46 4d 3d 70 4e b2 bc d4 a7 12 bd
       0.043119047 0.05011634 -0.021765918 -0.035804585
0001d0 c2 cf d1 bc 58 97 fe 3c 82 23 2a bd 5b 8e a1 bb
       -0.025611762 0.031078026 -0.04153777 -0.0049303
0001e0 c7 dd 8f bd ca be 7a bd 37 af 7f 3d 4d 99 22 bd
       -0.070247225 -0.061217107 0.062422957 -0.03969698
0001f0 da da 7c 3c 0b bd fe 3b ab b6 84 bd 95 c4 5b 3d
       0.015433038 0.0077740005 -0.06480154 0.053654272
000200 9f 4b 0b bd 83 fc 5c bd 71 00 da bc 58 3a 45 bd
       -0.034007665 -0.05395175 -0.026611539 -0.048151344
000210 fd ae 85 bd f0 94 27 3d e3 50 11 bd 17 29 66 bd
       -0.06527517 0.040913522 -0.03547753 -0.05619153
000220 e1 7b 64 3c 34 9a 48 3d 99 09 47 bd a4 f7 08 bd
       0.013945551 0.048975185 -0.048593137 -0.033439294
000230 9a e2 68 bc 30 42 66 bd b2 13 32 bd f4 46 3e bd
       -0.014214182 -0.056215465 -0.043475814 -0.046454385
000240 6e f4 1c bd 37 e8 08 bd d9 bb e3 bc a0 97 7d bc
       -0.038319044 -0.033424582 -0.027799534 -0.015478045
000250 75 4d 1c 3d 28 15 c4 3b 16 a7 a8 bc c8 c3 f9 bc
       0.038159806 0.0059839673 -0.020587485 -0.030488864
000260 53 47 e7 bc bb 13 19 3d e7 db 87 3d 12 a5 30 bd
       -0.028232252 0.037372332 0.0663374 -0.043126173
000270 88 eb 3f 3d 3e 86 93 3d 8f 80 87 bd 51 bb b7 bb
       0.04685548 0.07203339 -0.066163175 -0.0056070467
000280 79 27 ec 3c ec ee 1c 3d 77 bb 2f bd 2a 28 41 3d
       0.028827416 0.03831379 -0.04290339 0.047157444
000290 3c 9a 48 bd 5e 95 de bc c6 3c 4e 3d 64 68 2a 3d
       -0.048975214 -0.027170833 0.050350927 0.04160346
0002a0 a8 fa 2a bd 77 38 8a bd 3f 82 1d 3d 5b 2a 19 3d
       -0.04174295 -0.06749051 0.03845429 0.03739391
0002b0 ac eb 22 3c 41 7f 39 bc 76 b0 87 3d 8d 38 1a 3d
       0.009943884 -0.011321844 0.06625454 0.037651587
0002c0 4b 16 1d 3d c7 2f 25 bd 30 dc 4e 3d b3 23 ac 3b
       0.03835134 -0.040328767 0.050502956 0.005253279
0002d0 9b 3f 8f 3c 3e 73 1c 3d 46 ea 0c bd 35 7a 3a 3c
       0.017486384 0.03819584 -0.034403108 0.0113816755
0002e0 d5 e9 70 bd 70 09 88 bd d5 23 65 3d ca dd 3e bd
       -0.05881675 -0.06642425 0.055942375 -0.046598233
0002f0 f4 53 c1 bc 2e 8e 83 bc 77 fa 4c bd 9e 8e 61 bd
       -0.023599602 -0.016059007 -0.05004355 -0.05506765
000300 c5 79 10 bd 9a 9b 07 3b 74 12 56 bb 8e 2d 91 3b
       -0.03527238 0.002069211 -0.0032664808 0.0044304794
000310 03 57 52 bd b0 0c 2b bd 35 62 2c bd 1b 78 cd bc
       -0.051352512 -0.041760147 -0.042085845 -0.025081685
000320 f4 bf 7c 3c 56 a4 2f bc 07 07 0a 3d 64 4c 32 3d
       0.015426625 -0.010720333 0.033698108 0.043529883
000330 0d 91 fc 3c ff 50 b0 bc c8 01 28 3d fb 63 ca 3c
       0.030830884 -0.021522997 0.041017324 0.024705878
000340 f7 c8 cb bb 1a be 41 bd e1 c7 11 39 37 b4 9d bc
       -0.0062190252 -0.047300436 0.00013902738 -0.019250972
000350 5c f3 14 3d 15 61 77 3d 7c 14 b1 bc 4e fb 4d bd
       0.036364898 0.06039532 -0.021616213 -0.05028849
000360 13 a4 2d bc 1c 81 8d ba 04 b5 81 3d 03 74 26 bd
       -0.0105982 -0.0010795924 0.06333354 -0.04063798
000370 db b5 3f bd f3 01 92 bd 0b 23 61 3d ea 77 82 bd
       -0.04680429 -0.07129278 0.05496506 -0.06370528
000380 23 41 4f 3d c2 6c 67 bd 6e c8 6b bd 31 da bd 3c
       0.05059923 -0.056500204 -0.05756419 0.02317533
000390 74 c7 74 bc 04 9f 88 bd 00 b1 30 bd fa 47 6d bb
       -0.014940131 -0.06670955 -0.04313755 -0.0036206231
0003a0 7b 4a 89 bd 13 65 37 bb fc bd 48 bd c6 e8 93 bc
       -0.06703659 -0.002798383 -0.04900931 -0.018055331
0003b0 8a 5e 67 3d 24 01 88 bd fb 2e 4b bb c4 09 39 3d
       0.056486644 -0.066408426 -0.0031003344 0.04517533
0003c0 2c 7f 60 3d 6c 71 61 bd 21 47 f2 3c 1f 34 42 3d
       0.05480878 -0.05503981 0.029574933 0.047412988
0003d0 a6 1a 5d 3c e6 16 83 3a df d1 63 3c f1 1e 5c bc
       0.013495123 0.0010001331 0.013905018 -0.013435111
0003e0 b2 cb 4b 3d 45 8f 47 bc 7e d4 32 3d 6f bc 3d 3d
       0.049754806 -0.012180154 0.04365968 0.046322282
0003f0 1a 4a 8f bc ff 10 8f bd d2 87 72 3d 09 40 2e bd
       -0.017491389 -0.069856636 0.05921156 -0.042541537

fc3.bias f4 [100]
000000 54 06 8b 3d 03 80 66 bd 9d b0 e7 bc f9 76 79 bc
       0.06788316 -0.056274425 -0.028282458 -0.015226119
000010 07 f5 3d 3d 92 70 39 bd 2e 40 bb 3d 95 53 b3 b9
       0.046376254 -0.04527337 0.09143101 -0.00034203814
000020 1a a8 35 3d 8f 62 9f 3c 50 a7 1c bd 8b 1c a7 bc
       0.044349767 0.019456176 -0.0382455 -0.020399353
000030 8f a9 ac 3b c9 30 89 3d fe e6 db bc 2a 24 2e bc
       0.0052692364 0.06698758 -0.026843544 -0.010628739
000040 cd 23 21 bd 4e 04 d0 3c 98 d7 17 3d 64 29 34 bc
       -0.039340783 0.025392678 0.03707084 -0.010996196
000050 41 60 45 bd 87 a5 80 3c ea 56 51 3c 07 7d 67 3b
       -0.048187498 0.01570393 0.01277707 0.0035322325
000060 e5 0d e0 bc 36 de 4f 3d 9c 76 e0 3b 7d 0e 89 bc
       -0.027350375 0.050749026 0.006850077 -0.016730541
000070 66 42 0e 3c b6 c6 78 3d 7a fb bd ba 46 9a 56 3d
       0.008682823 0.06073638 -0.0014494502 0.05239322
000080 27 b5 9c 3d 61 b9 8c 3d 56 d1 81 bd ac 86 17 bd
       0.076517396 0.06871296 -0.06338756 -0.036993667
000090 b7 71 16 bc 91 09 79 3d af 76 54 bd 49 28 54 3d
       -0.009182385 0.06080014 -0.051870998 0.05179623
0000a0 45 9f 2a bd c8 50 52 3c 62 f7 8c bb a8 45 44 bd
       -0.041655798 0.012836643 -0.0043019513 -0.047917992
0000b0 ba 2a 62 bc 01 03 35 3d a0 8e 25 3d ab e0 8f bd
       -0.013804132 0.044192318 0.04041922 -0.07025274
0000c0 90 fd f9 3c ac 83 1c 3d 38 cc 3b bd 60 08 cf 3c
       0.030516416 0.03821151 -0.045849055 0.025272548
0000d0 dd 8d 26 bd 17 17 0c bd ae 7f e7 bc 29 2d 86 3d
       -0.040662635 -0.034201708 -0.028259125 0.06551582
0000e0 c8 3c e9 3c e5 41 6d 3b 49 ef 81 3d 7b 00 88 bc
       0.028471366 0.0036202606 0.06344468 -0.016601792
0000f0 29 9d d2 3c 76 06 09 3d d9 4c 7c bd 7e 74 c5 3c
       0.025709705 0.033453427 -0.061596725 0.0241034
000100 93 70 b3 3c 8b 70 33 bd 10 e3 e4 3c ec 1b 69 bd
       0.021904266 -0.0438085 0.027940303 -0.056911394
000110 a4 8f 8c bd 9b d1 b8 3c 00 73 d6 bb 6f 32 d6 bc
       -0.06863335 0.022560885 -0.006544471 -0.026147095
000120 3f 15 a5 bc 82 67 38 bd 74 49 8d 3d 61 e8 09 3d
       -0.020151732 -0.045020588 0.06898776 0.03366888
000130 6b 93 49 bc 9b 5f 05 bd c8 45 de bb 7c 9e 9c bc
       -0.012303214 -0.03256188 -0.006783221 -0.01911854
000140 61 93 8b bd ca 4d e1 bc 97 40 79 3d d4 1c 5c 3d
       -0.0681522 -0.027502913 0.060852613 0.05373843
000150 5f 7e 71 3c 82 54 dd 3c ee 4b 61 3d 72 ff 40 bd
       0.014739602 0.027017836 0.055004053 -0.04711861
000160 44 43 ad bc 89 94 0c bd ab cb 32 bd 44 8e 32 3d
       -0.021150239 -0.03432134 -0.043651264 0.043592706
000170 75 42 2a 3d 74 0f 60 bd 0a db ba bc b0 0b 4f 3d
       0.041567285 -0.054702237 -0.022809524 0.050548255
000180 59 34 92 3d 2c 45 42 bc 4e e1 42 3d 67 56 cb 3c
       0.07138891 -0.011857312 0.04757815 0.024821473

fc7.weight f4 [1, 100]
000000 27 e9 97 bd cc f0 0d 3d b3 4d 45 3b 75 04 bc bd
       -0.07417517 0.03465347 0.0030106127 -0.091805376
000010 68 d0 9f 3d b4 c5 ab bd 69 13 c1 bd c6 c1 18 bd
       0.07803422 -0.08387318 -0.0942753 -0.03729417
000020 27 ce a1 bd 6d 56 5f bd 41 6f bf bd a5 8e 4d 3b
       -0.079006486 -0.05452578 -0.09347392 0.003136554
000030 db 5b a6 3d 7d ac 39 3d d2 d3 96 bd 73 d3 7d 3d
       0.08122989 0.045330513 -0.0736462 0.06196923
000040 44 43 4f 3c bf 7a dd bc a0 bc c6 3c 86 79 f2 3c
       0.012650315 -0.027036069 0.024259865 0.029598963
000050 2a c1 fc 3c 7c 58 59 3d 20 48 9b 3d 98 cc 93 3d
       0.030853827 0.0530629 0.07582116 0.072167575
000060 ea 22 d7 bb c4 02 0d bd 94 82 d2 bc 3e bb 2d 3d
       -0.0065654414 -0.034426466 -0.02569703 0.042414896
000070 10 2b 50 3d 04 c4 16 bc aa 43 b5 3d 15 5b 45 bc
       0.050822318 -0.009202007 0.088507965 -0.012045641
000080 cf ad bf bc 71 32 ff 3c d3 a6 7a 3c 38 5d 5e bd
       -0.023398308 0.031151982 0.015298563 -0.05428812
000090 e9 c2 ab 3d 64 c7 90 bd 71 35 9d 3d 5d 38 57 bd
       0.083867855 -0.07069281 0.07676209 -0.052543987
0000a0 dd cd b0 3d cd 0b ae 3d c7 b4 d4 3b 8c 31 b3 bd
       0.08633015 0.084983446 0.006491277 -0.08749685
0000b0 ce 54 45 3d 62 b5 6a 3d 07 fb ba 3d 8c a9 c9 3d
       0.04817658 0.057301886 0.09129911 0.098467916
0000c0 5a 85 11 3d a2 47 73 bd b2 97 5f bd 2a 9d 31 bd
       0.035527565 -0.059394486 -0.054588027 -0.043362774
0000d0 a8 d2 20 ba 28 57 bc bd d6 ec 84 bb fb fa 41 3d
       -0.0006134906 -0.09196311 -0.0040565534 0.047358494
0000e0 99 ce db ba 9b 1c 03 3d 54 fd a7 bd c6 f2 3a 3d
       -0.0016769945 0.032009702 -0.082026154 0.045641683
0000f0 9e 4f 80 3d e2 8d 66 bd 61 0b 1c bd 13 2c 37 bc
       0.06265186 -0.056287654 -0.03809679 -0.011179942
000100 ed 97 98 3d 08 67 6a 3d 9a 0a b5 bd 81 7a 79 bd
       0.074508525 0.057227165 -0.08839913 -0.060907844
000110 7c 7e cb 3d 5e 84 36 bd e4 90 8e 3d bb d8 53 bd
       0.09936234 -0.04455983 0.069612294 -0.051720362
000120 02 75 5e 3d e7 d4 6b 3d 92 3b 03 3d 49 24 b2 bd
       0.054310806 0.057576086 0.032039233 -0.08698327
000130 7b c6 96 bd 97 3c bb bc 60 fd 5a 3d 10 57 43 bd
       -0.07362076 -0.02285604 0.053464293 -0.04769045
000140 30 05 5e bd da b3 ba 3c 48 8d 48 bd 7e 98 66 bd
       -0.054204166 0.022790838 -0.04896286 -0.05629777
000150 fa ac 8d bd a1 01 17 bd bc 36 8b 3d c7 0c 0f 3d
       -0.06917758 -0.036866788 0.06797549 0.034924295
000160 ac 4d 8a 3c 6b 6c 8c bd bb 03 0c bd 0d ad 98 3d
       0.01688274 -0.068566166 -0.034183245 0.07454882
000170 1a 64 44 bd 9c 02 ac bd 9f 21 67 bd 4d b0 81 3d
       -0.047947027 -0.08398935 -0.056428548 0.06332455
000180 57 6e 6a bd 8e da 86 bd 9c bd 71 bb 4d f1 7a 3b
       -0.057234135 -0.06584655 -0.0036886698 0.00382908
