Amos/Z12.pth (torch, 185583 bytes, 7 tensors)

fc1.weight f4 [100, 52]
0.09968587 0.05578626 -0.03599427 0.11059491 -0.11632574 0.05533198 0.10524573 0.052010883
0.05441921 0.043434747 -0.020499866 0.074550174 -0.07405499 0.058172036 -0.071366474 0.12434928
0.1067994 0.03356475 0.13872626 -0.117402606 0.08004123 0.007838014 0.1126052 0.1245883
-0.1196888 -0.14691418 0.07431993 -0.13201621 0.13276078 0.12587915 -0.02954452 -0.13090584
0.002155006 0.11259907 -0.10615672 0.08396456 0.04431401 0.043239944 0.0106261205 -0.06188139
-0.03448651 -0.052620046 -0.1363141 -0.08522663 0.13100502 0.06946058 0.058496874 0.13070628
-0.08116394 0.10765244 -0.1292373 0.12492547 0.10917375 0.12804072 0.10059566 0.0147922365
-0.040781368 -0.1295455 -0.07104907 -0.0050675552 -0.014973786 0.100366116 -0.041269097 -0.045826368
-0.008525496 0.07704182 -0.052250423 0.009446151 0.009063956 0.044063188 -0.050665762 -0.07229848
-0.046125107 -0.05992574 0.10217419 0.09285998 -0.08942207 -0.117204376 -0.082347125 0.10599658
-0.07273748 -0.07924511 -0.12268261 0.11401764 0.09821254 0.01736547 0.0652841 -0.020819437
-0.015979096 -0.14169912 0.033583887 0.035024207 0.10637876 -0.03778086 0.07000067 0.079991855
0.008914874 0.016041417 0.056617808 0.08423302 -0.056537323 -0.065853044 0.036831886 -0.011888913
0.011127556 -0.09486315 -0.09997315 -0.053920917 0.06129729 -0.08853115 -0.0260219 0.10418867
0.008126146 -0.057520837 0.01865034 -0.052900653 0.0101083405 -0.0848638 0.0044830567 0.111757375
-0.12920024 0.1167569 0.034482714 -0.052123647 -0.09399188 0.0473299 0.12793045 0.03985538
0.011764858 0.101562575 -0.04809644 0.1348443 0.08126518 -0.11837616 -0.12388427 0.13452762
0.02320402 -0.010890733 0.1150961 -0.032548778 0.11479832 -0.08918831 -0.12926874 -0.059779797
-0.10639309 -0.097904235 -0.063142546 0.068582796 -0.0087314425 0.08305073 0.124454714 0.1273255
-0.004033214 -0.1303313 -0.10541922 0.12666324 -0.10852948 0.1034653 -0.022803828 0.12968436
0.04268794 -0.04608408 0.10307348 0.002794553 -0.109491244 -0.115490176 0.028286435 0.06632856
-0.023151658 -0.08675653 -0.022787398 -0.12649734 -0.066872455 -0.072288245 0.10347355 -0.12345483
0.026932381 0.11218498 0.044704434 -0.027613578 0.06601841 0.014420232 0.035264857 0.08496534
0.00020390838 0.029768154 0.12103545 -0.04968236 -0.025746604 -0.077962406 -0.08614425 -0.055706184
-0.0973575 0.061357968 -0.04099269 -0.03445157 0.051308453 0.11248013 0.111688256 0.08270184
-0.063353434 0.11630112 0.040426042 0.060556237 -0.0037150297 0.07266231 0.12578563 -0.10659673
0.12272528 0.095052026 -0.05820167 0.08666554 -0.07601373 -0.02745634 0.083475634 -0.06866814
0.011073727 -0.125219 0.016767897 -0.062233325 -0.07425174 -0.09251225 -0.00019719313 0.09136179
0.07073476 8.2371014e-05 -0.054370135 -0.11742818 -0.08331426 0.07651002 0.033812318 -0.08127736
0.06802735 0.078879625 0.051937226 -0.077974394 0.13085237 0.059711564 -0.12965244 -0.12544847
0.12420138 0.118959785 -0.06897607 -0.021670198 -0.08270108 -0.13097948 -0.1298819 -0.06652546
-0.12041379 0.0723121 -0.10783379 0.089288116 0.11282393 0.0078382045 0.0043389695 -0.013271101
00000000: 1b28 cc3d 2280 643d ba6e 13bd 967f e23d
00000010: 313c eebd c9a3 623d 138b d73d 5d09 553d
00000020: ade6 5e3d a2e8 313d 56ef a7bc c3ad 983d
00000030: 25aa 97bd cd45 6e3d 9628 92bd d6aa fe3d
00000040: a5b9 da3d 317b 093d 420e 0e3e c770 f0bd
00000050: a8ec a33d 036b 003c 8e9d e63d 2728 ff3d
00000060: 671f f5bd ac70 16be 0c35 983d 422f 07be
00000070: 71f2 073e 77e6 003e 5907 f2bc 2e0c 06be
00000080: 003b 0d3b 579a e63d b268 d9bd 9cf5 ab3d
00000090: 9b82 353d 5e1c 313d 2e19 2e3c 5777 7dbd
000000a0: ba41 0dbd 1e88 57bd ec95 0bbe 4d8b aebd
000000b0: 2e26 063e 5941 8e3d 6b9a 6f3d ded7 053e
000000c0: 4839 a6bd e278 dc3d c856 04be edd8 ff3d
000000d0: 7d96 df3d 1b1d 033e 1905 ce3d 235b 723c
000000e0: 5d0a 27bd 93a7 04be 2d82 91bd bc0d a6bb
000000f0: 9c54 75bc c08c cd3d c909 29bd 6eb4 3bbd
00000100: 86ae 0bbc 1ac8 9d3d 8a04 56bd 07c4 1a3c
00000110: fd80 143c 9a7b 343d e786 4fbd 3a11 94bd
00000120: aeed 3cbd b174 75bd b440 d13d 602d be3d
00000130: eb22 b7bd d908 f0bd 9ca5 a8bd bc14 d93d
00000140: 63f7 94bd 434b a2bd 0541 fbbd 1582 e93d
00000150: a823 c93d 0842 8e3c acb3 853d 868d aabc
00000160: 98e6 82bc 9319 11be 428f 093d 8b75 0f3d
00000170: 1bdd d93d 1ac0 1abd 835c 8f3d c5d2 a33d
00000180: b10f 123c 4a69 833c 13e8 673d 5d82 ac3d
00000190: ae93 67bd f6dd 86bd 08dd 163d b7c9 42bc
000001a0: 5a50 363c 9c47 c2bd b9be ccbd 2edc 5cbd
000001b0: de12 7b3d d24f b5bd e12b d5bc df60 d53d
000001c0: 8723 053c f89a 6bbd 99c8 983c 5bae 58bd
000001d0: 749d 253c 12cd adbd 9be6 923b 0de1 e43d
000001e0: 114d 04be 3e1e ef3d bf3d 0d3d 9b7f 55bd
000001f0: d17e c0bd ffdc 413d 3300 033e 653f 233d
00000200: 64c1 403c 0a00 d03d c600 45bd a014 0a3e
00000210: 5c6e a63d 336f f2bd 09b7 fdbd 9cc1 093e
00000220: 5b16 be3c 0c6f 32bc 81b7 eb3d de51 05bd
00000230: 621b eb3d 5ca8 b6bd 065f 04be a9db 74bd
00000240: 9fe4 d9bd 0482 c8bd e150 81bd 2375 8c3d
00000250: 530e 0fbc 8016 aa3d 1de2 fe3d 9e61 023e
00000260: 0d29 84bb 9175 05be 08e6 d7bd 02b4 013e
00000270: b444 debd 9de5 d33d 18cf babc facb 043e
00000280: 8dd9 2e3d a9c2 3cbd 3018 d33d d224 373b
00000290: f23c e0bd 1d86 ecbd f4b8 e73c 45d7 873d
000002a0: 8ca8 bdbc 68ad b1bd a3ac babc 8588 01be
000002b0: 6df4 88bd dc0b 94bd f1e9 d33d e3d5 fcbd
000002c0: 4ca1 dc3c 3dc1 e53d ff1b 373d df35 e2bc
000002d0: a934 873d d642 6c3c e271 103d 4f02 ae3d
000002e0: 3dd0 5539 58dc f33c 6fe1 f73d bb7f 4bbd
000002f0: 8bea d2bc c1aa 9fbd 666c b0bd 2b2c 64bd
00000300: 5e63 c7bd 7e52 7b3d f3e7 27bd 171d 0dbd
00000310: d028 523d fb5b e63d d0bc e43d 955f a93d
00000320: 72bf 81bd 482f ee3d c795 253d d109 783d
00000330: db77 73bb facf 943d f3cd 003e 634f dabd
00000340: 6457 fb3d a3aa c23d e064 6ebd b47d b13d
00000350: 16ad 9bbd 1eec e0bc 46f5 aa3d e2a1 8cbd
00000360: 946e 353c 6939 00be d45c 893c 5fe8 7ebd
00000370: 4c11 98bd 1077 bdbd a1c5 4eb9 e41b bb3d
00000380: 63dd 903d 9abe ac38 38b3 5ebd 307e f0bd
00000390: aba0 aabd 49b1 9c3d c97e 0a3d bf74 a6bd
000003a0: ec51 8b3d a48b a13d 21bc 543d 0ab1 9fbd
000003b0: 2afe 053e 1d94 743d 9cc3 04be 9075 00be
000003c0: 4b5d fe3d 30a1 f33d 5343 8dbd b385 b1bc
000003d0: 2f5f a9bd 7c1f 06be c3ff 04be 803e 88bd
000003e0: 819b f6bd 5e18 943d f6d7 dcbd b0dc b63d
000003f0: 3c10 e73d d06b 003c ea2d 8e3b 086f 59bc

fc1.bias f4 [100]
0.037242576 -0.13101688 -0.10513015 0.041367467 0.08553199 0.09937397 -0.023219533 0.04961846
-0.12746505 0.13368075 -0.040976867 0.024377484 0.025287917 -0.13824204 -0.06967643 -0.02866442
-0.04220498 -0.06659701 0.08915118 -0.06564341 -0.041370284 0.07442764 0.13559632 0.100380346
0.027698664 -0.10327277 0.051331207 -0.120753735 0.106725976 0.05955078 -0.12614068 0.02799107
0.11192355 0.11525796 0.10528795 -0.06988528 -0.005208563 0.05880185 -0.09513055 -0.0016432236
-0.04811607 -0.10555208 0.12913711 -0.0814748 -0.1127504 -0.13964659 0.12809788 -0.044987142
0.013466727 -0.033891536 0.13165505 -0.08296863 -0.06059651 -0.013725522 0.008700106 -0.08825588
0.045066535 -0.088706546 -0.07187902 0.057236675 -0.070962094 0.10560914 -0.12451951 -0.05232603
0.05906335 -0.009928274 0.088565335 0.009623608 -0.06700311 0.12807637 -0.04477452 0.064521715
0.02330547 0.04747473 -0.025725206 -0.13102515 0.05336443 0.086124055 0.094403476 0.1405981
-0.1321746 0.06942465 0.13357903 0.120892964 -0.086487964 0.13978872 0.12315766 -0.138913
-0.07634397 -0.053263865 0.01861597 0.07344786 0.0036656843 0.03014599 0.050557584 0.01643715
0.0636978 0.14638303 0.05165069 0.11151989
00000000: ac8b 183d 4a29 06be 7a4e d7bd ef70 293d
00000010: 652b af3d 9484 cb3d e436 bebc ba3c 4b3d
00000020: 3386 02be 9be3 083e 5cd7 27bd 4ab3 c73c
00000030: 9b28 cf3c 528f 0dbe 84b2 8ebd a5d1 eabc
00000040: 21df 2cbd 0364 88bd e594 b63d 0d70 86bd
00000050: e373 29bd 856d 983d c3d9 0a3e 3694 cd3d
00000060: 4fe8 e23c ad80 d3bd ac40 523d bc4d f7bd
00000070: 2693 da3d 85eb 733d 062b 01be 874d e53c
00000080: 2d38 e53d 5e0c ec3d 35a1 d73d 0420 8fbd
00000090: 98ac aabb 35da 703d ced3 c2bd 6f61 d7ba
000000a0: 5b15 45bd b02b d8bd 853c 043e 43dc a6bd
000000b0: afe9 e6bd 84ff 0ebe 172c 033e 7044 38bd
000000c0: 8ca3 5c3c dad1 0abd 95d0 063e 75eb a9bd
000000d0: 0c34 78bd 03e1 60bc e48a 0e3c 80bf b4bd
000000e0: b097 383d c7ab b5bd 4f35 93bd 0171 6a3d
000000f0: 9354 91bd 9b49 d83d 1604 ffbd d253 56bd
00000100: 69ec 713d 33aa 22bc be61 b53d 56ac 1d3c
00000110: ed38 89bd 7426 033e 7d65 37bd f623 843d
00000120: 1deb be3c dd74 423d abbd d2bc 752b 06be
00000130: a994 5a3d cf61 b03d 9c56 c13d f3f8 0f3e
00000140: c758 07be 832e 8e3d f1c8 083e bb96 f73d
00000150: 9a20 b1bd c624 0f3e 153a fc3d 363f 0ebe
00000160: 3a5a 9cbd 362b 5abd 8580 983c d56b 963d
00000170: fa3b 703b b9f4 f63c 7815 4f3d 34a7 863c
00000180: fe73 823d 6fe5 153e ad8f 533d 8a64 e43d

fc2.weight f4 [200, 100]
0.049095515 0.0029241308 -0.017488824 0.037720542 0.06343179 -0.037379123 0.08027632 -0.08772504
0.07746977 -0.006188177 -0.02602002 0.023305733 0.08154217 0.020371478 -0.05116662 0.059786882
-0.09642589 0.050763793 -0.056633305 -0.061503984 0.09155159 -0.068480626 0.038206786 -0.011260039
0.026695559 0.06894122 -0.04526533 -0.07739313 -0.06495496 -0.015095917 0.078143165 0.046513528
-0.023742557 -0.050609656 -0.09188062 0.041015275 -0.030451657 -0.00947269 -0.08358113 0.08251035
-0.09873479 -0.01469092 -0.040052626 -0.00081722677 -0.092914134 0.024908034 0.021973386 0.09648986
-0.066726446 -0.054250605 -0.083218634 -0.0016011301 0.08545566 -0.090418525 -0.072849266 0.049306203
-0.03762069 0.054949753 -0.07565287 -0.07958628 -0.027292967 -0.08251616 0.05312484 -0.049426787
0.045154132 -0.03928676 -0.09879174 -0.052375853 -0.013935325 -0.06492805 0.08968666 -0.034117177
-0.09348437 -0.06643993 0.022494052 -0.0632917 -0.017374722 0.05771868 -0.071404986 -0.06100779
-0.024718229 0.0023396523 -0.0017483932 -0.036641 -0.090876386 -0.043774694 -0.020761939 -0.048044685
-0.055672266 0.01541575 0.002871984 0.0009980608 -0.09711884 -0.0968828 -0.04904893 0.088593476
-0.09646705 -0.07911131 -0.07551967 -0.08052315 -0.0008819294 0.013541039 -0.049966607 -0.020663122
-0.07577245 -0.066296205 0.08062484 0.092708334 0.05792814 0.06006158 -0.0014576535 -0.079645805
0.054589316 0.066250876 -0.064553134 -0.08979067 -0.09815508 0.0100287 -0.09021818 0.05578422
-0.09604372 -0.06675149 -0.078338884 -0.0994162 -0.023029948 0.045340676 0.08853249 0.0110134585
-0.037857104 0.07726032 0.024608636 0.033147905 -0.021496506 -0.0077694394 0.07505242 -0.0031113042
-0.019309284 0.02565047 -0.040006526 -0.06623168 -0.05534964 0.027235461 -0.07760932 -0.004263958
0.06840303 -0.05011643 -0.08236731 -0.011142607 0.08329486 0.0577705 -0.017161489 0.06493387
0.056777433 0.065290816 0.019987144 -0.025053531 -0.008552149 0.05305131 -0.003902683 -0.03243266
0.07287764 0.093324505 -0.04119138 -0.038915303 -0.05924076 -0.07136622 0.060153987 0.08364192
0.012840397 -0.0148808425 0.08791474 -0.061951965 0.040564105 0.06606545 0.0112018455 0.021753822
-0.09915481 0.022860784 -0.08519459 0.061920054 -0.002020255 0.04119174 0.08413029 0.09331137
0.017721483 0.021853218 0.025595486 0.017219 -0.028790342 -0.06819584 0.0065519046 -0.028890245
0.041225787 -0.033332717 -0.012901372 0.09694438 0.014189829 0.052154437 0.027246293 -0.017575482
0.065494254 0.07585929 -0.09833534 -0.09511565 0.07919429 -0.021163685 -0.050988108 -0.035770938
-0.007460455 0.04729576 -0.0771483 0.088621415 -0.027964173 -0.07444887 -0.0048942496 -0.062069498
0.057030886 -0.067221396 0.045956444 -0.04047515 0.09998233 0.031747658 -0.07200575 -0.06483535
0.03939369 -0.022789791 0.07665007 -0.06292251 0.028251352 0.083248466 0.062202033 0.01903339
-0.07594492 -0.010760411 0.08837604 0.07603174 -0.016619217 0.08725703 0.06941686 -0.04481704
0.025974346 0.020333655 0.08553889 0.093426675 0.09055008 -0.04646006 -0.02027742 -0.02143389
-0.068469286 0.097955525 0.00027026975 0.071234606 0.05393525 -0.07446375 0.008302164 0.028462019
00000000: 6118 493d c6a2 3f3b b944 8fbc db80 1a3d
00000010: 87e8 813d da1a 19bd e967 a43d 30a9 b3bd
00000020: 79a8 9e3d 31c6 cabb f027 d5bc aaeb be3c
00000030: 95ff a63d 16e2 a63c 1794 51bd 17e3 743d
00000040: f07a c5bd b2ed 4f3d 53f8 67bd 9aeb 7bbd
00000050: 667f bb3d 923f 8cbd b87e 1c3d 077c 38bc
00000060: a5b0 da3c 0e31 8d3d 2368 39bd 4a80 9ebd
00000070: 1b07 85bd dd54 77bc 8609 a03d f884 3e3d
00000080: c07f c2bc 124c 4fbd e82b bcbd a2ff 273d
00000090: c175 f9bc 5733 1bbc 952c abbd 30fb a83d
000000a0: 7735 cabd 2fb2 70bc 390e 24bd 293b 56ba
000000b0: c449 bebd ef0b cc3c 8801 b43c 7a9c c53d
000000c0: e0a7 88bd e235 5ebd 886e aabd 03dd d1ba
000000d0: 6103 af3d 592d b9bd ff31 95bd 4df5 493d
000000e0: 2718 1abd fe12 613d e4ef 9abd 22fe a2bd
000000f0: 8095 dfbc 3cfe a8bd 6f99 593d be73 4abd
00000100: 8af3 383d 27eb 20bd 5353 cabd 1088 56bd
00000110: fd50 64bc fff8 84bd a4ad b73d 74be 0bbd
00000120: bc74 bfbd a811 88bd 7245 b83c 149f 81bd
00000130: 6f55 8ebc 6c6a 6c3d c73c 92bd 4ee3 79bd
00000140: e27d cabc da54 193b 572a e5ba e014 16bd
00000150: 661d babd 184d 33bd f114 aabc 81ca 44bd
00000160: 9a08 64bd 5892 7c3c e537 3c3b 5dd1 823a
00000170: 3ee6 c6bd 7d6a c6bd 88e7 48bd 7f70 b53d
00000180: 8490 c5bd 1c05 a2bd 0faa 9abd 52e9 a4bd
00000190: 4831 67ba 3cdb 5d3c c9a9 4cbd b545 a9bc
000001a0: 962e 9bbd 4ec6 87bd a31e a53d dedd bd3d
000001b0: 0f46 6d3d 2203 763d bc0e bfba 571d a3bd
000001c0: 0c99 5f3d 8aae 873d 6f34 84bd 2ce4 b7bd
000001d0: 8805 c9bd 6b4f 243c 4fc4 b8bd ff7d 643d
000001e0: 92b2 c4bd 01b5 88bd 2370 a0bd b89a cbbd
000001f0: 4da9 bcbc 25b7 393d 8650 b53d cb71 343c
00000200: 0d10 1bbd a93a 9e3d 0d98 c93c 19c6 073d
00000210: 7119 b0bc c896 febb 15b5 993d 06e7 4bbb
00000220: 812e 9ebc ef20 d23c e2dd 23bd 7aa4 87bd
00000230: 4eb6 62bd e71c df3c a3f1 9ebd acb8 8bbb
00000240: e316 8c3d e346 4dbd 31b0 a8bd 7b8f 36bc
00000250: 7f96 aa3d c3a0 6c3d 4096 8cbc 0dfc 843d
00000260: 748f 683d 31b7 853d 14bc a33c 103d cdbc
00000270: 501e 0cbc 554c 593d 28c4 7fbb 1cd8 04bd
00000280: df40 953d eb20 bf3d 4bb8 28bd a765 1fbd
00000290: 70a6 72bd 7428 92bd 0764 763d 744c ab3d
000002a0: 8760 523c c7ce 73bc a50c b43d 58c1 7dbd
000002b0: 8c26 263d 534d 873d f287 373c 1235 b23c
000002c0: ad11 cbbd 8a46 bb3c 807a aebd e29f 7d3d
000002d0: 4166 04bb acb8 283d 804c ac3d 081a bf3d
000002e0: a52c 913c 8505 b33c a0ad d13c dc0e 8d3c
000002f0: b9d9 ebbc 43aa 8bbd 5cb1 d63b 3cab ecbc
00000300: 5fdc 283d e387 08bd 4760 53bc c68a c63d
00000310: 757c 683c e49f 553d 9e33 df3c 75fa 8fbc
00000320: da21 863d 1e5c 9b3d 0a64 c9bd fecb c2bd
00000330: 9e30 a23d 775f adbc e8d8 50bd 8c84 12bd
00000340: d576 f4bb 33b9 413d eeff 9dbd 257f b53d
00000350: 1f15 e5bc a678 98bd f15f a0bb 963c 7ebd
00000360: 3899 693d 5fab 89bd d33c 3c3d 45c9 25bd
00000370: 89c3 cc3d d509 023d c077 93bd 65c8 84bd
00000380: 475b 213d a8b1 babc b6fa 9c3d 84dd 80bd
00000390: 616f e73c 2c7e aa3d 8fc7 7e3d e9eb 9b3c
000003a0: 0389 9bbd 6f4c 30bc 7ffe b43d 87b6 9b3d
000003b0: 0625 88bc d0b3 b23d 6d2a 8e3d 1392 37bd
000003c0: 27c8 d43c c492 a63c 032f af3d 7c56 bf3d
000003d0: 5272 b93d e74c 3ebd d51c a6bc 2096 afbc
000003e0: a039 8cbd e89c c83d feb2 8d39 73e3 913d
000003f0: 35eb 5c3d 7380 98bd cd05 083c 2e29 e93c

fc2.bias f4 [200]
0.09007109 -0.09950051 -0.09035832 0.0793439 0.01608207 -0.024402557 0.08955788 -0.029688809
0.08597155 0.068420306 -0.0427956 0.03347476 -0.028396754 -0.017593265 -0.03262164 -0.05016869
0.021220388 0.09088188 -0.044258237 0.04531429 -0.01031985 0.014213419 0.010721737 -0.02945084
0.011387927 -0.0070749903 -0.027800955 0.019539807 -0.09504155 0.021692146 0.026591577 0.015317487
0.02111446 0.029481305 0.048094086 0.00050884753 0.04348269 0.10487017 0.06164706 0.05793831
0.057972256 0.00797691 0.031816006 -0.06584957 0.024385238 0.047600724 0.07277692 0.077463225
-0.046726644 0.014634837 0.03648509 0.04626409 -0.022568304 -0.0075420635 0.087280035 0.046755638
0.09052451 0.04055221 0.01358586 -0.07079136 -0.029675525 -0.06317619 0.028868236 0.04586571
0.017087353 0.015286086 0.03204487 0.070575126 -0.030784236 0.04088116 -0.062574126 -0.09346713
-0.012357805 -0.042411603 0.0034974387 0.07585134 0.047631614 0.040782988 -0.07636523 -0.03557817
-0.09874515 0.078138635 0.017501181 0.019311171 -0.014935279 -0.028831642 -0.020391736 -0.026269361
0.081318595 -0.08616649 -0.03530945 0.024529379 -0.02794776 0.0863614 -0.094064556 0.017137486
-0.01856021 -0.012725664 -0.06603772 0.03028906 0.08947354 0.0063542654 -7.37398e-05 -0.012732149
-0.07923348 0.0052991463 -0.024911722 -0.06737016 0.0511161 -0.08686547 -0.09718012 -0.0652914
-0.0248948 -0.04919882 0.06886335 -0.09165425 0.005331954 0.054644845 -0.05677796 0.09991951
-0.0011430122 0.025708145 0.0048077097 0.071014695 0.06454841 -0.083692804 -0.031273652 0.08692419
-0.050976057 -0.01750167 0.016701719 0.0562995 -0.07501311 0.10173339 -0.055732943 -0.052608162
-0.003246615 0.010895499 -0.016107753 -0.017740654 -0.048499625 0.065839514 0.020282915 0.063560106
0.09426665 0.09947455 0.059990156 0.08350527 -0.07401598 -0.05096221 -0.06886845 0.023382097
0.08061039 -0.022624891 -0.09503801 -0.09092475 0.015451531 -0.01290846 -0.089072004 -0.03672348
0.0062459162 0.050753705 0.06210316 0.0031669016 -0.002329861 0.081171565 -0.05038529 -0.016523946
-0.050234057 -0.043586053 0.02535884 -0.019503644 0.09878027 0.06766401 0.04506399 0.04308669
0.080332905 0.020460539 0.03383718 -0.016640225 0.08957861 0.08723277 0.07114411 0.07372374
-0.031910587 0.02432031 -0.07584058 0.06952353 -0.03200507 0.05816399 0.07223946 -0.025919035
-0.05843803 -0.013657032 -0.065698855 0.08824117 0.04364195 -0.056206938 -0.06837014 -0.06218899
00000000: 3177 b83d ecc6 cbbd c80d b9bd 0e7f a23d
00000010: 8cbe 833c dfe7 c7bc 1f6a b73d f235 f3bc
00000020: da11 b03d f21f 8c3d 704a 2fbd d41c 093d
00000030: 4fa0 e8bc c01f 90bc 459e 05bd af7d 4dbd
00000040: 61d6 ad3c 4720 ba3d 2048 35bd 7a9b 393d
00000050: 9714 29bc 66df 683c 39aa 2f3c e342 f1bc
00000060: 6e94 3a3c 52d5 e7bb d4be e3bc f211 a03c
00000070: 25a5 c2bd bab3 b13c 94d6 d93c 32f6 7a3c
00000080: 3bf8 ac3c c782 f13c 4efe 443d 2e64 053a
00000090: e81a 323d 2cc6 d63d a181 7c3d b950 6d3d
000000a0: 5174 6d3d 96b1 023c 8051 023d 24dc 86bd
000000b0: 8dc3 c73c faf8 423d 110c 953d 0aa5 9e3d
000000c0: 7064 3fbd f5c6 6f3c 6471 153d 6a7f 3d3d
000000d0: 2ae1 b8bc 6a23 f7bb e0bf b23d d782 3f3d
000000e0: ea64 b93d 131a 263d 3a97 5e3c 10fb 90bd
000000f0: 161a f3bc 8562 81bd 147d ec3c afdd 3b3d
00000100: c7fa 8b3c 7e72 7a3c 7b41 033d b189 903d
00000110: 392f fcbc 0173 273d dd26 80bd b26b bfbd
00000120: 6478 4abc cab7 2dbd 4935 653b f357 9b3d
00000130: 5e19 433d 100c 273d 6065 9cbd 6aba 11bd
00000140: e63a cabd 2607 a03d a35e 8f3c 7632 9e3c
00000150: 1ab3 74bc 5630 ecbc 920c a7bc d832 d7bc
00000160: 5d8a a63d 0f78 b0bd a4a0 10bd d6f1 c83c
00000170: b3f2 e4bc 3fde b03d eba4 c0bd ea63 8c3c
00000180: 950b 98bc 4e7f 50bc c93e 87bd c320 f83c
00000190: e73d b73d 7137 d03b c1a4 9ab8 819a 50bc
000001a0: 2a45 a2bd 76a4 ad3b ab13 ccbc 5ef9 89bd
000001b0: 1e5f 513d 86e6 b1bd 5f06 c7bd 7fb7 85bd
000001c0: 2ef0 cbbc b484 49bd 3a08 8d3d 39b5 bbbd
000001d0: acb7 ae3b 46d3 5f3d 0290 68bd 9aa2 cc3d
000001e0: 20d1 95ba e399 d23c fe89 9d3b 2770 913d
000001f0: f531 843d 2267 abbd cd18 00bd 4f05 b23d
00000200: 45cc 50bd aa5f 8fbc 0bd2 883c 4e9a 663d
00000210: 79a0 99bd 9859 d03d 3a48 64bd a87b 57bd
00000220: 29c5 54bb 0983 323c 68f4 83bc d954 91bc
00000230: 8ba7 46bd ded6 863d 5b28 a63c cd2b 823d
00000240: e00e c13d 50b9 cb3d 3db8 753d d004 ab3d
00000250: b195 97bd c0bd 50bd e70a 8dbd d08b bf3c
00000260: 0f17 a53d d657 b9bc 4aa3 c2bd c136 babd
00000270: 6b28 7d3c 017e 53bc 626b b6bd 5c6b 16bd
00000280: 8baa cc3b 1ee3 4f3d e25f 7e3d cb8b 4f3b
00000290: 95b0 18bb 473d a63d ce60 4ebd 3a5d 87bc
000002a0: 3ac2 4dbd 4a87 32bd 58bd cf3c 1bc6 9fbc
000002b0: 4f4d ca3d 6e93 8a3d 0595 383d ab7b 303d
000002c0: 9485 a43d dc9c a73c db98 0a3d 1551 88bc
000002d0: fe74 b73d 18a7 b23d 01b4 913d 79fc 963d
000002e0: adb4 02bd 633b c73c 4e52 9bbd 5a62 8e3d
000002f0: c017 03bd 5d3d 6e3d 48f2 933d 2854 d4bc
00000300: b75c 6fbd bec1 5fbc 1f8d 86bd c9b7 b43d
00000310: e7c1 323d 3f39 66bd a505 8cbd e2b9 7ebd

fc3.weight f4 [100, 200]
0.038431957 0.043378897 0.034315825 -0.037373256 0.05469924 0.015621604 0.05464133 0.005667606
-0.027176922 0.0006205682 -0.011371062 -0.010607492 -0.021532593 0.011573264 0.041545782 0.046317328
0.048946586 0.070825 -0.029007243 -0.007021626 0.0038983063 0.021499468 0.019555679 -0.025291508
-0.015829476 -0.022069134 -0.059611224 0.041155387 0.013670984 0.058324896 -0.05784079 -0.03175533
0.023332031 -0.060115915 -0.0241317 -0.059500434 -0.068932526 -0.06383754 -0.033005975 0.013441546
0.03540552 0.02094438 0.040542003 -0.010687173 0.032068286 0.06067537 0.013152775 0.06244858
0.03611035 0.071492106 -0.06520381 -0.031738218 -0.013475448 0.06421151 -0.06200307 0.006647552
-0.020441461 0.020597102 -0.052630346 -0.01451192 0.057746258 -0.065993726 0.022344941 -0.054231334
0.0057791304 0.056276802 -0.03190465 0.047959827 -0.007074319 -0.027889788 -0.02732444 0.0013409333
-0.06609145 -0.06408152 -0.05789591 -0.009625021 0.016820548 -0.012717243 -0.0454212 -0.0462224
-0.022934124 0.04146896 0.047052007 0.06922216 0.010175523 0.013460443 -0.011394812 0.03379988
0.017093869 -0.06164241 -0.035453755 0.0070154243 0.044555113 0.011568862 -0.012628537 0.027782999
0.0020854883 0.07269831 0.060985845 0.02874656 0.038685385 0.044545528 -0.07104794 -0.040050812
0.022031905 -0.052405216 0.06167428 0.01616383 -0.052095573 -0.02140046 0.04139575 0.057839256
0.04269814 0.049736537 -0.021885151 -0.035887066 -0.028666377 0.03022631 -0.043403745 -0.008112822
-0.07031341 -0.06192836 0.062202945 -0.0429044 0.01451169 0.0070702014 -0.06511585 0.051121283
-0.034663554 -0.05676948 -0.029828506 -0.048437525 -0.06878183 0.037566196 -0.035976604 -0.05649701
0.013392734 0.04759175 -0.04960825 -0.034418687 -0.014364909 -0.05736739 -0.04520949 -0.047808755
-0.04268121 -0.035359863 -0.029060861 -0.017011879 0.038126804 0.0037521133 -0.02071543 -0.03077673
-0.029386444 0.036223896 0.06633857 -0.04392514 0.044010766 0.07197762 -0.06627931 -0.006731531
0.028640117 0.03656409 -0.04405582 0.04494299 -0.049172245 -0.029703429 0.04938482 0.039608803
-0.041934833 -0.067809366 0.036828227 0.03717309 0.006622502 -0.011717455 0.06365524 0.03554925
0.0366397 -0.040915787 0.04821678 0.0045819664 0.015544768 0.035777744 -0.034606382 0.010391199
-0.059128925 -0.066755585 0.05520687 -0.048136465 -0.023836069 -0.018898977 -0.05045429 -0.055453874
-0.035673648 0.00073812495 -0.0053455015 0.004376208 -0.051690936 -0.042626936 -0.04210149 -0.026911257
0.015449145 -0.010510153 0.034109067 0.04464384 0.031437457 -0.021560967 0.04215179 0.024711674
-0.005870703 -0.0454202 0.00018507967 -0.019177875 0.036422763 0.060850065 -0.021007838 -0.05023734
-0.009811483 -0.00023909505 0.06442975 -0.040379584 -0.0452818 -0.07099333 0.055482812 -0.06304811
0.050780404 -0.05599549 -0.05752686 0.024785234 -0.014648726 -0.06665028 -0.042045586 -0.0034928313
-0.06679651 -0.002070813 -0.048564397 -0.017822199 0.057074577 -0.06561364 -0.0028837197 0.045801785
0.055881474 -0.05399965 0.029784165 0.047793668 0.014036985 0.0028939275 0.015269733 -0.012971356
0.0498287 -0.011115656 0.04436182 0.046532493 -0.017236235 -0.06980783 0.060126472 -0.042185802
00000000: d46a 1d3d 12ae 313d c08e 0c3d b314 19bd
00000010: 4f0c 603d c2f1 7f3c 96cf 5f3d 53b7 b93b
00000020: 23a2 debc a0ad 223a b14d 3abc 0ccb 2dbc
00000030: 1f65 b0bc ca9d 3d3c e92b 2a3d 3db7 3d3d
00000040: 377c 483d b30c 913d 99a0 edbc ab15 e6bb
00000050: ba7a 7f3b a71f b03c 3b33 a03c 2330 cfbc
00000060: d1ac 81bc 54ca b4bc e62a 74bd 8d92 283d
00000070: 43fc 5f3c 16e6 6e3d 77ea 6cbd e011 02bd
00000080: d122 bf3c 1b3c 76bd d8af c5bc bab6 73bd
00000090: 7f2c 8dbd 42bd 82bd 4631 07bd ee39 5c3c
000000a0: 6105 113d 8c93 ab3c 5f0f 263d 4119 2fbc
000000b0: 095a 033d bd86 783d bd7e 573c 15ca 7f3d
000000c0: 72e8 133d 746a 923d 9389 85bd efff 01bd
000000d0: 20c8 5cbc 5381 833d eef6 7dbd b5d3 d93b
000000e0: da74 a7bc 41bb a83c eb92 57bd 67c3 6dbc
000000f0: 5787 6c3d b827 87bd bd0c b73c ad21 5ebd
00000100: dc5e bd3b 8182 663d 73ae 02bd 8671 443d
00000110: b0cf e7bb 2079 e4bc 81d7 dfbc 41c2 af3a
00000120: f45a 87bd 2c3d 83bd 4324 6dbd 44b2 1dbc
00000130: 3fcb 893c fc5b 50bc 950b 3abd b353 3dbd
00000140: 58e0 bbbc 5bdb 293d 9bb9 403d 59c4 8d3d
00000150: 3db7 263c 3189 5c3c 4eb1 3abc be71 0a3d
00000160: 7108 8c3c c07c 7cbd f537 11bd a5e1 e53b
00000170: 6c7f 363d 538b 3d3c ece7 4ebc 2c99 e33c
00000180: b0ac 083b dae2 943d 4bcc 793d e87d eb3c
00000190: 9174 1e3d 5f75 363d 9581 91bd 520c 24bd
000001a0: 417c b43c daa6 56bd 2b9e 7c3d 026a 843c
000001b0: 2b62 55bd 0450 afbc 978e 293d dbe8 6c3d
000001c0: 3fe4 2e3d 8ab8 4b3d 7d48 b3bc 51fe 12bd
000001d0: c0d5 eabc 2b9d f73c 20c8 31bd a4eb 04bc
000001e0: 7a00 90bd 98a8 7dbd 84c8 7e3d 86bc 2fbd
000001f0: 70c2 6d3c 26ad e73b 755b 85bd 8d64 513d
00000200: 5ffb 0dbd 1d87 68bd e95a f4bc 6d66 46bd
00000210: 7ddd 8cbd 03df 193d 345c 13bd 6969 67bd
00000220: 336d 5b3c 91ef 423d 0532 4bbd 9cfa 0cbd
00000230: cc5a 6bbc 11fa 6abd 962d 39bd 1dd3 43bd
00000240: 7ed2 2ebd 81d5 10bd 0b11 eebc 7f5c 8bbc
00000250: da2a 1c3d 04e6 753b 68b3 a9bc 7b1f fcbc
00000260: d7bb f0bc 825f 143d 84dc 873d d9ea 33bd
00000270: a244 343d 0169 933d 72bd 87bd 2d94 dcbb
00000280: ae9e ea3c 3ac4 153d e073 34bd 2416 383d
00000290: d668 49bd 9b54 f3bc bd47 4a3d d73c 223d
000002a0: dcc3 2bbd a3df 8abd 32d9 163d cf42 183d
000002b0: 9301 d93b 92fa 3fbc ae5d 823d 179c 113d
000002c0: 8313 163d 5097 27bd f57e 453d 5224 963b
000002d0: 7caf 7e3c af8b 123d 6cbf 0dbd d93f 2a3c
000002e0: 2c31 72bd 27b7 88bd 9920 623d be2a 45bd
000002f0: dc43 c3bc 07d2 9abc 28a9 4ebd 9a23 63bd
00000300: 881e 12bd ba7e 413a 5129 afbb 4b66 8f3b
00000310: e0b9 53bd 9599 2ebd 9d72 2cbd ff74 dcbc
00000320: 691e 7d3c c732 2cbc f3b5 0b3d 76dc 363d
00000330: 90c4 003d a0a0 b0bc 5ba7 2c3d 2370 ca3c
00000340: 075f c0bb 880a 3abd f211 4239 eb1a 9dbc
00000350: 0930 153d eb3d 793d a118 acbc abc5 4dbd
00000360: 58c0 20bc 97b5 7ab9 bff3 833d 1065 25bd
00000370: 6979 39bd f364 91bd f241 633d 5e1f 81bd
00000380: 1dff 4f3d 875b 65bd 49a1 6bbd 670a cb3c
00000390: 3601 70bc f17f 88bd fe37 2cbd fce7 64bb
000003a0: 9ccc 88bd 7ab6 07bb 76eb 46bd dcff 91bc
000003b0: 08c7 693d 7260 86bd cafc 3cbb a79a 3b3d
000003c0: f9e3 643d bd2e 5dbd ecfd f33c 4bc3 433d
000003d0: 62fb 653c 0ca8 3d3b e72d 7a3c cf85 54bc
000003e0: 2e19 4c3d 711e 36bc bdb4 353d db98 3e3d
000003f0: 0133 8dbc 68f7 8ebd 2d47 763d 05cb 2cbd

fc3.bias f4 [100]
0.050716326 -0.047203336 -0.027288677 -0.015245723 0.07054036 -0.052904557 0.071742386 -0.0025078156
0.026544383 0.009346399 -0.04054652 -0.017936477 0.0063822516 0.08215439 -0.030354856 0.010277473
-0.038810242 0.02336746 0.04782088 0.0006099991 -0.04405174 0.034744337 0.02662867 0.006521481
-0.027746622 0.045005366 0.006871469 -0.011476113 0.017173767 0.061352562 0.0045285057 0.053575408
0.07289185 0.07997706 -0.060481127 -0.043168504 -0.009161205 0.04641307 -0.0375972 0.041008897
-0.041633233 0.015776183 -0.003043438 -0.04988985 0.0022708243 0.058134772 0.06527028 -0.07025442
0.040909518 0.027996963 -0.045879494 0.020766456 -0.040029403 -0.053222593 -0.028198786 0.082236566
0.031368185 0.0048903404 0.04552561 -0.014796547 0.0501962 0.026532594 -0.068096325 0.025506003
0.046808608 -0.027510813 0.016487682 -0.064853534 -0.06855177 0.014448326 0.00820497 -0.028722784
-0.016334474 -0.03707796 0.07851321 0.015738029 -0.023505835 -0.035268754 -0.005685806 -0.02700801
-0.0681522 -0.026851142 0.050065618 0.04174932 0.008761588 0.021129314 0.072316535 -0.040859353
-0.020913485 -0.042620808 -0.043654177 0.06883652 0.033236384 -0.064105704 -0.022913182 0.07142949
0.059444238 -0.018604038 0.048148625 0.025304008
00000000: ecbb 4f3d 4958 41bd 818c dfbc 32c9 79bc
00000010: 7777 903d 73b2 58bd aced 923d 2a5a 24bb
00000020: 9b73 d93c a421 193c 1c14 26bd 85ef 92bc
00000030: 3522 d13b 9040 a83d bfaa f8bc d962 283c
00000040: 7df7 1ebd 1e6d bf3c d4df 433d 59e8 1f3a
00000050: 996f 34bd 1450 0e3d 5e24 da3c 26b2 d53b
00000060: e24c e3bc 8c57 383d 0f2a e13b 4f06 3cbc
00000070: 00b0 8c3c d34c 7b3d dc63 943b e371 5b3d
00000080: 5248 953d 03cb a33d 0fbb 77bd 75d1 30bd
00000090: e118 16bc a21b 3e3d 86ff 19bd f2f8 273d
000000a0: 9c87 2abd 0e3d 813c 6b74 47bb 4d59 4cbd
000000b0: 1cd2 143b ba1e 6e3d 6dac 853d 8de1 8fbd
000000c0: bd90 273d e359 e53c 23ec 3bbd 6a1e aa3c
000000d0: dff5 23bd efff 59bd 2401 e7bc a56b a83d
000000e0: ed7b 003d 263f a03b 1079 3a3d 376d 72bc
000000f0: 889a 4d3d e25a d93c 1676 8bbd f7f1 d03c
00000100: 62ba 3f3d 5b5e e1bc 2d11 873c eed1 84bd
00000110: df64 8cbd acb8 6c3c 236e 063c 0b4c ebbc
00000120: e0cf 85bc 0fdf 17bd 89cb a03d 0aed 803c
00000130: 4f8f c0bc f875 10bd ff4f babb e73f ddbc
00000140: 6193 8bbd edf6 dbbc 9b11 4d3d 5601 2b3d
00000150: c38c 0f3c 6217 ad3c b11a 943d 235c 27bd
00000160: c252 abbc 2893 2ebd b9ce 32bd 29fa 8c3d
00000170: e022 083d da49 83bd 6db4 bbbc a049 923d
00000180: cd7b 733d 7f67 98bc 7e37 453d 5a4a cf3c

fc7.weight f4 [1, 100]
-0.046513982 0.045853715 0.007926401 -0.09176082 0.100748494 -0.08130184 -0.07927238 -0.035907973
-0.053973276 -0.045433592 -0.09276243 0.014255949 0.08143247 0.066795826 -0.07239433 0.08936054
0.013630542 -0.02529391 0.05452425 0.05665397 0.033473775 0.085834265 0.08229303 0.07319739
-0.004272612 -0.025283277 -0.02569603 0.045660537 0.05808777 0.014701787 0.0901738 0.015505819
-0.005001439 0.051810306 0.018294508 -0.047999907 0.08377642 -0.053071875 0.08042981 -0.03995323
0.08632202 0.08568841 0.010530284 -0.0868957 0.07380795 0.07144211 0.10764717 0.098467916
0.048961673 -0.049430713 -0.05456363 -0.03815883 0.006366586 -0.07616706 0.0029862188 0.07547491
0.020337217 0.032641266 -0.05349181 0.046493314 0.110507816 -0.05091288 -0.029927868 0.016098382
0.10391664 0.06868725 -0.08306176 -0.055151157 0.099373296 -0.026725933 0.07783111 -0.050007425
0.05595462 0.05873369 0.0463412 -0.0751721 -0.06600772 -0.017278736 0.053685762 -0.03899368
-0.054204166 0.02319917 -0.02729391 -0.042930473 -0.0658913 -0.01702581 0.08500264 0.038009237
0.016965788 -0.064276114 -0.034212563 0.10872746 -0.019357093 -0.08029776 -0.05641727 0.09026577
-0.041360855 -0.062310006 0.0073805517 0.0066696852
00000000: 7285 3ebd 1bd1 3b3d bcdd 013c 19ed bbbd
00000010: 3a55 ce3d 9481 a6bd 8f59 a2bd 3d14 13bd
00000020: 1513 5dbd 9318 3abd 3bfa bdbd c991 693c
00000030: 11c6 a63d 40cc 883d 7a43 94bd a902 b73d
00000040: a352 5f3c 2d35 cfbc d254 5f3d fe0d 683d
00000050: cc1b 093d e0c9 af3d 4089 a83d 83e8 953d
00000060: 4401 8cbb e01e cfbc 7b80 d2bc 8b06 3b3d
00000070: 71ed 6d3d c4df 703c 0bad b83d 1e0c 7e3c
00000080: 1ce3 a3bb 0b37 543d 5dde 953c 8d9b 44bd
00000090: f992 ab3d e561 59bd 62b8 a43d 00a6 23bd
000000a0: 99c9 b03d 687d af3d 3687 2c3c 5ff6 b1bd
000000b0: 9f28 973d 3e50 923d 1f76 dc3d 8ca9 c93d
000000c0: 098c 483d dc77 4abd 1d7e 5fbd 6f4c 1cbd
000000d0: cb9e d03b 7afd 9bbd 70b4 433b 9792 9a3d
000000e0: 3c9a a63c d9b2 053d 3a1a 5bbd c66f 3e3d
000000f0: ec51 e23d 068a 50bd 4a2b f5bc c1e0 833c
00000100: 3fd2 d43d e7ab 8c3d 491c aabd 2ee6 61bd
00000110: 3a84 cb3d 58f0 dabc eb65 9f3d 96d4 4cbd
00000120: ac30 653d bd92 703d 45d0 3d3d d4f3 99bd
00000130: 0e2f 87bd 238c 8dbc 9ae5 5b3d d6b7 1fbd
00000140: 3005 5ebd 300c be3c 7a97 dfbc ddd7 2fbd
00000150: 05f2 86bd b679 8bbc dd15 ae3d 93af 1b3d
00000160: d6fb 8a3c 32a3 83bd 7922 0cbd 81ac de3d
00000170: c492 9ebc 2773 a4bd cc15 67bd 43dd b83d
00000180: 006a 29bd c738 7fbd 8ed8 f13b 608d da3b
