Amos/Z13.pth (torch, 185583 bytes, 7 tensors)

fc1.weight f4 [100, 52]
000000 e3 ab cb 3d 65 2a 63 3d a0 a6 12 bd ab 6b e2 3d
       0.09944894 0.055460352 -0.035803437 0.11055692
000010 60 28 ee bd 15 23 63 3d 40 2b d7 3d 2d 40 55 3d
       -0.11628795 0.05545338 0.10506296 0.052063156
000020 58 d3 5e 3d ae e1 31 3d 35 c9 a7 bc 72 61 98 3d
       0.05440077 0.043428116 -0.020481685 0.07440461
000030 94 2c 97 bd e3 e1 6d 3d f0 bd 92 bd 3d 65 fe 3d
       -0.073815495 0.05807675 -0.07165134 0.124216534
000040 a8 b7 da 3d 7d 3b 09 3d 6b 26 0e 3e 8a 76 f0 bd
       0.10679561 0.033503998 0.13881843 -0.117413595
000050 29 c3 a3 3d f1 bf 00 3c 50 6b e6 3d 1a df fe 3d
       0.07996208 0.007858262 0.11250937 0.12444897
000060 26 54 f5 bd 46 9c 16 be 49 2b 98 3d c3 2e 07 be
       -0.11978941 -0.14708051 0.07430131 -0.13201432
000070 5e f0 07 3e 9a e2 00 3e 29 f7 f1 bc 2a 05 06 be
       0.13275287 0.12586442 -0.0295368 -0.13087907
000080 bc 2c 0d 3b 32 96 e6 3d e0 64 d9 bd 39 ef ab 3d
       0.0021541556 0.11259116 -0.106149435 0.083952375
000090 12 82 35 3d 27 63 30 3d 90 df 2d 3c da 67 7d bd
       0.044313498 0.04306331 0.0106123835 -0.06186662
0000a0 e5 69 0d bd 13 90 57 bd d3 a1 0b be 52 86 ae bd
       -0.034524817 -0.052627634 -0.1363595 -0.08521713
0000b0 3a 22 06 3e 77 3a 8e 3d 10 8d 6f 3d f8 d1 05 3e
       0.13098994 0.06944745 0.058484137 0.13068378
0000c0 e6 27 a6 bd 4c d2 dc 3d 4f 48 04 be 3a ca ff 3d
       -0.08113079 0.107822984 -0.12918209 0.124897435
0000d0 63 96 df 3d 89 35 03 3e 02 e4 cd 3d f2 5c 72 3c
       0.10917356 0.12813391 0.10053255 0.014792668
0000e0 0c 7b 26 bd 86 c1 04 be ee 74 91 bd 57 9c a8 bb
       -0.04064469 -0.12964448 -0.07102381 -0.0051455903
0000f0 4b 47 75 bc 20 bc cd 3d cf c3 28 bd 3f 82 3b bd
       -0.014970611 0.100456476 -0.041202363 -0.04577851
000100 ad 5c 09 bc 5f 7f 9d 3d 75 89 55 bd 87 1e 17 3c
       -0.008383912 0.0769031 -0.052133042 0.009223587
000110 b0 c6 12 3c 30 96 34 3d 8d 98 4f bd c5 0b 94 bd
       0.008958504 0.044088542 -0.050682593 -0.07228807
000120 b0 82 3c bd 31 92 75 bd 1a d4 d0 3d 19 08 be 3d
       -0.04602307 -0.059953872 0.10196705 0.09278888
000130 05 21 b7 bd 25 97 ef bd f6 9e a8 bd 1a 0d d9 3d
       -0.08941845 -0.116987504 -0.082334444 0.10598202
000140 76 f6 94 bd 87 48 a2 bd 2d 3d fb bd 23 76 e9 3d
       -0.07273571 -0.0792399 -0.12267528 0.11399486
000150 72 21 c9 3d 5a 39 8e 3c ec b2 85 3d 65 85 aa bc
       0.09820832 0.017361332 0.06528267 -0.02081556
000160 56 dc 82 bc 91 cc 10 be 71 57 09 3d a5 71 0f 3d
       -0.015974205 -0.14140536 0.033530656 0.03502049
000170 25 c1 d9 3d 2e df 1a bd 95 74 8f 3d 56 a4 a3 3d
       0.106325425 -0.037810497 0.07004658 0.07990329
000180 a5 5c 11 3c a1 f9 82 3c c3 ed 67 3d 45 84 ac 3d
       0.008872186 0.015988173 0.05662323 0.08423666
000190 c4 8e 67 bd 76 ba 87 bd 25 e9 16 3d ad cb 40 bc
       -0.056532636 -0.066273615 0.036843438 -0.01176731
0001a0 29 ab 36 3c a9 d8 c1 bd 5a 66 cc bd 65 2a 5c bd
       0.011149206 -0.09465153 -0.099804595 -0.053751368
0001b0 b2 8d 7b 3d 26 58 b5 bd 0b bb d7 bc 52 12 d5 3d
       0.061414428 -0.088547036 -0.026334306 0.10403885
0001c0 f6 3f 02 3c 8d 1e 6b bd fb 28 99 3c 85 8a 58 bd
       0.00794982 -0.057402182 0.018696299 -0.052866478
0001d0 d3 8f 24 3c 5b eb ad bd b2 14 94 3b 14 98 e4 3d
       0.010044056 -0.08492156 0.0045190686 0.11161819
0001e0 57 27 04 be d5 0c ef 3d 75 e7 0c 3d 3b dc 55 bd
       -0.12905632 0.116723694 0.034400422 -0.05221198
0001f0 cc 2c c0 bd 2d 7d 41 3d d2 ef 02 3e d5 3d 22 3d
       -0.09383544 0.047238518 0.12786797 0.03960975
000200 a2 89 42 3c 0c 2e d0 3d 20 f8 44 bd a2 13 0a 3e
       0.0118736345 0.10165033 -0.048088193 0.13484052
000210 5a 6b a6 3d 35 70 f2 bd fc a9 fd bd 8f bf 09 3e
       0.081259444 -0.11837808 -0.123859376 0.1345198
000220 ed 44 be 3c d7 48 32 bc 94 ac eb 3d 3a 48 05 bd
       0.023226226 -0.010881624 0.11507526 -0.032539584
000230 88 1b eb 3d 78 85 b6 bd 1d 75 04 be 85 4e 75 bd
       0.114798605 -0.08912176 -0.129353 -0.059889335
000240 fe 11 da bd 08 a1 c8 bd 69 6d 81 bd c8 36 8c 3d
       -0.10647963 -0.09796339 -0.063196965 0.06846386
000250 78 8a 0f bc 8a d7 a9 3d 45 d8 fe 3d b6 5e 02 3e
       -0.008761041 0.08293064 0.12443594 0.12731442
000260 64 60 84 bb 0a 99 05 be 5a cb d7 bd e3 ad 01 3e
       -0.004039811 -0.13046661 -0.10536833 0.12663989
000270 46 2c de bd 9e e5 d3 3d f0 d3 b9 bc c2 ca 04 3e
       -0.10848288 0.103465304 -0.022684067 0.12967971
000280 49 8b 2e 3d 11 06 3d bd f9 44 d3 3d e6 ae 39 3b
       0.0426133 -0.046148364 0.1031589 0.0028333007
000290 1f 63 e0 bd 6b 59 ec bd 20 ed e6 3c a4 55 87 3d
       -0.10956406 -0.115404926 0.028189242 0.066081315
0002a0 e5 a4 bb bc cd ca b1 bd 8e c3 b8 bc 0a 79 01 be
       -0.022905776 -0.08681259 -0.022554185 -0.12643829
0002b0 91 fd 88 bd 38 5a 94 bd fb d2 d3 3d a5 e4 fc bd
       -0.06688989 -0.0724377 0.10342976 -0.12348298
0002c0 4e b1 da 3c c7 a1 e5 3d ea 3d 37 3d 36 d6 e1 bc
       0.026695874 0.11212497 0.04473678 -0.027567964
0002d0 95 56 87 3d d4 a7 6d 3c c9 6d 10 3d b1 fe ad 3d
       0.06608311 0.014505345 0.03526095 0.08495844
0002e0 be 1e 5a 39 7e d7 f3 3c 23 da f7 3d b3 7d 4b bd
       0.00020801552 0.02976584 0.12102153 -0.049680423
0002f0 d9 e2 d2 bc c5 a7 9f bd 1d 65 b0 bd ff 1f 64 bd
       -0.025742935 -0.077956714 -0.08613036 -0.055694576
000300 eb 5c c7 bd 7f bb 7b 3d 3f c5 27 bd b0 cb 0c bd
       -0.097345196 0.061458107 -0.040959593 -0.03437394
000310 1c 4d 52 3d 58 5b e6 3d 41 cf e4 3d 4d 84 a9 3d
       0.05134307 0.11247891 0.11172343 0.082771875
000320 82 9d 81 bd 32 2c ee 3d 39 92 25 3d 6b 15 78 3d
       -0.0632887 0.11629523 0.040422652 0.0605673
000330 8c 2d 73 bb 71 9d 94 3d b8 fe 00 3e 8f 82 da bd
       -0.0037106005 0.07256592 0.12597167 -0.10669433
000340 77 ee fb 3d 18 60 c3 3d d4 4f 6f bd 2c 13 b1 3d
       0.12301343 0.09539813 -0.05842574 0.08646235
000350 87 ad 9b bd 39 9c e2 bc 6a 9c aa 3d b3 73 8c bd
       -0.07601457 -0.027662383 0.08330615 -0.068580054
000360 66 23 31 3c df 0f 00 be 40 be 89 3c e8 e1 7e bd
       0.010811662 -0.12506054 0.016814351 -0.06222716
000370 f3 25 98 bd 82 c6 bd bd 55 db 51 b9 25 b3 ba 3d
       -0.07429113 -0.09266378 -0.00020013501 0.091162
000380 7d d9 90 3d 78 2c 2a 38 5c 96 5f bd cb 4e f0 bd
       0.070727326 4.0572573e-05 -0.054586753 -0.117337786
000390 77 63 aa bd 38 c2 9c 3d 31 b2 0a 3d 97 33 a6 bd
       -0.08319753 0.07654232 0.033861343 -0.08115309
0003a0 d8 f8 8b 3d 2d ea a1 3d 41 a7 54 3d d8 af 9f bd
       0.068345726 0.079059936 0.05191732 -0.077972114
0003b0 0a 00 06 3e c4 89 74 3d 66 c3 04 be db 7b 00 be
       0.13085952 0.059701696 -0.12965164 -0.12547247
0003c0 97 46 fe 3d ad 98 f3 3d 1a 37 8d bd b0 44 b1 bc
       0.12415808 0.11894355 -0.068952754 -0.021639198
0003d0 66 59 a9 bd e3 0a 06 be 6e ee 04 be 93 21 88 bd
       -0.082690045 -0.1309009 -0.12981579 -0.06647029
0003e0 97 8e f6 bd 71 fd 93 3d 0e c2 dc bd c3 c4 b6 3d
       -0.120389156 0.072260745 -0.107792005 0.08924248
0003f0 c2 1f e7 3d 8c b6 fc 3b 70 eb 8d 3b 6f c1 58 bc
       0.11285354 0.007712191 0.004331045 -0.013229712

fc1.bias f4 [100]
000000 56 92 18 3d 7e 46 06 be c5 ad d7 bd e6 94 29 3d
       0.03724893 -0.13112828 -0.10531191 0.041401766
000010 2d e0 ae 3d 6c ab cb 3d 6e 48 be bc 49 32 4b 3d
       0.08538852 0.099448055 -0.023227897 0.049608503
000020 d0 a8 02 be cb fc 08 3e d9 d0 27 bd aa 79 c7 3c
       -0.1275971 0.13377683 -0.040970657 0.024350006
000030 90 5c d0 3c 88 8a 0d be 22 38 8f bd c3 0f ec bc
       0.025434762 -0.13822377 -0.06993128 -0.02881611
000040 be 2c 2d bd 02 dd 88 bd ee f5 b6 3d de e3 85 bd
       -0.042278998 -0.06682779 0.08933626 -0.06537603
000050 3c 34 2a bd d2 77 98 3d b6 be 0a 3e 96 2a cd 3d
       -0.04155372 0.07444729 0.13549313 0.10017888
000060 3b 5f e6 3c 67 a1 d2 bd b9 2c 52 3d a4 56 f7 bd
       0.028121581 -0.10284691 0.051312182 -0.12077072
000070 3d 7c da 3d 15 3a 73 3d cd dd 00 be 3b e5 e6 3c
       0.10668228 0.059381563 -0.1258461 0.028185477
000080 7f 2f e5 3d 8f 06 ec 3d fa b7 d7 3d be 6d 8f bd
       0.111907 0.115246885 0.105331376 -0.070033535
000090 ec d8 a4 bb 5a 4b 70 3d 92 86 c2 bd 8e 8b b3 ba
       -0.005030742 0.05866561 -0.094983235 -0.0013698207
0000a0 b6 46 44 bd 00 f2 d7 bd e9 99 04 3e 4a d5 a7 bd
       -0.047918998 -0.10544205 0.12949337 -0.081949785
0000b0 dc b7 e6 bd f5 0a 0f be 04 4a 03 3e f0 9d 38 bd
       -0.11265537 -0.13969024 0.12821203 -0.045072496
0000c0 e8 b6 60 3c 78 1d 0b bd 7f e0 06 3e b8 68 a9 bd
       0.013715483 -0.03396365 0.13171576 -0.08271927
0000d0 74 fa 79 bd a2 c1 62 bc aa 29 0f 3c 1a 14 b5 bd
       -0.061029866 -0.013840111 0.008737961 -0.08841725
0000e0 20 bf 38 3d 17 63 b5 bd 81 61 93 bd f6 53 6b 3d
       0.045104146 -0.088567905 -0.07196332 0.05745312
0000f0 5b 89 91 bd 29 9c d8 3d 3f e3 fe bd 2c 53 56 bd
       -0.071062766 0.1057666 -0.124456875 -0.052325413
000100 79 72 70 3d 9d 3f 22 bc 9e 4e b5 3d ec c3 1b 3c
       0.05870292 -0.009902862 0.08852886 0.009507161
000110 4f 68 89 bd fc 2a 03 3e ec 4b 37 bd 9c 00 84 3d
       -0.067093484 0.12809366 -0.04475014 0.06445429
000120 fa 69 be 3c 8c 16 42 3d 09 62 d3 bc 0b 33 06 be
       0.023243893 0.047384784 -0.025803583 -0.13105409
000130 6a 67 5a 3d ed c5 b0 3d 75 82 c1 3d 15 31 10 3e
       0.05332128 0.08631501 0.09448711 0.14081223
000140 f7 43 07 be 4b 72 8e 3d f6 e8 08 3e af b6 f7 3d
       -0.1320952 0.069553934 0.13370118 0.12095391
000150 c6 4d b1 bd fc 37 0f 3e 35 42 fc 3d 8b 4a 0e be
       -0.08657412 0.139862 0.123173155 -0.13895623
000160 c9 b2 9c bd 00 4b 5a bd ee 83 99 3c ca a3 96 3d
       -0.07651288 -0.05329418 0.018739667 0.07355459
000170 c8 b9 77 3b 12 de fb 3c e4 97 4f 3d 0c c3 87 3c
       0.0037799943 0.03074554 0.050681964 0.016572498
000180 52 d3 82 3d f0 c0 15 3e c2 3d 52 3d 70 85 e4 3d
       0.063879624 0.14624381 0.051328428 0.11158264

fc2.weight f4 [200, 100]
000000 fb d2 48 3d 9b 82 3f 3b cd 5a 8f bc ec 74 1a 3d
       0.04902933 0.0029222134 -0.017499352 0.03770916
000010 1a d9 81 3d aa 21 19 bd ab 3b a4 3d 73 ae b3 bd
       0.06340237 -0.03738562 0.08019193 -0.08773508
000020 c6 9d 9e 3d 9b 2c cb bb b8 58 d5 bc 3a e2 be 3c
       0.07744937 -0.0062003857 -0.026043281 0.023301233
000030 1f e6 a6 3d 47 d1 a6 3c e6 97 51 bd 7e bd 74 3d
       0.08149361 0.020363463 -0.051170252 0.059751026
000040 2c 79 c5 bd 9f bf 4f 3d 9e e6 67 bd ee fb 7b bd
       -0.09642252 0.050719853 -0.056616418 -0.061519556
000050 ee 70 bb 3d 75 42 8c bd fa 34 1c 3d 15 70 38 bc
       0.09152399 -0.06848613 0.03813646 -0.011257191
000060 fa 5f da 3c 42 24 8d 3d 3e 61 39 bd f2 81 9e bd
       0.026657093 0.06891681 -0.045258753 -0.07739629
000070 7c 08 85 bd 25 fe 77 bc 87 fe 9f 3d 46 55 3e 3d
       -0.06495759 -0.015136276 0.07812219 0.04646804
000080 e9 b8 c2 bc 35 57 4f bd 45 3a bc bd 65 da 27 3d
       -0.023769813 -0.050620276 -0.091908015 0.04097976
000090 da 90 f9 bc 34 60 1b bc 94 30 ab bd a5 c0 a8 3d
       -0.030464578 -0.009483386 -0.08358875 0.08239869
0000a0 9a 39 ca bd 02 a3 70 bc 7e 11 24 bd 03 4b 57 ba
       -0.09874268 -0.014687302 -0.040055744 -0.0008212777
0000b0 11 43 be bd 7a 04 cc 3c 85 bf b3 3c 58 7e c5 3d
       -0.09290136 0.024904478 0.02194191 0.09643239
0000c0 fc a7 88 bd 96 39 5e bd 98 73 aa bd af f4 d6 ba
       -0.066726655 -0.054254137 -0.08322829 -0.0016399826
0000d0 4a f0 ae 3d 65 2e b9 bd 2a 36 95 bd 98 ec 49 3d
       0.08541925 -0.09042052 -0.072857216 0.0492979
0000e0 ea 20 1a bd ab d8 60 3d 18 f3 9a bd e4 11 a3 bd
       -0.037629046 0.05489413 -0.07565898 -0.07962397
0000f0 cf a2 df bc d6 0d a9 bd 00 8c 59 3d c2 88 4a bd
       -0.027299313 -0.08254592 0.05311203 -0.04944683
000100 a6 f4 38 3d 8d fb 20 bd ee 4b ca bd a2 99 56 bd
       0.04515519 -0.039302398 -0.09877764 -0.05239261
000110 0d c0 64 bc 23 01 85 bd 36 a4 b7 3d 62 ce 0b bd
       -0.013961804 -0.064943574 0.089668676 -0.03413237
000120 d0 75 bf bd 79 12 88 bd 9a fc b7 3c a0 a1 81 bd
       -0.09348643 -0.066441484 0.022459317 -0.06329656
000130 d1 71 8e bc cc 42 6c 3d d0 3e 92 bd 74 fd 79 bd
       -0.017388256 0.05768089 -0.07140887 -0.061032727
000140 85 96 ca bc 3c 23 19 3b bd 80 ee ba 3c 20 16 bd
       -0.024729976 0.0023366949 -0.0018196326 -0.036651835
000150 3b 1e ba bd 15 67 33 bd 0a 47 aa bc 82 dc 44 bd
       -0.09087797 -0.04379948 -0.020785827 -0.048061855
000160 bb 0a 64 bd c0 db 7b 3c e4 db 3a 3b 78 4f 6f 3a
       -0.055674296 0.015372217 0.0028512413 0.0009128968
000170 6a e9 c6 bd 5e 82 c6 bd 80 e9 48 bd 2a 50 b5 3d
       -0.09712489 -0.09692834 -0.049050808 0.08853181
000180 c5 92 c5 bd 4c 0f a2 bd 59 ad 9a bd e6 ee a4 bd
       -0.09647135 -0.07913074 -0.07552595 -0.08053379
000190 c3 6a 6d ba d0 f3 5f 3c 3e 7a 4c bd c6 45 a8 bc
       -0.0009056741 0.013668969 -0.049921267 -0.020541083
0001a0 36 d2 9a bd e0 81 87 bd 7b f8 a4 3d 4b 33 be 3d
       -0.07559626 -0.066165686 0.080552064 0.09287127
0001b0 99 68 6d 3d a4 e9 76 3d 2c 78 c0 ba bf e6 a2 bd
       0.05796108 0.06028141 -0.0014684252 -0.079541676
0001c0 23 01 60 3d 04 bf 87 3d 57 05 84 bd fc b8 b7 bd
       0.054688584 0.0662823 -0.06446331 -0.0897083
0001d0 cb a5 c8 bd f8 50 25 3c 47 7d b8 bd d6 d0 64 3d
       -0.097972475 0.010090105 -0.0900827 0.055863224
0001e0 4e 87 c4 bd e1 6f 88 bd 19 5f a0 bd 27 75 cb bd
       -0.0959612 -0.06661964 -0.078306384 -0.099344544
0001f0 fe 66 bc bc 02 15 3a 3d 67 8e b5 3d d3 f5 33 3c
       -0.02299833 0.04543019 0.08865052 0.010983902
000200 cc 2a 1b bd ba 2d 9e 3d 76 bb c9 3c 1c e0 07 3d
       -0.03788261 0.077235654 0.024625521 0.03317271
000210 57 68 b0 bc d3 50 fa bb 83 0a 9a 3d 94 e6 4e bb
       -0.021534128 -0.0076390295 0.07521536 -0.003157054
000220 38 72 9d bc 88 8a d2 3c 79 aa 23 bd ef 87 87 bd
       -0.019219503 0.025700822 -0.039957497 -0.06617724
000230 2c af 62 bd c3 8a df 3c c7 d0 9e bd 55 c7 89 bb
       -0.05534284 0.027287846 -0.07754665 -0.0042046704
000240 e6 0f 8c 3d 2c 67 4d bd 06 b4 a8 bd 23 52 36 bc
       0.0683897 -0.05014722 -0.08237462 -0.011127981
000250 f3 b6 aa 3d 31 b2 6c 3d ad 6a 8c bc 74 09 85 3d
       0.08335676 0.057787124 -0.01714071 0.06495944
000260 4c 48 68 3d 6c c4 85 3d 38 4a a3 3c 1e 9b cc bc
       0.056709573 0.06531605 0.019932851 -0.02497631
000270 d8 01 0a bc 23 20 59 3d 56 1a 7d bb 11 e3 04 bd
       -0.008423291 0.053009164 -0.0038620434 -0.03244311
000280 a3 ab 95 3d e4 41 bf 3d e7 88 28 bd 3e 48 1f bd
       0.07308128 0.093387395 -0.041146185 -0.038887255
000290 24 64 72 bd 33 f5 91 bd 4d a8 76 3d 81 30 ab 3d
       -0.059177533 -0.07126846 0.060219098 0.08358861
0002a0 6b 1a 53 3c 15 0f 73 bc de 4b b4 3d 08 86 7d bd
       0.0128847165 -0.014835139 0.08803533 -0.0618954
0002b0 f6 31 26 3d 0a 95 87 3d aa 96 3a 3c a2 36 b2 3c
       0.04057499 0.06620224 0.01138846 0.021754567
0002c0 72 20 cb bd c4 50 bb 3c cc 0f ae bd 7e df 7d 3d
       -0.09918298 0.02286566 -0.08499107 0.061980717
0002d0 cb ef 03 bb 6f 4e 29 3d e9 4c ac 3d f9 2c bf 3d
       -0.0020131941 0.041334566 0.08413107 0.0933475
0002e0 00 77 90 3c 34 89 b3 3c 62 c3 d2 3c 1a e9 8c 3c
       0.017634869 0.02191601 0.025727931 0.017200995
0002f0 77 88 eb bc 4f b9 8b bd fd 0c d9 3b 44 5e ed bc
       -0.028751595 -0.06822454 0.006623863 -0.028975613
000300 8f 54 29 3d 99 44 08 bd 71 a9 53 bc 73 a8 c6 3d
       0.041340407 -0.033268545 -0.012918816 0.09700098
000310 03 e3 69 3c 01 71 56 3d 33 48 e0 3c e4 94 8f bc
       0.014275315 0.052353863 0.027378177 -0.017527051
000320 52 27 86 3d a8 71 9b 3d 10 4d c9 bd 2e 7a c2 bd
       0.065504685 0.075900376 -0.09829152 -0.0949596
000330 7f 62 a2 3d 9d 23 ac bc f7 db 50 bd f2 7f 12 bd
       0.07928943 -0.021013075 -0.050991025 -0.03576655
000340 2d 6e f2 bb 45 05 42 3d 82 15 9e bd 9b bc b5 3d
       -0.007398388 0.047368307 -0.07718946 0.08873864
000350 d2 19 e5 bc ad 63 98 bd 17 e6 9a bb 76 ee 7d bd
       -0.027966414 -0.07440887 -0.004727136 -0.061994992
000360 01 cc 69 3d 42 a4 89 bd 5d e2 3c 3d a4 7f 25 bd
       0.05707932 -0.06720783 0.046114314 -0.04040493
000370 5e fa cc 3d 2c 8b 02 3d 00 14 93 bd 86 af 84 bd
       0.10008691 0.031871006 -0.07181549 -0.06478791
000380 05 9a 21 3d 5e 5a ba bc 61 42 9d 3d ed ca 80 bd
       0.039453525 -0.022748169 0.076786764 -0.06288705
000390 f0 59 e7 3c 87 6b aa 3d 1f dd 7e 3d cb f3 9b 3c
       0.028241128 0.083212905 0.062222596 0.019037148
0003a0 2c 7b 9b bd c4 0f 2f bc d8 32 b5 3d 37 ad 9b 3d
       -0.075918525 -0.010684911 0.08847588 0.076013975
0003b0 af 0a 88 bc 79 d0 b2 3d 1a 38 8e 3d fd be 37 bd
       -0.016606657 0.08731169 0.06944294 -0.044859875
0003c0 68 6c d5 3c 59 23 a6 3c 57 56 af 3d ed 95 bf 3d
       0.026052669 0.020280527 0.0856139 0.09354768
0003d0 07 77 b9 3d 8e 21 3e bd ac 33 a6 bc 03 6f af bc
       0.09055906 -0.04641872 -0.020288311 -0.02141524
0003e0 da 03 8c bd 12 a1 c8 3d ee 6b a2 39 8e fa 91 3d
       -0.06836672 0.09796347 0.00030979462 0.07127868
0003f0 1c 99 5c 3d 34 7c 98 bd a1 69 07 3c cc 45 ea 3c
       0.053856954 -0.07445565 0.00826493 0.028597735

fc2.bias f4 [200]
000000 8e 2a b8 3d 18 9d cb bd ff f6 b8 bd 60 23 a3 3d
       0.08992492 -0.09942073 -0.09031486 0.079657316
000010 ba 70 80 3c 5e 7a c8 bc 18 41 b7 3d 3e f5 f2 bc
       0.015678752 -0.024472412 0.089479625 -0.029657956
000020 af 1e b0 3d 67 f1 8c 3d 22 f4 2e bd d2 d2 09 3d
       0.085996024 0.06881981 -0.042713292 0.03364832
000030 b5 57 ea bc e1 56 92 bc 82 d8 06 bd 1f 95 4d bd
       -0.028606275 -0.017863693 -0.03292132 -0.05019104
000040 d7 c4 ae 3c ad a0 b9 3d 70 22 35 bd b2 18 39 3d
       0.021334095 0.090638496 -0.044222295 0.045189567
000050 7b b7 2a bc 20 4d 62 3c 75 6e 24 3c 24 96 f0 bc
       -0.010419722 0.013812333 0.010036101 -0.029368468
000060 3e 95 39 3c fc ca e8 bb 3c 52 e6 bc a9 1d a5 3c
       0.011327086 -0.0071042757 -0.028115384 0.020155745
000070 7e 4f c4 bd f9 0b b0 3c a4 95 df 3c 67 97 76 3c
       -0.095854744 0.021490084 0.027293034 0.015050746
000080 0a c5 ad 3c e9 80 f4 3c 78 b4 44 3d cc 5e 38 39
       0.02121212 0.029846625 0.04802367 0.00017582922
000090 02 95 2f 3d 26 fd d8 3d 7f 61 7b 3d c5 c9 71 3d
       0.042866714 0.10595159 0.061372276 0.059030313
0000a0 c5 13 6d 3d 5a ef 01 3c e8 0c 02 3d ee b8 86 bd
       0.05788018 0.007930601 0.03175059 -0.06578241
0000b0 02 28 ca 3c b9 dc 41 3d 1a 23 96 3d b9 97 9e 3d
       0.02467728 0.04732964 0.07330914 0.077437826
0000c0 50 d7 3f bd 59 09 77 3c fe c7 16 3d 66 62 3e 3d
       -0.046836197 0.015077912 0.03681182 0.04648056
0000d0 cc 2e b7 bc 27 dd f7 bb e7 0d b5 3d 1e 21 3f 3d
       -0.022361182 -0.007564205 0.08840542 0.046662442
0000e0 fe dd b8 3d 6c 10 27 3d 3a 25 5f 3c f3 24 91 bd
       0.09026717 0.040787145 0.013619715 -0.07087126
0000f0 8d 15 f4 bc 06 19 81 bd 3e c1 ea 3c a3 e5 3b 3d
       -0.029795432 -0.06303601 0.028656598 0.045873296
000100 17 5c 8c 3c 2c e5 7a 3c 3f c0 01 3d a7 36 91 3d
       0.017133756 0.015313428 0.03167748 0.07090502
000110 be 65 fc bc 0b f3 26 3d b5 30 81 bd 0b 5b bf bd
       -0.030810233 0.040759128 -0.06308118 -0.09343537
000120 1e 6e 50 bc 82 04 2e bd 6e f8 58 3b 39 23 9b 3d
       -0.0127215665 -0.042484768 0.003310706 0.075750776
000130 c7 48 42 3d 06 e8 26 3d 1c d5 9b bd 75 33 11 bd
       0.047432687 0.04074862 -0.07609007 -0.035449464
000140 38 29 ca bd 8e 85 a0 3d af d0 8e 3c 6d 74 a0 3c
       -0.09871143 0.078379735 0.017433492 0.019586766
000150 3f 16 7a bc 71 c2 ed bc c6 4a ab bc 89 0c d8 bc
       -0.015264093 -0.029023381 -0.020909678 -0.026373165
000160 78 f9 a7 3d 83 2e b1 bd e8 d2 10 bd c3 fb c9 3c
       0.08201879 -0.086514495 -0.035357386 0.024656182
000170 b7 6c e3 bc f4 69 b0 3d 84 72 c0 bd 7a dd 84 3c
       -0.0277618 0.08613959 -0.09396842 0.01621889
000180 87 63 98 bc 75 64 51 bc d6 6c 87 bd 48 87 f7 3c
       -0.018602146 -0.0127802985 -0.06612556 0.030215874
000190 a7 e8 b7 3d a2 c2 cb 3b d1 7f dc 39 af ca 4c bc
       0.08979922 0.0062182704 0.000420569 -0.012499495
0001a0 a9 96 a2 bd 6e a8 b4 3b fb 59 cc bc b4 5f 89 bd
       -0.079388924 0.0055132424 -0.02494525 -0.06707707
0001b0 6e 4e 55 3d bb f1 b1 bd 52 8f c7 bd 2d 3e 86 bd
       0.05207675 -0.086886846 -0.09744133 -0.06554828
0001c0 15 9f cd bc ed 35 4a bd 13 b2 8c 3d c3 c9 bb bd
       -0.02510027 -0.049367834 0.068699025 -0.09169342
0001d0 ec aa bd 3b ac 7a 5f 3d 99 af 67 bd e9 7d cc 3d
       0.0057881977 0.05456035 -0.056563947 0.09984953
0001e0 7a c6 98 ba 98 5e d2 3c 9c cd 91 3b f6 47 94 3d
       -0.001165583 0.025679871 0.0044495594 0.07240288
0001f0 7d 67 83 3d 2c 2e ab bd a4 42 ff bc fd 94 b2 3d
       0.06416223 -0.08358416 -0.031159706 0.087198235
000200 32 03 50 bd b0 7e 8c bc b9 6e 89 3c 61 4d 65 3d
       -0.050784297 -0.017150253 0.01677643 0.055981997
000210 7a 4b 99 bd f2 c6 d0 3d 5d 03 64 bd 2c 40 57 bd
       -0.07485099 0.10194196 -0.05566727 -0.052551433
000220 9d e4 54 bb 2a 58 2d 3c 5b 2f 84 bc 74 84 95 bc
       -0.0032484897 0.010580102 -0.016135862 -0.018251635
000230 97 7d 46 bd 34 d8 86 3d 82 47 a9 3c bd 3f 83 3d
       -0.048459616 0.06584206 0.02066398 0.064086415
000240 df 2e c1 3d e7 db cb 3d d3 40 76 3d d1 39 ab 3d
       0.09432768 0.099540524 0.060120415 0.08360637
000250 1d de 97 bd d3 f1 50 bd ac e4 8c bd 35 da be 3c
       -0.074154116 -0.05101187 -0.06879553 0.023297409
000260 3e 1a a6 3d 07 3e b9 bc b4 4f c2 bd 7a e6 b9 bd
       0.08110474 -0.022612585 -0.094878584 -0.09077163
000270 12 e8 78 3c 96 49 58 bc 81 85 b6 bd ae 5b 16 bd
       0.015192049 -0.013201138 -0.089121826 -0.036708526
000280 90 47 c9 3b ac 99 4c 3d 2b 0a 7d 3d 5c ba 70 3b
       0.006142564 0.04995124 0.061777275 0.0036732173
000290 c3 69 29 bb bc 4f a7 3d 08 b0 4e bd ee 52 82 bc
       -0.0025850392 0.08169505 -0.050460845 -0.015908685
0002a0 57 91 4d bd e7 d0 32 bd 9e df d1 3c 58 83 a3 bc
       -0.050187435 -0.043656256 0.025619324 -0.01996009
0002b0 bb a2 ca 3d 5e 9d 8a 3d 7a b3 3b 3d d8 9f 32 3d
       0.098943196 0.06768297 0.04582546 0.04360947
0002c0 78 9c a3 3d f2 3e a8 3c b2 24 0c 3d 29 f2 84 bc
       0.079888284 0.020537827 0.034214683 -0.016228752
0002d0 eb 2c b7 3d b3 10 b3 3d 0b 90 91 3d 49 ee 96 3d
       0.08944114 0.087434195 0.07107552 0.07369668
0002e0 7b 88 02 bd 51 71 c7 3c 2c 13 9b bd 0c ba 8e 3d
       -0.03186844 0.024346026 -0.07572016 0.069690794
0002f0 74 f4 02 bd 49 e6 6e 3d 06 a5 94 3d 8b d6 d4 bc
       -0.03197141 0.058325086 0.07258038 -0.025981208
000300 d9 7d 6f bd ac b0 5c bc 50 55 86 bd c8 09 b5 3d
       -0.058469627 -0.013469856 -0.06559241 0.08839756
000310 38 13 32 3d fe de 66 bd 2a b3 8b bd 70 5c 7c bd
       0.04347536 -0.056365006 -0.06821282 -0.061611593

fc3.weight f4 [100, 200]
000000 b8 59 1d 3d 07 dd 31 3d 76 fa 0c 3d fe 54 19 bd
       0.03841564 0.04342368 0.034418546 -0.03743457
000010 15 e8 5f 3d 0f d4 80 3c 45 c8 5e 3d be ee b9 3b
       0.05466469 0.015726117 0.05439021 0.0056742122
000020 91 ab df bc 97 51 2d 3a 16 9f 3a bc a8 9a 2c bc
       -0.027303489 0.0006611584 -0.011390468 -0.01053492
000030 50 8d af bc d0 84 3c 3c 18 bf 29 3d 57 9b 3d 3d
       -0.021429688 0.011506274 0.041442007 0.04629072
000040 0f ae 48 3d de fc 90 3d 09 65 ed bc af 7c e1 bb
       0.04899412 0.070794806 -0.028978841 -0.0068813185
000050 48 24 76 3b ad 5d af 3c ee 2a 9f 3c ad 98 ce bc
       0.0037558246 0.021406973 0.01942965 -0.025219286
000060 2f 89 81 bc 88 a4 b5 bc bb 39 74 bd 51 8e 26 3d
       -0.015812485 -0.022173181 -0.05962537 0.040663067
000070 4c 3d 5d 3c 06 cb 6e 3d 4d 01 6d bd 19 0c 02 bd
       0.013503384 0.058299087 -0.05786257 -0.03174982
000080 88 62 c1 3c 10 06 76 bd 1b e8 c5 bc f6 10 74 bd
       0.023606554 -0.060064375 -0.024158528 -0.059586488
000090 f1 37 8d bd 9c fd 82 bd d3 3f 07 bd 3b 64 5b 3c
       -0.068954356 -0.063960284 -0.033019852 0.013390596
0000a0 ca 58 12 3d 08 a2 aa 3c 56 d9 25 3d bc a2 30 bc
       0.035729207 0.020829216 0.04049047 -0.010780986
0000b0 2c e8 02 3d 3c f5 77 3d d4 58 5b 3c 9a 49 80 3d
       0.031959698 0.060536608 0.0133878775 0.062640384
0000c0 90 f1 13 3d 09 23 92 3d 6d e8 85 bd 7c d4 01 bd
       0.036119044 0.07135589 -0.06538472 -0.03169678
0000d0 ff 60 5a bc 88 af 83 3d ed 16 7f bd 85 f9 d4 3b
       -0.01332879 0.06429964 -0.062277723 0.0064994716
0000e0 d9 39 a5 bc 70 f1 a7 3c fa 98 57 bd 83 1b 6c bc
       -0.020169185 0.020500869 -0.052636124 -0.014410856
0000f0 d0 90 6c 3d 44 30 87 bd 20 5a b6 3c bf 42 5e bd
       0.05775529 -0.06601003 0.022259772 -0.054262873
000100 f5 76 be 3b dd 08 66 3d a4 ad 01 bd b3 30 42 3d
       0.0058125206 0.056160796 -0.031659737 0.047409724
000110 92 13 e8 bb 19 fe e4 bc 44 4d e0 bc ff d4 ce 3a
       -0.007082411 -0.027953194 -0.027380593 0.001578003
000120 b5 70 87 bd d0 34 83 bd 77 ba 6c bd 5c 6c 1e bc
       -0.06613294 -0.064065576 -0.057795014 -0.00966939
000130 93 a4 87 3c 50 4a 4f bc 56 d7 39 bd cc 5b 3d bd
       0.016557967 -0.012651995 -0.045371376 -0.046230122
000140 31 05 bc bc e0 06 2a 3d c0 55 40 3d 4b 36 8e 3d
       -0.022951694 0.041510463 0.046956778 0.06943949
000150 52 c5 2a 3c bf 2f 5d 3c 91 5f 39 bc 46 fa 0a 3d
       0.010423021 0.013500153 -0.011314289 0.033930086
000160 7b d0 8a 3c a3 4d 7c bd 35 d2 10 bd eb b1 e6 3b
       0.016945114 -0.061597478 -0.03535672 0.0070402524
000170 4f 00 37 3d 34 a3 39 3c 80 b9 4e bc b8 6b e2 3c
       0.04467803 0.011330415 -0.012617469 0.027639255
000180 18 68 08 3b 0b 86 95 3d c2 b5 79 3d 49 b2 eb 3c
       0.0020813998 0.07300957 0.060964353 0.028771536
000190 77 da 1d 3d 6f 90 36 3d 58 dc 91 bd 70 a3 23 bd
       0.038538422 0.044571336 -0.07122105 -0.039950788
0001a0 a5 70 b3 3c 11 48 56 bd 76 9f 7c 3d 13 44 85 3c
       0.021904299 -0.05231482 0.06167551 0.016267812
0001b0 46 b2 55 bd 5a 52 af bc 8b 93 29 3d db 09 6d 3d
       -0.052171968 -0.021401573 0.041400474 0.057870727
0001c0 22 82 2e 3d 47 72 4b 3d 69 c7 b3 bc 82 1d 13 bd
       0.042604573 0.04966953 -0.021945672 -0.035916813
0001d0 99 72 eb bc cb 80 f7 3c 80 f2 30 bd 4c b7 0b bc
       -0.028741168 0.03021278 -0.043200016 -0.008527588
0001e0 37 06 90 bd fd 4b 7e bd 49 7b 7e 3d 30 81 30 bd
       -0.070324354 -0.062084187 0.062129293 -0.043091953
0001f0 7e 55 6c 3c 74 ae ea 3b 4e 49 85 bd 0c 33 50 3d
       0.01442468 0.0071619097 -0.065081224 0.050829932
000200 f4 62 0d bd a8 de 68 bd dd 38 f4 bc 38 17 46 bd
       -0.034518197 -0.056852967 -0.02981227 -0.048361987
000210 6b 80 8c bd e2 c8 19 3d 36 6b 12 bd b2 68 67 bd
       -0.06860431 0.037545092 -0.035746776 -0.05649633
000220 ac 40 5d 3c 0c c5 42 3d 81 82 4b bd 59 b5 0b bd
       0.0135041885 0.0475512 -0.049685005 -0.034108493
000230 ee 86 6a bc c4 67 6b bd 29 36 39 bd de be 43 bd
       -0.014314396 -0.057472005 -0.045217667 -0.047789447
000240 0a 40 2f bd 3a 32 11 bd 14 10 ee bc af b2 8b bc
       -0.04278568 -0.03544829 -0.029060401 -0.017052976
000250 6c 1a 1c 3d ae 14 72 3b de e5 a9 bc 8c 92 fc bc
       0.038111135 0.0036938596 -0.020739492 -0.030831598
000260 f6 ce f0 bc 41 97 14 3d 7f 10 88 3d cb 0a 34 bd
       -0.029395562 0.03627706 0.066437714 -0.043955605
000270 d8 80 33 3d b3 98 93 3d a5 8e 87 bd 72 c3 da bb
       0.043824047 0.072068594 -0.06619004 -0.006676131
000280 b6 bf ea 3c a3 ca 14 3d 90 08 35 bd d6 f3 37 3d
       0.028655868 0.036326062 -0.04419762 0.044910274
000290 cc 6c 49 bd 8d 84 f2 bc 1f 1d 4a 3d 95 9b 21 3d
       -0.049176022 -0.02960422 0.04934418 0.039455015
0002a0 53 d7 2b bd d3 c1 8a bd 09 16 17 3d 25 5a 18 3d
       -0.041953396 -0.0677525 0.03688625 0.037195344
0002b0 f9 9b d9 3b dd ac 3d bc 19 f3 81 3d 8e a3 12 3d
       0.006640908 -0.011576858 0.06345195 0.03580051
0002c0 b9 fa 15 3d 18 0e 27 bd 0d 26 45 3d 04 4d 92 3b
       0.03661606 -0.040784925 0.04813199 0.0044647474
0002d0 69 18 81 3c 98 24 13 3d 83 e2 0d bd e9 00 28 3c
       0.01575871 0.03592357 -0.034639847 0.010254123
0002e0 d3 44 72 bd b9 b8 88 bd ce 65 62 3d 24 8b 45 bd
       -0.059147667 -0.06675858 0.05527287 -0.048228398
0002f0 12 38 c3 bc 9b 9f 9b bc 20 a4 4e bd 4c 91 62 bd
       -0.023830447 -0.018997004 -0.05044949 -0.055314347
000300 54 07 12 bd 0b bc 51 3a 09 09 b4 bb c8 82 8f 3b
       -0.03565152 0.0008000738 -0.005494241 0.004379604
000310 31 9a 53 bd be fe 2e bd ff 58 2c bd d9 6c db bc
       -0.05166072 -0.04272341 -0.04207706 -0.026785301
000320 0d 42 7d 3c b4 8d 2d bc 7f 28 0b 3d dc 8e 36 3d
       0.015457642 -0.010592867 0.033974167 0.044569835
000330 b8 a6 00 3d f3 86 b1 bc cb fb 2c 3d a3 57 ca 3c
       0.031408995 -0.021670794 0.042232316 0.024699992
000340 ad d4 bd bb 16 58 3b bd 30 d4 46 39 2b db 9d bc
       -0.005793175 -0.045738302 0.00018961797 -0.019269546
000350 6b 97 14 3d e5 07 79 3d 92 ea ab bc ab b4 4d bd
       0.036277216 0.060798544 -0.020985875 -0.050221127
000360 de be 22 bc 8e 28 cf b9 cb 60 83 3d 18 09 26 bd
       -0.009933202 -0.00039512332 0.06414946 -0.040536016
000370 24 31 3a bd 9e 37 91 bd 6d a8 63 3d d7 88 81 bd
       -0.04545702 -0.07090686 0.055580545 -0.06324928
000380 01 dc 4f 3d 0d 20 65 bd 33 82 6b bd 6a e1 cd 3c
       0.05074692 -0.05593877 -0.057497215 0.0251319
000390 64 a1 6d bc 89 6d 88 bd 4f 33 2d bd 31 e7 65 bb
       -0.014503811 -0.06661517 -0.04228526 -0.0035080428
0003a0 42 79 89 bd 62 8c 0f bb 27 44 47 bd 77 6a 91 bc
       -0.06712581 -0.0021903743 -0.04864898 -0.017750962
0003b0 44 b4 69 3d e1 65 86 bd c9 96 43 bb a3 9b 3b 3d
       0.05705668 -0.065624006 -0.0029844514 0.045802724
0003c0 0a e2 62 3d c4 39 5d bd 65 f1 f3 3c ac 01 44 3d
       0.05539135 -0.054010168 0.029778192 0.047853157
0003d0 3d 68 66 3c 1a 00 33 3b 60 42 73 3c 94 b1 59 bc
       0.014062938 0.0027313293 0.014847368 -0.013286967
0003e0 01 ec 4b 3d de 3d 36 bc 8e ed 35 3d cc 60 3e 3d
       0.049785618 -0.011123149 0.044416003 0.04647903
0003f0 66 0e 8f bc ff 27 8f bd 5d bb 76 3d 05 3c 2c bd
       -0.01746292 -0.069900505 0.060237277 -0.042049427

fc3.bias f4 [100]
000000 cc 11 49 3d 57 7a 3e bd 1c 4e df bc d4 01 70 bc
       0.049089238 -0.04650339 -0.027258925 -0.014648873
000010 8f 75 94 3d 2f e8 55 bd 80 ed 8f 3d 5a 90 2c bb
       0.07248985 -0.05222338 0.070277214 -0.0026331157
000020 65 14 cf 3c 6b 62 10 3c d1 c1 26 bd ff fa 91 bc
       0.02527828 0.008812527 -0.04071218 -0.01781988
000030 34 f6 c8 3b 16 84 aa 3d 2b e6 f6 bc d0 04 42 3c
       0.0061328653 0.08325975 -0.03013905 0.011841968
000040 65 07 1f bd 5c 41 c0 3c 7d 11 48 3d 83 5b d3 3a
       -0.03882541 0.023468666 0.048844803 0.0016125295
000050 6d 44 35 bd 7d 9c 14 3d 09 43 e3 3c 5a 82 e2 3b
       -0.04425471 0.03628205 0.027741926 0.006912512
000060 b5 50 e3 bc 75 6c 37 3d 62 02 e1 3b 84 fd 40 bc
       -0.027748445 0.044781167 0.006866739 -0.011779193
000070 69 41 93 3c b5 df 7c 3d 13 53 e6 3b 54 a6 5c 3d
       0.017975526 0.06173678 0.007028946 0.05386956
000080 e5 02 95 3d 9c a6 a5 3d 83 7f 77 bd 05 6b 32 bd
       0.07275943 0.08088419 -0.06042434 -0.043559093
000090 94 d5 1e bc 9b 23 38 3d 6c 8d 19 bd e1 7c 24 3d
       -0.009694476 0.04495583 -0.037488386 0.040158156
0000a0 0a 99 2a bd 95 57 88 3c 73 7d 4f bb 7d b7 4b bd
       -0.041649856 0.016643325 -0.0031660467 -0.049735535
0000b0 45 1c 6e 3b 0a 18 75 3d d4 30 8a 3d c5 e0 8f bd
       0.0036332768 0.05983738 0.067475945 -0.07025293
0000c0 60 64 2a 3d 07 e0 db 3c ca 78 3b bd ae f6 a9 3c
       0.04159963 0.026840223 -0.04576949 0.020747509
0000d0 43 c5 23 bd 25 b7 5a bd 9c c4 e6 bc 89 2d ab 3d
       -0.039983045 -0.053397316 -0.028169923 0.083582945
0000e0 6f f1 01 3d 0e 8c 9a 3b 31 29 35 3d 82 0c 71 bc
       0.03172439 0.004716403 0.044228736 -0.014712455
0000f0 02 87 55 3d 95 25 d6 3c 64 a4 8b bd d3 07 d3 3c
       0.052130707 0.026140967 -0.068184644 0.025760567
000100 6b 41 47 3d 43 a1 d5 bc b3 9f 8e 3c c8 78 84 bd
       0.04864637 -0.026077872 0.017410135 -0.0646835
000110 9f 77 8c bd 58 b2 66 3c 6b 44 2c 3c 6b 59 ec bc
       -0.068587534 0.014080606 0.010514359 -0.028851232
000120 4f 93 7f bc 9b c0 18 bd 98 3c a3 3d 56 34 68 3c
       -0.015599086 -0.037293058 0.07970542 0.014172634
000130 56 ad be bc 40 91 10 bd e0 1c c6 bb de a6 de bc
       -0.023276012 -0.03529477 -0.0060459226 -0.027179178
000140 61 93 8b bd 4d 50 da bc 16 fb 48 3d 33 54 25 3d
       -0.0681522 -0.026649619 0.04906758 0.0403635
000150 ab 7c 03 3c 4e 6a aa 3c fb d0 98 3d ec 03 29 bd
       0.008025329 0.020802643 0.07461735 -0.041263506
000160 b7 48 ab bc 38 b1 29 bd 7c b5 32 bd 08 e9 90 3d
       -0.020908697 -0.041428775 -0.04363011 0.07075697
000170 63 ed 06 3d 8d 7b 81 bd 2d 99 bb bc ba bc 95 3d
       0.032941233 -0.063223936 -0.022900188 0.07311387
000180 eb 90 6f 3d ee fd a3 bc ea 86 45 3d 2c 49 d0 3c
       0.058487814 -0.020018544 0.048224367 0.025425516

fc7.weight f4 [1, 100]
000000 7c 3b 35 bd 26 bf 2f 3d 47 05 db 3b a5 56 bc bd
       -0.04424618 0.042906903 0.0066839787 -0.09196214
000010 09 62 ca 3d 4d 81 a7 bd 9e 9f 9e bd 2f b4 12 bd
       0.0988198 -0.08178959 -0.07745288 -0.035816368
000020 0e 68 5a bd a2 b5 40 bd 19 18 be bd 14 f4 2d 3c
       -0.05332189 -0.04704822 -0.0928194 0.010617275
000030 e4 9f a6 3d 86 3a 85 3d 05 12 94 bd a9 6e ad 3d
       0.081359655 0.06505303 -0.072299995 0.084683724
000040 23 7b 5c 3c 16 2b d1 bc c7 01 59 3d 77 fd 59 3d
       0.013457092 -0.02553324 0.05298021 0.05322024
000050 79 bf 02 3d 30 a9 aa 3d 21 7f a4 3d a3 d2 95 3d
       0.031920884 0.08333051 0.080320604 0.073155664
000060 28 42 9a bb e3 2f d0 bc ed 54 d2 bc 34 85 35 3d
       -0.0047075935 -0.02541346 -0.025675261 0.044316486
000070 f1 d4 6d 3d 17 95 8a 3c 66 72 ba 3d 69 d5 75 3c
       0.058064405 0.016916795 0.09103851 0.015004494
000080 73 fd cc ba 62 73 49 3d c0 e6 76 3c a7 32 44 bd
       -0.0015639499 0.049182303 0.0150696635 -0.04789987
000090 30 1c ab 3d 5a 83 57 bd 16 c5 9c 3d 28 16 22 bd
       0.08354986 -0.0526155 0.07654779 -0.03957191
0000a0 fb c5 b0 3d 57 6e af 3d d2 42 0f 3c 2d cc b1 bd
       0.08631512 0.085659675 0.008743959 -0.086815216
0000b0 c8 c5 94 3d 84 8f 91 3d 61 b9 db 3d 8c a9 c9 3d
       0.07264286 0.071074516 0.107287176 0.098467916
0000c0 47 87 45 3d 36 66 4a bd 24 97 5f bd 8c 10 1d bd
       0.048224714 -0.049413882 -0.0545875 -0.03834586
0000d0 eb 64 8a 3b 62 f9 a2 bd f9 eb 2f 3b c3 c8 98 3d
       0.004223456 -0.07957722 0.0026843532 0.07460167
0000e0 0e 4e 8f 3c f1 68 05 3d c1 73 53 bd cb 39 3e 3d
       0.017493274 0.032570783 -0.051624063 0.046441834
0000f0 d9 63 d3 3d fe a4 51 bd 55 b1 05 bd 4d de 64 3c
       0.10321779 -0.05118274 -0.03263982 0.013969016
000100 57 4e cb 3d a4 8d 86 3d 50 57 ac bd e4 50 64 bd
       0.099270515 0.065699846 -0.08415091 -0.055741206
000110 0d 79 cb 3d 3e c9 eb bc f4 a8 a0 3d dd e2 4d bd
       0.09935198 -0.028782483 0.07844725 -0.05026518
000120 86 a2 65 3d b4 55 67 3d e0 c1 42 3d f5 98 9a bd
       0.056063198 0.056478217 0.047548175 -0.075487055
000130 d7 78 89 bd 18 cc a3 bc b4 bd 5a 3d 15 43 29 bd
       -0.067125015 -0.01999478 0.05340357 -0.04132374
000140 30 05 5e bd 60 78 be 3c 40 55 cf bc c5 e2 29 bd
       -0.054204166 0.023250759 -0.025309205 -0.04147603
000150 cd 5a 86 bd a5 5d b7 bc a3 0a b0 3d 39 f8 0e 3d
       -0.065602876 -0.02238352 0.08595779 0.034904692
000160 66 eb 8a 3c 69 29 8a bd 7c 37 0c bd 2d 8f d6 3d
       0.01695795 -0.067461796 -0.0342326 0.10476527
000170 0a bc ae bc d3 a5 a7 bd 3b 0b 67 bd 06 2c b8 3d
       -0.021329898 -0.08185925 -0.056407195 0.08992772
000180 01 f0 26 bd 63 11 7c bd ff 97 ec 3b 02 58 f0 3b
       -0.04075623 -0.06154002 0.007220268 0.00733471
