Amos/Z14.pth (torch, 185583 bytes, 7 tensors)

fc1.weight f4 [100, 52]
00000000: 5d2d c93d c0db 033d 2c8f 5fbd ba57 d43d
00000010: 2260 f5bd 7297 993a 549c 953d 5cb0 343d
00000020: 6b98 873b 8f6c 8e3d 2595 aabc 3744 d63d
00000030: 2a01 13bd 0324 183d 1eac c4bd 3889 b43d
00000040: 8de9 c23d fb52 583c 1bdb 8c3d d983 aabd
00000050: 4194 8c3d a7f5 6a3d 04ce 7c3d 05d7 1a3d
00000060: a520 72bd 41cb 5ebd a6ac 8d3d c5c9 04be
00000070: cc68 0b3e 057f 033e 1bec 06bd 2597 0fbe
00000080: 91bc f2bb fd69 e73d 409c d4bd d47a b33d
00000090: 08bd 243d 3cad 5fbd 319d dd3b 1b86 a8bd
000000a0: 679a 9bbd 0dad d4bd c051 2ebe 973e c5bd
000000b0: 16f2 c63d 2a10 033d 8a38 513d b90d 023e
000000c0: 1243 a9bd 6f3f 803d fbd0 a5bd 91ab 8f3e
000000d0: c236 91bc e998 963d bcbb 173d 8ccb 62bd
000000e0: 3676 35bd 4c39 e2bd caad b8bd 6f45 cc3c
000000f0: bd98 8e3d 2673 eb3d 3a51 2b3d 42d5 04be
00000100: 55a1 bb3b 7af3 edbc a812 de3d 741a 91bd
00000110: 8366 10bd b9c8 0a3e 7031 34be 4d5e 61bd
00000120: c61a 0abd f3c0 e73c 9ccf 0e3e 99c5 233e
00000130: d43f e1bd e73d 48be bf6f 56bd bf6c bb3d
00000140: e133 a1bd eef6 d8bd f952 c2bd cf23 153e
00000150: e8bd 253e 9c12 d43c 0838 1f3d b3a2 1bbd
00000160: b15d 30ba 367f fbbd 1d5e debc e72a 0fbe
00000170: eb1f 043e 8bad 9ebd 4596 833c 8606 bd3d
00000180: 784c 8ebd 498a c53c d7bf ea3d f6d5 f23d
00000190: 212c 8dbd c5f4 453d de46 46bd d460 9cbd
000001a0: e42e 89bd a050 7c3d 6e97 4ebd 714c 06be
000001b0: 9ac3 103d cdf6 97bd f542 41bd 87dd c63d
000001c0: a27e 613d c874 f6bb af61 3fbd 3e16 023d
000001d0: cea7 0ebd 2296 14bd efe7 603d 91b5 653d
000001e0: db3d 0cbe ccb5 f53d 183e fb3c 2564 12be
000001f0: 050b 14be 826f d23d ab1d f03d 4ded 913a
00000200: 56df 58bc 5202 0f3e 09f6 70bd 66a7 f43d
00000210: dcaa e93d 7c1f d5bd 8b94 e7bd 0615 de3d
00000220: 9402 ebbb 139a 0abc 2c62 023e 7c3e 92bb
00000230: dd5a cd3d a93d 21bd 22dc 3dbe 0697 01be
00000240: 13e6 aebd bd1f 13be 2a7a a6bb fb2c 173d
00000250: a32d 073d 6904 993d fe6f b93d 9981 2b3e
00000260: 7c0c bc3c d8b5 6fbe ccca e8bd 6ef7 223e
00000270: 058b 4bbf 7aa9 253f 19d8 073d 1b55 0d3d
00000280: d104 2ebe 7cfe 743d 8e24 833c b9b6 c6bb
00000290: 7c7d 2c3c 4840 9fbd 276e 9b3c de56 763c
000002a0: 715d 0bbd 1bf2 24bd 86e4 a2bd 0e40 163d
000002b0: 3c28 d73b d176 453c d108 1b3c 9b5f 0d3b
000002c0: 94da 26bd 806f 4e3c 41b8 0c3c f762 9bbb
000002d0: b2cd e83c 2bce 15bd 01d7 7a3d d2e6 913d
000002e0: 3e72 063c dd6b 9fbc ea37 a13d 0704 8cbd
000002f0: 4ae3 69bd 3a6c a9bd 8005 f1bc 6410 30bd
00000300: 249e 08be bb36 57b9 a729 ba3c 1273 0b3e
00000310: 5c5d 07bc 9f44 37be bc40 8f3d f65d b4bd
00000320: 7f8c 13be 4a11 4a3d 9685 a03d 3599 ab3d
00000330: 8df7 40bc c24d 373c 43d1 d93d ebd1 11bd
00000340: f399 d53d 72c6 933d a3f7 80bd 0112 3dbd
00000350: 757c 39bd dc34 cdbc b66e f33b 0639 4f3d
00000360: 5ffe a53c d051 d7bd 1f32 033c ce85 32bd
00000370: 92ca 2c3d 2132 cc3c 042d 7cbb 666b 303e
00000380: 2a66 f837 cbc0 31bc 3e2c a93b e1e1 2dbd
00000390: 75ac 18be 878d d43d 0327 943c df2b 4fbd
000003a0: 023c 113e 55a2 333d 1ac1 4d3d b8d8 b2bd
000003b0: 45c6 033e e3f4 7e3d af01 13be dfd9 19be
000003c0: bdde ca3d 0a8a de3d edf4 82bd e185 3fbc
000003d0: 1c80 c6bd ab13 9dbe f296 11be 7eb5 3cbd
000003e0: 362a efbd 0e32 b03c 6e68 10be 51a1 b83d
000003f0: 5747 a63d 13b9 7a3c 4724 013b 93cc 47bc
0.098231055 0.03219199 -0.0545799 0.10368295 -0.119812265 0.0011718108 0.07305208 0.044113502
0.0041380427 0.069543 -0.02082307 0.1046223 -0.035889782 0.03714372 -0.09603141 0.08815235
0.095172025 0.013203378 0.068777286 -0.08325929 0.06864215 0.05736318 0.06171991 0.037802715
-0.059113164 -0.054393057 0.06917696 -0.12967594 0.13614196 0.12841423 -0.03294001 -0.14022501
-0.007407733 0.112995125 -0.10381365 0.08763662 0.040219337 -0.05460857 0.0067631234 -0.082287036
-0.07597809 -0.10384569 -0.17023373 -0.09631079 0.09714143 0.031997837 0.05107931 0.12700547
-0.08264746 0.06262099 -0.080965005 0.28060582 -0.017726306 0.07353384 0.03704427 -0.0553699
-0.044302188 -0.11046085 -0.09017523 0.024935452 0.06962726 0.11496572 0.04182551 -0.12971976
0.0057260194 -0.029046763 0.10843402 -0.07085124 -0.035254013 0.13553132 -0.17596984 -0.055021573
-0.03371694 0.028290248 0.13946384 0.15993346 -0.109985024 -0.19554864 -0.052352663 0.09151601
-0.07871223 -0.10593973 -0.09488482 0.14564441 0.16185725 0.02588778 0.038871795 -0.03799696
-0.00067278283 -0.12280123 -0.027144486 -0.1398121 0.129028 -0.077479444 0.016062865 0.0922976
-0.06948179 0.024113791 0.11462372 0.11857216 -0.068931825 0.048329134 -0.048407428 -0.07635656
-0.06698397 0.061600327 -0.050437383 -0.13115098 0.03534279 -0.074201204 -0.047182996 0.09710222
0.055052407 -0.0075212456 -0.046724018 0.031759493 -0.034828 -0.03627599 0.05490869 0.05608136
-0.13695471 0.119975656 0.030669257 -0.14296015 -0.14457329 0.10275175 0.11724409 0.0011133343
-0.013236841 0.13965729 -0.058828387 0.11945991 0.11409542 -0.10406396 -0.11307629 0.10843854
-0.007171938 -0.008459586 0.12732762 -0.004463015 0.100270964 -0.039365444 -0.18541005 -0.12655267
-0.08539977 -0.14367576 -0.005080481 0.03690813 0.033002507 0.07471544 0.09054564 0.16748656
0.022955172 -0.23409212 -0.113668054 0.159147 -0.79509 0.64711726 0.03316507 0.03450499
-0.16994025 0.059813008 0.016008642 -0.0060642627 0.010527965 -0.077759326 0.018973423 0.015035359
-0.03402466 -0.040269952 -0.07953744 0.03668218 0.0065660756 0.012052254 0.009462551 0.0021571878
-0.040735796 0.012599826 0.008588851 -0.004742022 0.028418396 -0.03657357 0.0612402 0.071241036
0.008205948 -0.019460613 0.07871993 -0.06836706 -0.057101525 -0.08272596 -0.029421568 -0.04298438
-0.13341576 -0.00020524386 0.02272494 0.13618115 -0.008262005 -0.1789727 0.06994769 -0.08806984
-0.14409064 0.049332894 0.078379795 0.08378831 -0.011777771 0.0111879725 0.10635617 -0.035600584
0.10429754 0.07215585 -0.06297233 -0.046159748 -0.045284707 -0.02504962 0.0074289693 0.05059149
0.020262895 -0.10513651 0.008007555 -0.043584637 0.042185374 0.024926247 -0.003847898 0.17228469
2.9611478e-05 -0.010849188 0.005162745 -0.042451743 -0.14909537 0.10378557 0.018085008 -0.050578948
0.14183047 0.043855984 0.050232984 -0.08732742 0.12868603 0.06224526 -0.14356111 -0.15024517
0.09905765 0.108661726 -0.06394372 -0.011689634 -0.09692404 -0.30679068 -0.14217737 -0.046071522
-0.11677973 0.021508243 -0.14102337 0.09015144 0.08119076 0.015302914 0.001970546 -0.01219477

fc1.bias f4 [100]
00000000: 24ad 65bb be9a 4ebe 62a6 38be 0ed8 b7be
00000010: 4972 aa3d 3cab a53d ab70 0cbe 6582 753d
00000020: e683 19be 6262 c03e c769 02bd 71f2 4d3d
00000030: 7b1f 1ebd 6eed 7cbe 9aa8 113c 0f16 963d
00000040: bedd 13be 451d f2be 00ff 1abd 9713 2abd
00000050: 9a05 20bd 4687 373e 4768 6a3e 0179 80bc
00000060: ac34 223e bdc3 06bc f21e 4d3a 4872 633d
00000070: 457a d03d b02b 533e 26cf ccbd 3669 a53d
00000080: 52cc 303e 9481 913e def1 263e da44 c3bd
00000090: 3722 4cbc 5d3c 7a3d 0a80 7cbe b655 583c
000000a0: 8fb8 0d3d fc32 00be a356 643e 261d 4ebd
000000b0: 500a 84bd 567d 1cbe 1cfb ff3d 5323 edbd
000000c0: 02af 4cbd 08df ae3d acff c43e bdd1 0b3e
000000d0: be43 f9bd 4ab1 8fbc cc37 79bd 42bf b1bd
000000e0: 986b bf3d 1f43 a1bd 4c2f 16bd dac5 a7be
000000f0: 7149 e5bd 3537 e03d f94b 05be 6301 73bd
00000100: 02d4 393d 6341 38bd bb6f 85bc 5732 ddbc
00000110: b912 22bf fe17 833e bc6a c3be 8d24 6fbe
00000120: ede1 f03d 1f17 cabc c955 783d 6853 a93d
00000130: e392 24bd 50cb 0d3e 2240 073e 9366 5e3e
00000140: 78b5 0bbf aa9f c1bd 10d4 333f ba4b e63d
00000150: 83a7 23be 897d 033e f35f 3e3e c5f5 6fbe
00000160: ff8b dabd a0e6 00be c410 abbc f031 14bc
00000170: 295b 29bd e14b 413e 7cf1 b1bd 4284 3f3d
00000180: 9e11 113e 1010 063f 6b9b c03d ab21 903e
-0.0035045827 -0.20176217 -0.1803222 -0.35907024 0.083225794 0.08089301 -0.13714854 0.059938807
-0.14991722 0.3757506 -0.03183916 0.05028004 -0.03860424 -0.24699947 0.008890295 0.07328426
-0.14440057 -0.47287956 -0.037840843 -0.04152259 -0.039067842 0.17922696 0.22891341 -0.0156827
0.15840405 -0.008225379 0.00078247406 0.05552891 0.10179571 0.20622134 -0.10000448 0.08076708
0.17265442 0.28419173 0.16303203 -0.09534617 -0.012459329 0.061092723 -0.24658218 0.013204029
0.034599837 -0.12519449 0.22298674 -0.050320767 -0.064472795 -0.15282187 0.12499067 -0.11579003
-0.049971588 0.085386336 0.38476312 0.13654228 -0.12171124 -0.017540593 -0.060844228 -0.08679058
0.09346694 -0.078741305 -0.0366662 -0.32768136 -0.111956485 0.1094803 -0.13017263 -0.059327494
0.045368202 -0.044984233 -0.016288629 -0.027001543 -0.6330982 0.25604242 -0.3816737 -0.23353787
0.11761842 -0.024669228 0.060628686 0.082678616 -0.040179145 0.13847089 0.13208058 0.21718816
-0.54573774 -0.09454282 0.70245457 0.112449124 -0.1598187 0.12840857 0.18591289 -0.23433597
-0.106712334 -0.12587976 -0.020882018 -0.009045109 -0.041346703 0.18876602 -0.086886376 0.04675699
0.14166877 0.5236826 0.094046436 0.28150687

fc2.weight f4 [200, 100]
00000000: 344f 4a3d 82c2 3b3b 479a 92bc 787e 143d
00000010: 3bb5 803d 3834 1dbd 5038 a33d a0f6 b2bd
00000020: 223c 9d3d 21cb d1bb 04e0 d9bc 8d9a ab3c
00000030: c263 a53d c916 a63c d6b9 51bd aa32 703d
00000040: a006 c5bd 5229 513d a4c7 67bd c287 7dbd
00000050: c20c bb3d bb1e 8dbd 04ad 1a3d a136 3bbc
00000060: ab04 d43c 9097 8c3d 5879 39bd 8915 9fbd
00000070: ca4f 85bd 312e 85bc 71fb 9e3d 06d9 3f3d
00000080: ae40 c9bc dd97 4ebd 0889 bbbd 11a6 223d
00000090: 7fd9 fabc 1b5d 1bbc 40d3 aabd 50b4 a73d
000000a0: 6310 cabd 9c73 78bc 6519 28bd 0f03 073a
000000b0: b789 bfbd cf36 ca3c f073 ae3c ff2b c63d
000000c0: 3cb9 88bd 36e7 5ebd 1b6a abbd dc79 b6ba
000000d0: 8595 ad3d e52c babd 37b8 95bd e688 493d
000000e0: 0a15 1cbd e7b6 5d3d d376 9bbd 4258 a3bd
000000f0: 9d9f e3bc 2170 a9bd 200f 5a3d f3ca 4bbd
00000100: 2df9 343d 86fc 25bd ed9a c9bd c00d 57bd
00000110: ab9d 68bc 373d 85bd e25f b73d 886f 0cbd
00000120: e5f8 bfbd e52d 88bd 5cf5 b63c 16cd 84bd
00000130: bde5 8fbc c20f 6a3d 8ca6 93bd 50b1 7dbd
00000140: ab86 cdbc 3ed6 023b 64b4 62bb 2523 15bd
00000150: f75c babd f165 35bd 794e b6bc 0f67 43bd
00000160: ca88 63bd 388a 6b3c 5e60 4f3b b497 233a
00000170: 595d c7bd d4f1 c6bd 22d1 4cbd bb97 b43d
00000180: d208 c6bd 9a80 a2bd 5deb 9abd 1606 a6bd
00000190: 91de f93c ad63 803c b5dc 34bd 0ad5 91bc
000001a0: 397f 91bd 9939 86bd cddf 9f3d 50d5 983d
000001b0: 8ac7 763d 11bf 863d bb73 c4bc 772c acbd
000001c0: 89b3 2d3d d64a 803d e3ca adbd b79a b5bd
000001d0: 3761 c3bd 13c2 923c 8bbd bbbd c221 653d
000001e0: 49b1 cebd 59ad b4bd 4c68 afbd 5d05 d0bd
000001f0: 1afb c9bc 15cb 023d a903 bb3d ae19 c43c
00000200: ef89 3cbd 6de8 8a3d cf35 063d 2cea 3a3d
00000210: a8f9 cfbc 46de d3bb fb69 9a3d 29db 1c3b
00000220: 8d18 afbc 5242 c4bb 878d 0ebd 42fe 87bd
00000230: e00e 8dbd 4391 b63c 696a bbbd 32e9 f5bc
00000240: 4c51 703d 1f26 52bd 749d b8bd 70b8 893c
00000250: 97bf 773d 45a4 c63d 8d7f d63b eb66 a43d
00000260: ee9a 843d 7690 203d de7a ac3c 44dd cabc
00000270: a0d1 2abc f27b 033d 9687 eebc 2409 3abd
00000280: 5446 853d e02c 973d 9e60 4abd 5b02 aebc
00000290: 3867 98bd 7394 6fbd e25f 853d 6895 a43d
000002a0: f0aa 8b3d 7269 07bd 9b98 e73d 473a f8bd
000002b0: b509 273d e47a 843d a422 413b 67c9 d93c
000002c0: 798f fcbd 7467 5a3c 0d40 bdbd 0ad6 a23d
000002d0: 963f 9d3c 839d 013d fda7 0f3e 6d41 a83d
000002e0: 9cf1 703c a7ff bc3c 614b 933c d4c4 2a3c
000002f0: f7b3 02bd 7c18 80bd 3206 a5bb e650 21bb
00000300: 292e 273c e37f 89bd 07c0 81bc 4f8f bf3d
00000310: df09 cfba 2269 df3c e7bc 2a3d 4adb cf3a
00000320: 395d 4e3d 001b 803d e33a acbd 0e02 31bd
00000330: 4b43 a83d 27d0 02bd 105f 88bd 2451 2b3b
00000340: 7aad f13b 8241 db3d 6155 60bd ba7c d33d
00000350: 3626 07bd 342b 80bd 14b0 44bc f3e3 eebc
00000360: ce65 e03c df78 48bd 778f 2a3d e2e6 26bd
00000370: 0ed0 ce3d b16f 653c e121 f73b 8c58 cbbd
00000380: aa85 283d 05e7 06bc f65c 713d 1cb6 1ebe
00000390: 686c 153d 28b3 ca3d ed68 5a3d b27b a63c
000003a0: d2c4 7fbd 135a 8b3c fe37 af3d 45d0 9d3d
000003b0: 6128 3c3c 219e a03d 5dd9 483d 38b7 84bd
000003c0: aed5 753d 45cd 2d3d 4821 c33d f310 3d3d
000003d0: b162 bf3d a4bc 50bd 04ce 3bbc a88f 01bc
000003e0: b724 33bd 5761 bb3d 048d 27be 2e27 c33d
000003f0: 93c5 4b3d 7e6a 11bd 9b48 7c3c 32bf 103d
0.04939194 0.0028649871 -0.01789583 0.036253422 0.06284567 -0.038379878 0.07969725 -0.08738446
0.07677485 -0.0064023887 -0.026596077 0.020947719 0.08075668 0.020274537 -0.051202618 0.058642067
-0.09620404 0.051064797 -0.056586877 -0.061897047 0.09133293 -0.06890627 0.037762657 -0.011426599
0.025881132 0.06864846 -0.045281738 -0.077677794 -0.06509359 -0.016257377 0.077628024 0.04683783
-0.024566974 -0.050437797 -0.09156996 0.039709155 -0.030621288 -0.009482647 -0.08341074 0.08188689
-0.09866407 -0.015164282 -0.041039843 0.0005150297 -0.09352439 0.024684338 0.021295518 0.0967636
-0.06675956 -0.05441972 -0.083698474 -0.0013921815 0.08475784 -0.09090594 -0.07310527 0.049202822
-0.038106002 0.054129507 -0.07591023 -0.07975818 -0.02778607 -0.0827334 0.05323708 -0.049754094
0.044182945 -0.04052403 -0.09844003 -0.052503347 -0.014197747 -0.065058164 0.08953835 -0.034286052
-0.09373645 -0.06649379 0.022333793 -0.064844295 -0.017565602 0.057143934 -0.07209501 -0.061936677
-0.025088629 0.0019964124 -0.0034592384 -0.03641047 -0.09099763 -0.044286672 -0.022254216 -0.047705706
-0.055550374 0.014376216 0.0031643133 0.0006240562 -0.097346015 -0.09714094 -0.050004132 0.08818003
-0.09669651 -0.07934685 -0.07564423 -0.081066296 0.030501636 0.01567253 -0.044155795 -0.01780178
-0.07104344 -0.06553955 0.078063585 0.07462561 0.06024889 0.06579412 -0.023980966 -0.084069185
0.042407546 0.06264274 -0.08485963 -0.088674 -0.09540027 0.017914807 -0.09167012 0.055940397
-0.10092408 -0.08822126 -0.08564815 -0.10157273 -0.024655867 0.031931955 0.091315575 0.023938026
-0.04602998 0.06782613 0.03276616 0.04563348 -0.0253876 -0.006465706 0.075397454 0.002393434
-0.021374011 -0.0059893513 -0.03480294 -0.06640293 -0.06887603 0.022286063 -0.091511555 -0.030018423
0.05867128 -0.051305886 -0.09014407 0.01681158 0.06048545 0.09699301 0.006545967 0.080274425
0.06474863 0.03920027 0.021054681 -0.02476371 -0.010425955 0.032100625 -0.029117387 -0.045418873
0.06507555 0.07381606 -0.049408548 -0.021241358 -0.074415624 -0.05849118 0.06512429 0.080363095
0.06819713 -0.033059545 0.11308404 -0.121204905 0.04078074 0.06468752 0.002947011 0.026585294
-0.12332053 0.013330329 -0.09240732 0.07950981 0.01919536 0.031644356 0.14028926 0.08215604
0.014706042 0.023071123 0.01798028 0.010422904 -0.03190991 -0.0625467 -0.005036139 -0.002461487
0.0102038765 -0.067138456 -0.015838636 0.09353506 -0.0015795788 0.02727181 0.041684058 0.00158582
0.050381873 0.0625515 -0.08409669 -0.04321485 0.0821596 -0.03193679 -0.06658757 0.0026140893
0.0073754163 0.10705854 -0.054768924 0.10326524 -0.032995425 -0.0625824 -0.012004871 -0.029161429
0.027392294 -0.048943397 0.041640725 -0.04074753 0.10098277 0.01400368 0.0075418805 -0.09928998
0.041143097 -0.00823379 0.058926545 -0.15499157 0.036480337 0.098974526 0.05332272 0.020322654
-0.06244356 0.017010724 0.085556015 0.0770574 0.011484236 0.07842661 0.04903542 -0.06480259
0.060018234 0.04243209 0.09527832 0.046158742 0.09344996 -0.05096115 -0.011462692 -0.0079077855
-0.043736186 0.091494255 -0.16362387 0.09528957 0.04974897 -0.03550195 0.01539817 0.035338588

fc2.bias f4 [200]
00000000: 220b b33d 3379 1fbe 2ed8 953d 22e2 923d
00000010: a13c 323d f8d7 e03b 90d0 d73d 27c9 88bc
00000020: a7b2 f93d 4fee 203f 1c69 92bd b6cb ad3d
00000030: 1e66 f63c bc09 3fbd 4d12 fabc 4066 d1bd
00000040: dd0b 363d 105a 903e d967 c0bc 36b5 233d
00000050: f951 e73d ffef b6bc 3472 743b b9fc eb3c
00000060: 1469 083d dfec 0ebc f96d 75bd 1c6a 623e
00000070: 4e05 48be 70ed c83a c78a e23e 96f1 c53b
00000080: 4447 9c3d 7f25 f4bc 9320 af3d 7bd9 59bd
00000090: 4aaf 16bd 0587 0a3f a3c2 223e 9c03 f23e
000000a0: 7b5e 2e3c 8606 36ba 4d8e 09bc 46b7 9dbd
000000b0: e52b 6f3d 93d0 07bd fc9e 403f 0c58 cc3e
000000c0: 7bba 94bd 98a7 ad3e ea76 ac3d 6073 8f3d
000000d0: 25ba bf3d 2768 98bb 7ed4 083f 8429 2f3e
000000e0: 0024 c63d b410 1d3e 9fc5 653c 2b29 01bd
000000f0: c336 edbc c1e2 a3bb 1077 123c 1163 313e
00000100: a507 a73d 72ed e2bc 97a8 e93d ebca f23e
00000110: 6e64 2e3e 6fea 643e 8247 03be 5ff9 093d
00000120: a1ce ddbc 34c3 97bd 6b67 183d 1049 733e
00000130: abb9 843d 88f3 603d 02c4 3b3e d35f 84bc
00000140: 437f bcbd 8413 a23e eff7 1e3d c7bc 273e
00000150: 3ef1 483e e5e9 94bd aa42 a93b 5713 f2ba
00000160: 4198 623e 537d b8bd f7c9 4fbd 351a 143e
00000170: 21d3 47bd 8b0e 4f3e a566 0abe 5365 6d3a
00000180: 5f39 babc ec33 02bc b06a d7bd 3279 5a3d
00000190: 2a2c 0a3f 1105 773c 7e9b 9a3d 3dfe 9d3c
000001a0: be96 d0bd 2740 643e db72 f4bc 890d a8bd
000001b0: 3834 103f 985a 9ebd 6b2c 06be 9981 b7bd
000001c0: 7e9b 1fbd 7060 90bd 4ea5 803d edce bdbd
000001d0: 3635 e33e d5a6 423d a54a b83d 4242 db3e
000001e0: cdca f5bd de1a 853c e74b 7639 9c3a 3c3f
000001f0: bc2e d83d 5210 8fbd ab24 ab3b 2fea e63e
00000200: 5ecc 10bd 2391 e23e d351 973e dd46 2a3e
00000210: 4534 b93e d0ef 313f db7b 43bc 4186 bdbc
00000220: 427c ce3c 622c d43d adc1 223b 8ffa 493e
00000230: ba7d 49bd fe89 fe3d 3143 8a3e 3fa6 1b3e
00000240: 8245 ce3e 0b4a 1b3e ac42 703d bf91 843e
00000250: 59d8 91bd e48a 193e 6567 15be 864e 8d3d
00000260: 05c5 8e3e 9f33 263d b83d c5bd ecf0 a3bd
00000270: 0f15 1f3d 3181 92bb 3e51 aebd f411 b43c
00000280: 22ce d3bb d3df 1c3d 900d ec3d 10bc 1c3e
00000290: 6051 1e3d b1f7 153f b68f 30bd acab 823e
000002a0: 2182 a63c 1f20 31bd 97ef ad3e 1fa1 75bb
000002b0: 2075 093f 0f72 8d3e 787c db3e d0dc 113f
000002c0: b8cd 403e a99d 753d 61c8 d63d f490 ca3d
000002d0: 86dd 1d3f 497b 6d3e 0b1d 333d 83f1 973d
000002e0: c9b2 10bc d3cb 643d 561b 51bd 7a86 013e
000002f0: 6765 50bc 87b7 f53e 934c 2b3e 67e9 ea3c
00000300: 9364 24be c7b2 323d 8f74 943d 1c50 f23d
00000310: 61fc d23c 9781 25bc 096c 8cbd 284d ac3e
0.08742358 -0.15573578 0.07316624 0.07172038 0.04351485 0.006861683 0.10537827 -0.01669748
0.12192278 0.6286363 -0.07148954 0.084861204 0.03007799 -0.046640143 -0.030526305 -0.10224581
0.044444907 0.28193712 -0.023487018 0.039967738 0.11294932 -0.022331236 0.0037299516 0.028807031
0.033303335 -0.008723467 -0.05991933 0.2211079 -0.19533274 0.0015329551 0.44246504 0.006040762
0.0763078 -0.029803036 0.08551135 -0.05318592 -0.036788262 0.54112273 0.1589456 0.4726838
0.010642643 -0.0006943721 -0.008395744 -0.07700972 0.05839147 -0.033157896 0.7524259 0.39910924
-0.07262131 0.33916926 0.084211186 0.07004428 0.09361676 -0.004651088 0.5344924 0.1710568
0.09674835 0.15338403 0.014024167 -0.0315334 -0.028956776 -0.0050013964 0.0089395195 0.17322947
0.08155755 -0.027701113 0.11409109 0.4742044 0.17030498 0.22355054 -0.12820247 0.033685084
-0.027076067 -0.07410279 0.037208002 0.2375834 0.06480726 0.05491975 0.1833649 -0.016158974
-0.09203961 0.31655514 0.038810667 0.16380607 0.19623277 -0.07271174 0.0051654177 -0.0018468898
0.22128393 -0.09008279 -0.050729718 0.14463122 -0.048785333 0.20220391 -0.13515718 0.0009055931
-0.022732435 -0.007946949 -0.10518396 0.053338237 0.5397364 0.0150768915 0.07549189 0.01928627
-0.10185002 0.22290097 -0.029839924 -0.082057066 0.5632968 -0.07732123 -0.13102882 -0.08960266
-0.03896665 -0.07049644 0.06281529 -0.092679836 0.44376534 0.047522385 0.08998612 0.42823988
-0.12001572 0.016248163 0.00023488664 0.7352693 0.10555789 -0.06985535 0.005222877 0.45100543
-0.03535115 0.44251356 0.29554614 0.16628595 0.3617269 0.6950655 -0.011931385 -0.023135306
0.025205735 0.10360028 0.0024834678 0.19724487 -0.049192168 0.12428664 0.27004388 0.15200137
0.40287405 0.15164964 0.058657333 0.25892445 -0.07121343 0.14994389 -0.14590223 0.06899743
0.2788469 0.040576573 -0.096309125 -0.080049366 0.038838442 -0.004470967 -0.085115895 0.021981217
-0.006463782 0.038299393 0.11526024 0.15306115 0.038651824 0.5858107 -0.043105803 0.255216
0.020325722 -0.043243524 0.33971855 -0.003748007 0.53694344 0.27626082 0.428684 0.5697756
0.18828475 0.05996481 0.10487438 0.09890929 0.6166614 0.23191561 0.04372887 0.074191116
-0.008831688 0.055858444 -0.05105146 0.12648955 -0.012719489 0.47991583 0.1672843 0.028675748
-0.16053991 0.043627527 0.07248794 0.11831686 0.02575511 -0.010101697 -0.068565436 0.33652616

fc3.weight f4 [100, 200]
00000000: a445 1d3d c004 2e3d fe58 033d 9f21 28bd
00000010: 4afe 563d 854c 7a3c 5738 4b3d d6ac b63b
00000020: 4290 e4bc 07d2 05bc 4503 3ebc d74f 3bbc
00000030: 2d0d b9bc 5f81 183c 7c38 233d 6d43 3d3d
00000040: dc3d 3f3d 1842 8a3d 80d5 05bd e26f 11bc
00000050: 6988 eaba 57e2 aa3c 364e 9b3c 14e4 eabc
00000060: bf09 8abc b59c bcbc d8a5 74bd 1d2c 183d
00000070: 5fe9 533c 7eeb 6d3d 1a4b 81bd e75b 03bd
00000080: fd0b ac3c 0c67 81bd c5a4 d8bc a786 76bd
00000090: 4e72 90bd 1c53 8bbd cda1 0bbd fe8e 283c
000000a0: f902 e93c 6004 863c 2ec9 233d 9398 3fbc
000000b0: 6a9f f13c f98a 5f3d f7df 823b 63dc 703d
000000c0: cbdc 123d 44aa 883d d9b1 89bd bc52 08bd
000000d0: e8d7 81bc 46cc 823d 5e6e 88bd 048e b03b
000000e0: 79a5 dbbc 9f8b 8a3c c2c4 57bd 88c8 7ebc
000000f0: a482 6a3d f198 8abd 336e 7b3c 335f 65bd
00000100: 762c a53b 747e 5c3d 7998 08bd 166c 203d
00000110: e838 2ebc b1c7 02bd 06eb e4bc 3f93 3dba
00000120: 848e 88bd 7203 84bd 0ce4 74bd 79e7 43bc
00000130: 1ebf 783c 197d 7cbc 2e43 44bd c4c8 40bd
00000140: b179 bebc a48c 1e3d 5d6a 3b3d c2e4 843d
00000150: b16b 053c 4869 433c 89fa 43bc d4b2 fa3c
00000160: cf32 7d3c 0cd6 7cbd 7553 14bd ec8d ae3b
00000170: 024a 273d c6d5 db3b fdd9 50bc f46c d63c
00000180: 4b1c e93a 2bca 8b3d 4bb3 783d 23bd cf3c
00000190: 27d1 053d b9c6 323d 2c25 95bd 6271 2ebd
000001a0: 54b1 a83c 7795 61bd b142 7b3d 11bb 803c
000001b0: efba 6abd 6a7c afbc 6c60 1e3d 13a3 633d
000001c0: 33c3 2b3d 99f0 493d 873f b6bc 4cab 13bd
000001d0: eccf 0fbd a934 ea3c c46c 44bd b747 55bc
000001e0: 872e 90bd 8635 81bd a982 7d3d 190a 4dbd
000001f0: 0183 593c 7b95 b63b 5dc9 86bd e8fc 3c3d
00000200: 2e58 13bd 9775 80bd b7e6 14bd 3dc4 49bd
00000210: febd 9dbd 474f f43c cca9 18bd 4bd6 69bd
00000220: 1682 453c 3728 383d b87f 53bd 8d4f 17bd
00000230: efca 74bc ed95 74bd cfa2 46bd 60e8 4dbd
00000240: bb72 50bd 9e33 23bd f065 fdbc 6793 a1bc
00000250: 4bcb 1b3d dc98 6fba c573 abbc c7e0 ffbc
00000260: 64ad 01bd 3f4e 093d d877 873d 4451 3abd
00000270: ceb8 213d aebe 923d aecc 88bd 8163 10bc
00000280: d478 e83c f4aa 0d3d b982 3bbd f2c9 253d
00000290: 8411 4abd 144e 14bd 8094 453d 5212 133d
000002a0: affc 2dbd dd1e 8cbd 9cc7 043d d882 163d
000002b0: 390d bbb9 75df 58bc 208b 6c3d 7b25 f43c
000002c0: 797d 0a3d 3e0f 2cbd 8788 2f3d f674 643b
000002d0: e308 2f3c 8549 fb3c dc18 10bd 9183 123c
000002e0: 5993 76bd ebd2 89bd ef96 5a3d 9790 50bd
000002f0: 3b5e c5bc c008 cabc 6c21 51bd 2704 67bd
00000300: 6d01 16bd f054 d6ba e46d 0bbc 42a4 8c3b
00000310: 2ca7 55bd 3181 35bd dbb7 2cbd e49b 00bd
00000320: d2f2 7e3c bd34 00bd f438 b0bc 4549 093e
00000330: 0a92 2e3d 6f53 80bc 12db 0e3e 58fb 043d
00000340: da1c 68bb 3f4b dfbc 8e6a a7bb 2cff 843c
00000350: 8a8a 793d 0e00 8a3d 4450 93bc eac4 7cbd
00000360: 33bc 643c f527 9f3c 7bde 883d 40d3 23bc
00000370: ea99 febc a462 94bd ca29 623d 60a0 38bd
00000380: d218 4c3d 1655 55bd 46bd 89bd 0bbb 033d
00000390: df89 c3bc 3995 a2bd 5c2a 01bd 511b 8fba
000003a0: 242c 39bd a508 c93d de99 65bc b2dc 8abc
000003b0: 3482 7e3d 7b5a 6abd f806 2f3d e511 5a3d
000003c0: 37e2 433e 8b13 72bb e69d b73c 927e 613d
000003d0: 4c20 133d 978b c43d c311 1e3d faa4 96ba
000003e0: 7573 473d 8fdc 05bc 2fd6 b23d 25dd cf3d
000003f0: dcb4 b4bb 0341 90bd d860 b43d bceb f1bc
0.038396493 0.042485 0.03206729 -0.04104769 0.052488603 0.015277033 0.049614277 0.005574803
-0.027900819 -0.00816775 -0.011597459 -0.0114326095 -0.02258929 0.009308188 0.03984879 0.04620688
0.046689853 0.06750888 -0.032674313 -0.008876773 -0.0017893437 0.02085988 0.018958192 -0.02867321
-0.01685035 -0.023023942 -0.059728473 0.037151445 0.012934058 0.05808591 -0.063131526 -0.032070067
0.02100181 -0.06318483 -0.026445756 -0.06018701 -0.07053052 -0.06802961 -0.034089852 0.010287998
0.0284438 0.016359508 0.03998678 -0.011694091 0.02949496 0.054575894 0.003993984 0.058803927
0.035855096 0.066731006 -0.06723375 -0.033282027 -0.015850022 0.06386618 -0.06661676 0.0053880233
-0.026812302 0.01691228 -0.052677877 -0.01555074 0.057253495 -0.067674525 0.015346098 -0.055998992
0.0050407005 0.053831533 -0.033348534 0.03916558 -0.010633685 -0.03192872 -0.0279441 -0.0007231719
-0.06667808 -0.0644597 -0.059787795 -0.011957043 0.015182285 -0.015410685 -0.04791563 -0.047066465
-0.023251386 0.038708344 0.045755733 0.064889446 0.008143351 0.0119269565 -0.011961588 0.03060285
0.015454008 -0.06172757 -0.036212403 0.005326977 0.040842064 0.0067088334 -0.012747285 0.026175
0.0017784921 0.0682567 0.060717862 0.025358742 0.032670166 0.043646548 -0.072824806 -0.0425886
0.02059237 -0.05507418 0.0613429 0.0157142 -0.05730718 -0.02142163 0.038666174 0.05557544
0.041934203 0.049301717 -0.02224709 -0.036052033 -0.0351104 0.028589563 -0.04795529 -0.013017586
-0.070401244 -0.06309037 0.061892185 -0.050058458 0.013275863 0.0055720187 -0.06581376 0.046139628
-0.035972767 -0.062724285 -0.03635284 -0.049259413 -0.07702254 0.029822959 -0.037271306 -0.05708913
0.012054941 0.044960227 -0.051635474 -0.0369411 -0.014940961 -0.059713293 -0.04849511 -0.05027044
-0.050890666 -0.039844148 -0.030932397 -0.019723607 0.038035672 -0.0009139904 -0.020929227 -0.031235112
-0.0316595 0.033521887 0.06614655 -0.045487657 0.039482884 0.071652755 -0.066796646 -0.008812786
0.028377928 0.03458686 -0.045778964 0.040475793 -0.04933311 -0.036207274 0.048237324 0.035906143
-0.042477306 -0.06841824 0.032416925 0.036745876 -0.0003567727 -0.01323687 0.057749867 0.029803028
0.033811066 -0.042006724 0.042854812 0.0034859753 0.010683271 0.030674705 -0.035179958 0.008942501
-0.060199115 -0.067296825 0.053366598 -0.05091914 -0.024092784 -0.024662375 -0.051057264 -0.056400444
-0.036622453 -0.0016352218 -0.008510087 0.004292042 -0.05216138 -0.04431266 -0.042167526 -0.03139867
0.015560823 -0.031300295 -0.021511532 0.13406856 0.042619742 -0.015664784 0.13950756 0.032466263
-0.0035417587 -0.02725756 -0.005109138 0.016234957 0.060923137 0.06738292 -0.01798261 -0.06171123
0.013960886 0.019428233 0.0668306 -0.009999096 -0.031079251 -0.07245377 0.055215634 -0.04507482
0.049828358 -0.052083097 -0.06725554 0.0321608 -0.023869453 -0.07938618 -0.031534538 -0.0010918175
-0.04520811 0.09816102 -0.014013736 -0.016950939 0.06213589 -0.057215195 0.042731255 0.05323972
0.19129263 -0.0036937918 0.022414159 0.055052347 0.035919473 0.09596937 0.038591158 -0.0011493259
0.048694093 -0.008170261 0.087322585 0.10149602 -0.005514724 -0.0704365 0.08807534 -0.029531352

fc3.bias f4 [100]
00000000: 6615 ab3c 9521 793e 96fa 713d ded6 99bc
00000010: 509a 323f ecd7 a3bd 4644 023d 89a1 7abc
00000020: 783a 24bc 4925 f9bc 0920 22bd 8db1 fc3d
00000030: d76d 2d3c e103 0f3f ce49 2bbd 0251 243f
00000040: 58a1 05bd d604 a43c 0dff fa3e 968b df3e
00000050: 00e9 cb3d f6ca 2c3f 0dea c03e f256 ee3c
00000060: 713c edbc 023b fd3c f7f3 dc3b c05b 0a3e
00000070: 30d5 693e fd06 823e c4b6 3e3e c46e a93e
00000080: 5f4f 143e 73e4 df3e 8e42 733d e839 84bd
00000090: 4b59 b238 a8a0 403c ed08 a13e be1f 973c
000000a0: 86a6 28bd b58c 2e3d c261 413d 9190 85bd
000000b0: 3edb 063f aba1 eb3e 0d47 253f c5e0 8fbd
000000c0: 3448 a93e ef07 723b 6e4b 3cbd da4c 803b
000000d0: a207 8a3d c42a f1bd 98eb 023d 6375 233f
000000e0: 9a6a 8b3e 266a 0e3d 45a9 fa3b 8bb3 9bbb
000000f0: 96bf 6c3f 8e75 a63b 8a1d babd 0e24 a33e
00000100: 2e43 483f 5024 d33e 3f92 46bc 62b8 b5bd
00000110: bffb 8abd 6f29 653d ab74 c23e d57c 48bd
00000120: 402e be3d 0e36 3d3e dc0c b33e 3361 f0bc
00000130: a2c1 81bd f545 15bd 95ea 34ba 6026 73bd
00000140: ccbb 8bbd bfde c4bc 8795 343d 3c02 8a3c
00000150: ccd4 0ebc 7a2c 053e 3645 0b3f 3e7a 383e
00000160: fa89 aabc 3923 a3bd 2111 32bd daba 4b3f
00000170: f30b fe3d 8110 cebd 2b13 00bd 4444 2b3f
00000180: e683 123d e775 0dbd 43ed 173e ceaf 043d
0.020884227 0.24329217 0.059076868 -0.018779214 0.6976671 -0.08000168 0.031803392 -0.015297302
-0.010023706 -0.030413287 -0.039581332 0.123385526 0.01058527 0.55865294 -0.041818433 0.6418611
-0.032624573 0.020021837 0.49022713 0.43661183 0.099565506 0.67497194 0.37678567 0.029094193
-0.028959485 0.030911926 0.00674295 0.13511562 0.22835231 0.25395957 0.18624407 0.3309232
0.14483403 0.4372898 0.059389643 -0.06456357 8.5043335e-05 0.011757053 0.31452122 0.018447753
-0.041174434 0.042614657 0.04721237 -0.065217145 0.5267829 0.4602178 0.6456154 -0.07025293
0.330629 0.0036930998 -0.045970373 0.0039154114 0.06739737 -0.11775735 0.03196296 0.6385099
0.27229768 0.0347692 0.007649573 -0.004751628 0.92479837 0.0050799316 -0.090876654 0.31863445
0.7822751 0.41238642 -0.012119829 -0.08873059 -0.06786298 0.055947717 0.37979636 -0.048947174
0.09286165 0.18477651 0.34970748 -0.029343223 -0.06335761 -0.03644367 -0.00069014105 -0.05936277
-0.06822929 -0.024031995 0.044087913 0.016846769 -0.008717727 0.13005248 0.5440248 0.18015382
-0.020817745 -0.079657026 -0.043473367 0.7958199 0.12404623 -0.100617416 -0.03126828 0.6690104
0.03577032 -0.03453627 0.14836602 0.032394223

fc7.weight f4 [1, 100]
00000000: ad3b b2bb c511 f93e 6191 093e eba3 bdbd
00000010: 2aed 853f 0db8 90bd f971 5bbd 8102 06bd
00000020: 9dcc b0bb d604 4c3c f42d c5bd 2088 813e
00000030: 0235 a63d 5db9 4c3f 6bc0 8cbd ee4a 863f
00000040: f754 953c 036f d3bc 33a5 4a3f 596d 423f
00000050: 210f 6f3e ebd3 893f 085a 0e3f 00af 453e
00000060: d430 833a 0d64 d33b 30d4 d1bc ebff 8c3e
00000070: c39f a13e a479 953e cf06 823e c709 023f
00000080: b423 243e 181b 1d3f c17e 553e 3365 dabc
00000090: 8367 b63d 8b16 35bc 70d7 0d3f 8e1a 8fbc
000000a0: bf56 b13d 7850 b13d 2294 a63d 65ef aabd
000000b0: b89c 663f 35f0 293f 3812 723f 8ca9 c93d
000000c0: 5868 e23e 4418 f9bc 2c62 5fbd 9ae9 5abd
000000d0: c931 8d3e c764 32bd f4b7 bf3d e53e 6e3f
000000e0: b7b5 bf3e 591a 843d ff3a 3f3c 7353 3a3d
000000f0: 1b14 c23f c754 32bd ce7e e9bc c9e6 063f
00000100: 1331 a33f 5ef3 3c3f 77f8 93bd 82b5 15bd
00000110: bbcd d03d 144f dc3d c8aa 173f d250 2bbd
00000120: 160c 143e 2668 ac3e 9aa9 ec3e faed 8abd
00000130: 6572 14bd 70fb fc3c 00ea 623d 4e18 2d3c
00000140: 0fbd 5dbd 3bea db3c 1bff 3a3d 27f7 55bc
00000150: 5600 67bd 2c72 743e 779a 483f 8852 b53e
00000160: 594a 873c 198c 30bd fe89 0cbd c717 9c3f
00000170: 1d7c 433e a883 bebd 4495 80bd 1ffc 7a3f
00000180: 5e12 10bc 6844 7fbd 72d4 3a3e 28b6 0d3d
-0.005439243 0.4864637 0.13434364 -0.092597805 1.0463002 -0.07066355 -0.05357549 -0.03271723
-0.0053954856 0.012452325 -0.096279055 0.25299168 0.08115579 0.7997034 -0.06872638 1.0491617
0.018228991 -0.02580977 0.79158324 0.759481 0.23345615 1.0767797 0.55606127 0.19305038
0.0010009059 0.006451136 -0.025613874 0.27539 0.315672 0.29194367 0.2539582 0.5079617
0.16029245 0.61369467 0.20849134 -0.026659584 0.08906462 -0.011052738 0.55406857 -0.017468717
0.08659124 0.08657926 0.08133723 -0.08346442 0.90082884 0.6638215 0.9455905 0.098467916
0.44220233 -0.030407079 -0.054536983 -0.053445436 0.27577046 -0.04355314 0.09361258 0.9306472
0.37443325 0.06450338 0.011671781 0.04548974 1.5162386 -0.04353788 -0.028502848 0.526959
1.2749351 0.7380885 -0.07225125 -0.036550052 0.1019549 0.107572705 0.59244967 -0.041825123
0.14457735 0.3367321 0.46223146 -0.06783672 -0.036241908 0.030881613 0.05539894 0.010564877
-0.05413538 0.026845088 0.045653444 -0.013059414 -0.056396805 0.23871678 0.78360695 0.3541453
0.016514944 -0.043102358 -0.034311287 1.2194756 0.19090314 -0.09302455 -0.0627847 0.98040956
-0.008793442 -0.062321097 0.18245104 0.034597546
