original_data/Z02.pth (torch, 39343 bytes, 7 tensors)

fc1.weight f4 [55, 52]
0.027364453 0.0027017572 -0.033084538 -0.04839114 0.0132231135 -0.052920427 -0.13181174 0.12840407
0.12695703 -0.005593851 0.07252881 0.069990076 -0.032490637 -0.08932523 0.067745835 -0.038524345
0.10329949 -0.0465491 0.0507344 0.0008187183 -0.104893744 0.07658411 0.093939885 0.034916352
-0.095407315 0.09700876 0.045077506 0.06922661 -0.12424359 0.0688002 0.007444225 -0.012021458
-0.067974776 0.12775783 0.058227412 -0.049543515 -0.09915522 -0.06722582 0.11321639 0.112287104
-0.02204316 0.033260386 0.07046998 0.077452436 -0.0074126422 -0.035564683 0.049523752 0.08746268
0.0005274748 0.0503737 0.11377334 -0.043984637 -0.10757484 0.039990615 -0.042465333 0.13323252
0.09523748 -0.030183205 0.019410335 -0.09589834 -0.05300653 0.1362108 -0.114236385 -0.11841077
0.0027135632 0.066801086 -0.073575124 0.074050054 0.03193424 0.025972536 -0.014978351 -0.06354712
0.017425437 0.017165855 -0.008350909 -0.06820759 -0.09718917 0.06293838 0.123494536 -0.02160298
-0.0029651208 -0.13541348 -0.10272594 -0.09024243 -0.10113612 -0.09213974 0.01784846 -0.08201676
-0.018383455 -0.0049044737 0.13597749 -0.0067127813 -0.022840312 0.10969072 -0.01711012 0.09934186
-0.08323403 -0.029901547 -0.0030669975 0.075406924 -0.03350668 -0.12021164 0.088555165 0.03182609
-0.06909642 -0.07056799 0.028227933 -0.10306224 -0.00596056 -0.060225952 0.10069345 0.09177537
0.015727276 -0.036101986 -0.041291952 -0.033795502 0.109095305 0.042343687 0.13577664 -0.01703669
0.10622746 0.08140395 -0.067337774 0.12592079 -0.07152787 0.09233309 -0.04342971 -0.10914631
0.061729394 -0.09123642 0.013415884 0.06339047 0.12037962 0.006831279 -0.13012128 -0.06288366
0.054754708 -0.12463856 -0.092557065 0.099164784 -0.101862736 -0.084851176 0.05677524 -0.098020405
0.0848458 0.11270027 0.01547104 -0.13058713 0.07024158 -0.10438059 0.02218532 -0.0045525646
-0.07619337 -0.119999304 -0.056426916 0.12935424 -0.026062345 -0.057701416 -0.12665543 -0.13742445
-0.06309787 -0.011974125 0.06390094 -0.076103546 -0.13026421 -0.013387116 -0.092675894 0.049394958
0.015458778 -0.12517828 0.07140673 -0.06523218 0.0149556305 -0.08177739 0.06158025 0.089931495
0.079296194 0.08574833 0.017865157 -0.0018209334 -0.031772096 0.07866082 0.0025371457 -0.10850663
0.0047362577 -0.11767003 -0.11363964 0.012332755 0.06313069 0.043596648 0.030773139 -0.023824124
-0.030672494 -0.03208076 -0.084914215 0.097200036 0.0025852441 0.10842707 -0.07073036 -0.0675709
0.10007456 -0.07717066 -0.06409835 0.08370396 -0.0944481 0.077767074 -0.13558084 -0.11067605
-0.08335477 -0.13496388 -0.019847598 -0.1294607 -0.094761066 -0.0024490585 -0.0442211 0.07523753
0.09916387 0.088922225 -0.07366661 0.100560255 -0.08421967 -0.094076015 0.0013155894 0.13617164
0.04882363 -0.118697934 -5.2441483e-05 -0.13640854 0.011066602 -0.117427096 0.06426676 -0.08303469
0.06396963 0.09149478 0.008180134 -0.10350846 -0.016581915 -0.1379966 0.0021377418 0.04039989
0.05386831 0.064363286 0.10337962 0.06562978 0.027803617 0.1223361 0.029554447 -0.06894864
-0.13660383 -0.060188908 0.09412275 0.13778698 0.039373733 0.04730115 -0.12573557 0.009399642
00000000: 6b2b e03c f70f 313b a783 07bd ca35 46bd
00000010: c2a5 583c 17c3 58bd a8f9 06be 5b7c 033e
00000020: 0601 023e a04c b7bb fc89 943d f556 8f3d
00000030: e714 05bd 25f0 b6bd 54be 8a3d b4cb 1dbd
00000040: af8e d33d 45aa 3ebd e0ce 4f3d 419f 563a
00000050: 88d2 d6bd 21d8 9c3d 8e63 c03d 7304 0f3d
00000060: e964 c3bd 87ac c63d 31a3 383d aec6 8d3d
00000070: 6c73 febd 1fe7 8c3d afee f33b a6f5 44bc
00000080: 5c36 8bbd f3d2 023e de7f 6e3d 24ee 4abd
00000090: e411 cbbd b1ad 89bd ffdd e73d c8f6 e53d
000000a0: db93 b4bc 0b3c 083d 9152 903d 629f 9e3d
000000b0: c0e5 f2bb 46ac 11bd 6bd9 4a3d a21f b33d
000000c0: 3c46 0a3a a754 4e3d ff01 e93d 3c29 34bd
000000d0: 3350 dcbd 33cd 233d 21f0 2dbd 1b6e 083e
000000e0: de0b c33d c542 f7bc 6c02 9f3c 5966 c4bd
000000f0: 601d 59bd d87a 0b3e c4f4 e9bd 5981 f2bd
00000100: 09d6 313b 02cf 883d 8eae 96bd 8ea7 973d
00000110: 7acd 023d 5bc4 d43c c267 75bc fe24 82bd
00000120: cabf 8e3c 689f 8c3c 40d2 08bc 6cb0 8bbd
00000130: 1e0b c7bd d6e5 803d b4ea fc3d bcf8 b0bc
00000140: 7952 42bb d5a9 0abe fa61 d2bd 06d1 b8bd
00000150: 7420 cfbd c3b3 bcbd ef36 923c 67f8 a7bd
00000160: e698 96bc b5b5 a0bb af3d 0b3e e4f6 dbbb
00000170: 9b1b bbbc 87a5 e03d 862a 8cbc bf73 cb3d
00000180: 9a76 aabd 17f4 f4bc aeff 48bb f26e 9a3d
00000190: 4d3e 09bd 8531 f6bd 695c b53d 135c 023d
000001a0: 6d82 8dbd f385 90bd 443e e73c 4c12 d3bd
000001b0: cd50 c3bb 7daf 76bd 5e38 ce3d baf4 bb3d
000001c0: 7dd6 803c addf 13bd c021 29bd 276d 0abd
000001d0: 5c6d df3d 9370 2d3d 0809 0b3e 8790 8bbc
000001e0: c88d d93d 1db7 a63d 63e8 89bd 61f1 003e
000001f0: 347d 92bd 2219 bd3d 5ae3 31bd 1a88 dfbd
00000200: f6d7 7c3d 29da babd 4cce 5b3c ddd2 813d
00000210: 9789 f63d ecd8 df3b 833e 05be 26c9 80bd
00000220: 7946 603d 8042 ffbd 8f8e bdbd e816 cb3d
00000230: 699d d0bd 74c6 adbd 278d 683d ecbe c8bd
00000240: a3c3 ad3d 66cf e63d 3f7a 7d3c a2b8 05be
00000250: d1da 8f3d 7ec5 d5bd fdbd b53c ae2d 95bb
00000260: 450b 9cbd 32c2 f5bd e91f 67bd 7075 043e
00000270: b380 d5bc 5258 6cbd f6b1 01be ffb8 0cbe
00000280: 7539 81bd 1f2f 44bc 7fde 823d 2ddc 9bbd
00000290: fb63 05be a255 5bbc dccc bdbd 5e52 4a3d
000002a0: d046 7d3c bc2e 00be b13d 923d 7398 85bd
000002b0: 7608 753c e77a a7bd 923b 7c3d 012e b83d
000002c0: 0b66 a23d d29c af3d f359 923c 63ac eeba
000002d0: 7523 02bd ed18 a13d 3e46 263b b938 debd
000002e0: 9c32 9b3b fcfc f0bd e6bb e8bd 530f 4a3c
000002f0: aa4a 813d 6692 323d f317 fc3c cf2a c3bc
00000300: e244 fbbc 1d67 03bd 81e7 adbd d010 c73d
00000310: 336d 293b 030f de3d 14db 90bd 9d62 8abd
00000320: e4f3 cc3d a70b 9ebd ff45 83bd fb6c ab3d
00000330: 016e c1bd 5844 9f3d b4d5 0abe 20aa e2bd
00000340: e8b5 aabd f933 0abe 6e97 a2bc 5991 04be
00000350: 1712 c2bd 6280 20bb 2f21 35bd 2216 9a3d
00000360: 6d16 cb3d db1c b63d 85de 96bd 89f2 cd3d
00000370: 5d7b acbd edaa c0bd db6f ac3a 9470 0b3e
00000380: 49fb 473d e717 f3bd 9df4 5bb8 aeae 0bbe
00000390: b150 353c 9e7d f0bd 4b9e 833d 170e aabd
000003a0: 8202 833d 9d61 bb3d f805 063c 3efc d3bd
000003b0: ccd6 87bc fb4e 0dbe 5b19 0c3b 5b7a 253d
000003c0: 04a5 5c3d e6d0 833d b2b8 d33d e868 863d
000003d0: 69c4 e33c 598b fa3d 2b1c f23c f234 8dbd
000003e0: e0e1 0bbe a588 76bd 6ec3 c03d 0818 0d3e
000003f0: 5a46 213d dabe 413d d3c0 00be f500 1a3c

fc1.bias f4 [55]
-0.024820702 -0.124107175 0.1304674 0.10404948 0.13260165 0.05362108 -0.076918535 -0.05183786
0.062436204 -0.04324536 -0.042542513 -0.040331792 0.003984918 0.12706792 -0.04783244 -0.042686902
0.014685602 0.08199283 -0.021258343 0.069019526 -0.013140859 -0.115587845 0.11418865 -0.043225132
-0.004357188 0.07859802 -0.12213176 0.107737474 -0.08031647 0.04453269 -0.06788908 -0.057606384
-0.069823995 0.032890487 -0.01862656 0.12819865 0.08540525 -0.044560615 -0.06344286 0.087201945
-0.06504961 0.041795194 0.034815438 -0.13017693 -0.048114046 -0.011734984 0.044676 0.05567583
0.09798615 -0.026970431 -0.09994815 -0.0766623 -0.05960439 -0.09897548 0.12075964
00000000: c954 cbbc e72b febd 3f99 053e e517 d53d
00000010: bac8 073e c7a1 5b3d 7787 9dbd f053 54bd
00000020: 1bbd 7f3d 0c22 31bd 0f41 2ebd f332 25bd
00000030: ea93 823b 181e 023e f3eb 43bd 76d8 2ebd
00000040: e19b 703c dbeb a73d fa25 aebc 1c5a 8d3d
00000050: c24c 57bc 52b9 ecbd bddb e93d d60c 31bd
00000060: bec6 8ebb 00f8 a03d 3720 fabd 77a5 dc3d
00000070: f67c a4bd e967 363d 6e09 8bbd acf4 6bbd
00000080: e2ff 8ebd 2db8 063d ba96 98bc 8246 033e
00000090: f3e8 ae3d 3185 36bd 55ee 81bd ef96 b23d
000000a0: bb38 85bd 7031 2b3d a29a 0e3d 1a4d 05be
000000b0: 3c13 45bd 1744 40bc 2efe 363d 570c 643d
000000c0: f6ac c83d 18f1 dcbc 9eb1 ccbd 2001 9dbd
000000d0: bc23 74bd a8b3 cabd d550 f73d

fc2.weight f4 [55, 55]
-0.1333407 -0.091978714 -0.07710527 -0.047571704 0.019909015 0.112846985 0.023484947 -0.059592795
-0.0256898 0.0415898 -0.09706446 -0.018840196 -0.1152228 -0.006503524 0.053354196 0.0067474507
-0.073591135 -0.024399797 0.055541035 -0.023430066 0.12561934 -0.08235999 0.013900016 -0.03834067
-0.08749721 0.0038543004 0.06000857 0.10899576 0.07526454 -0.12602054 -0.019208789 0.004674971
-0.015318549 -0.12759943 -0.07399549 -0.018585345 -0.12815644 -0.011689879 -0.0855995 0.04829305
0.077302076 -0.10394892 0.031693526 0.046004537 -0.11354588 0.1116344 -0.08938794 0.0269045
-0.04655475 -0.028355544 -0.016421555 -0.039570134 -0.101559386 -0.07665258 -0.074886516 -0.027012752
-0.008516919 -0.0018479616 0.071852446 0.027942032 -0.04324243 -0.119073585 -0.09373297 0.04559263
0.015228612 -0.037454404 -0.023069698 -0.042225726 -0.10952315 0.045539595 0.013090707 -0.011121528
-0.06407041 -0.012352748 -0.09195837 -0.08420424 0.12406777 0.1088893 0.10166187 0.0035626648
0.060138274 -0.04801724 -0.103651375 0.0011299552 -0.06371308 -0.0518524 0.0959354 -0.07905208
0.07684569 -0.013910859 -0.038431652 0.032007452 0.023855794 0.065296605 0.08711464 0.0067090644
-0.026320053 0.118693314 0.125951 -0.10094845 0.07475182 0.063389584 0.0138476975 0.12849772
-0.09646206 0.06429903 -0.0066120736 0.026508903 0.038730267 0.012383039 -0.0062538367 0.017046222
-0.10875644 0.026233232 0.027490204 -0.06430004 0.01483925 0.011375995 0.09536381 -0.101116344
-0.102693 -0.07958232 0.032051183 -0.006336532 -0.094834 0.01507807 0.066011585 -0.08598195
-0.04476885 -0.07185857 -0.014829058 -0.030184483 0.07871049 0.111346394 0.048470736 -0.0014262847
0.013854546 -0.04325143 -0.12760474 0.0068741976 0.123378605 0.0057523046 0.12721443 0.12357829
-0.026257616 -0.038539086 0.0020263598 0.122858025 0.11822168 0.06397692 0.07907045 -0.043670833
0.01141271 -0.022540761 -0.09400809 0.066765614 0.025402898 -0.047342997 -0.0596181 -0.105601646
-0.13219209 -0.1053493 -0.08978013 0.011297927 -0.012715085 -0.120403856 0.12633385 0.12688015
0.088173196 -0.11064876 -0.1085968 -0.044352837 -0.029028274 -0.00011598557 -0.044963904 -0.041413765
-0.009854769 0.1320575 -0.06369678 0.10898164 0.051718075 -0.014655272 -0.055024605 -0.02689645
0.020840606 0.034377087 -0.086019926 0.06364385 -0.0070275743 -0.10702503 0.056086432 0.099924594
0.047121763 0.0024320043 0.10101834 -0.029395578 -0.0756963 0.044471506 -0.045188926 -0.065756366
0.12931411 -0.07845842 0.05971556 0.002201605 0.009637898 -0.02240038 0.023678757 -0.013659223
-0.107234634 0.09030777 -0.11988635 -0.025234958 -0.059554473 -0.09960027 -0.071902186 -0.075518504
-0.052203633 0.13013786 -0.038395677 0.12044406 0.02827859 0.106866375 -0.030603958 -0.09870668
-0.06800527 0.038969617 0.099033855 0.10989344 -0.010899948 0.055893783 -0.03575012 0.1276622
-0.010204766 -0.049228236 -0.026303703 -0.037492987 0.11214519 -0.026350437 0.10794722 -0.048334632
0.022242676 -0.026221758 2.3760711e-05 0.026693994 0.123190574 -0.11591643 -0.0153843295 -0.12739895
0.05732058 -0.033676013 0.0070487377 -0.073495775 0.036435973 0.09966977 0.08459604 0.027659442
00000000: 778a 08be 565f bcbd 5ee9 9dbd 8cda 42bd
00000010: 3b18 a33c 521c e73d 8163 c03c 9317 74bd
00000020: 6a73 d2bc 115a 2a3d bbc9 c6bd c156 9abc
00000030: eef9 ebbd 831b d5bb ee89 5a3d b819 dd3b
00000040: f3b6 96bd 15e2 c7bc ff7e 633d 69f0 bfbc
00000050: 5ba2 003e 5bac a8bd e5bc 633c 1b0b 1dbd
00000060: bd31 b3bd 6e98 7c3b 8ccb 753d 2b39 df3d
00000070: 4c24 9a3d 870b 01be c05b 9dbc 8030 993b
00000080: a7fa 7abc 6da9 02be f38a 97bd 4b40 98bc
00000090: 713b 03be e886 3fbc ca4e afbd efce 453d
000000a0: 8d50 9e3d 2ce3 d4bd 12d1 013d 416f 3c3d
000000b0: be8a e8bd 94a0 e43d 0611 b7bd d366 dc3c
000000c0: 32b0 3ebd e349 e8bc 7f86 86bc 4b14 22bd
000000d0: 5efe cfbd 07fc 9cbd 1a5e 99bd d949 ddbc
000000e0: 8c8a 0bbc 4d37 f2ba 6027 933d b0e6 e43c
000000f0: f91e 31bd dadc f3bd 12f7 bfbd 56bf 3a3d
00000100: 6e81 793c ca69 19bd aafc bcbc e2f4 2cbd
00000110: ac4d e0bd ba87 3a3d 687a 563c 1237 36bc
00000120: 5937 83bd 2e63 4abc ab54 bcbd 4673 acbd
00000130: 3e17 fe3d 5a01 df3d 1934 d03d 997b 693b
00000140: 8d53 763d baad 44bd 2c47 d4bd 011b 943a
00000150: 017c 82bd 2f63 54bd c779 c43d 0fe6 a1bd
00000160: 4661 9d3d 5fea 63bc 826a 1dbd 3f1a 033d
00000170: 3a6d c33c 3aba 853d 2969 b23d b6d7 db3b
00000180: 279d d7bc 7b15 f33d 4df9 003e 10be cebd
00000190: 7b17 993d 66d2 813d 74e1 623c e894 033e
000001a0: e78d c5bd 36af 833d 18aa d8bb 3329 d93c
000001b0: a1a3 1e3d 3be2 4a3c fcec ccbb 85a4 8b3c
000001c0: b2bb debd 13e7 d63c 2333 e13c bdaf 83bd
000001d0: 5320 733c 6262 3a3c 1a4e c33d 1616 cfbd
000001e0: b550 d2bd 0efc a2bd 1a48 033d afa2 cfbb
000001f0: 5438 c2bd 020a 773c 1531 873d 4e17 b0bd
00000200: 8b5f 37bd 962a 93bd 94f5 72bc 7345 f7bc
00000210: f732 a13d 9409 e43d 4089 463d 2cf2 baba
00000220: 2dfe 623c 6928 31bd d1aa 02be f340 e13b
00000230: ecad fc3d d47d bc3b 8044 023e 9d16 fd3d
00000240: 361a d7bc 29db 1dbd adcc 043b fd9c fb3d
00000250: 351e f23d 5506 833d b0ef a13d 30e0 32bd
00000260: 60fc 3a3c 67a7 b8bc 5087 c0bd 69bc 883d
00000270: bd19 d03c bbea 41bd 1c32 74bd ad45 d8bd
00000280: 5d5d 07be 60c1 d7bd a5de b7bd f11a 393c
00000290: ef52 50bc 4c96 f6bd a95d 013e dfec 013e
000002a0: 2694 b43d d19b e2bd 0068 debd 52ab 35bd
000002b0: b4cc edbc 473d f3b8 122c 38bd 7ba1 29bd
000002c0: e675 21bc 153a 073e 7573 82bd c431 df3d
000002d0: 55d6 533d aa1c 70bc 7b61 61bd f255 dcbc
000002e0: ebb9 aa3c fdce 0c3d 372b b0bd b557 823d
000002f0: 9147 e6bb f02f dbbd e3ba 653d 44a5 cc3d
00000300: c002 413d 4362 1f3b b4e2 ce3d ffce f0bc
00000310: a906 9bbd c127 363d 0618 39bd 46ab 86bd
00000320: eb6a 043e cfae a0bd 4e98 743d cd48 103b
00000330: 46e8 1d3c 0081 b7bc f4f9 c13c efca 5fbc
00000340: d59d dbbd 48f3 b83d fa86 f5bd 8bb9 cebc
00000350: 64ef 73bd 3afb cbbd 7441 93bd 72a9 9abd
00000360: 7ad3 55bd dc42 053e c944 1dbd 60ab f63d
00000370: 80a8 e73c c2dc da3d 27b5 fabc ba26 cabd
00000380: 5946 8bbd 9b9e 1f3d 43d2 ca3d d00f e13d
00000390: b295 32bc e1f0 643d b86e 12bd e1b9 023e
000003a0: e431 27bc 8ca3 49bd dd7a d7bc 3f92 19bd
000003b0: 61ac e53d dfdc d7bc 6f13 dd3d 89fa 45bd
000003c0: 4636 b63c 03cf d6bc bd51 c737 5dad da3c
000003d0: 574b fc3d 9865 edbd 8e0e 7cbc df74 02be
000003e0: fcc8 6a3d dcef 09bd 19f9 e63b f484 96bd
000003f0: e33d 153d aa1f cc3d b040 ad3d 0e96 e23c

fc2.bias f4 [55]
-0.018610617 0.11705353 -0.08620734 -0.006132759 -0.05948648 0.030672329 0.04068727 -0.00217438
-0.06717207 0.076558456 -0.06405737 -0.074912034 -0.047376465 0.068409055 0.08934286 0.028733509
0.099846885 -0.021145055 -0.09516411 0.085944764 -0.12190474 0.008437886 -0.11028024 0.036146656
0.07696281 0.06301828 0.031012828 -0.099559546 0.036679346 0.04463561 0.10388737 -0.066596255
0.05657148 0.045408398 0.09230909 0.05990485 0.009004676 -0.09751396 -0.07058935 -0.10858185
-0.09782068 0.022660064 -0.07434796 -0.1265398 0.0735058 -0.04018463 -0.11069835 -0.009502903
0.11972941 0.117414266 -0.011993345 -0.10466552 -0.08153966 0.09353138 -0.10396388
00000000: 4b75 98bc c3b9 ef3d 798d b0bd 50f5 c8bb
00000010: 18a8 73bd 8944 fb3c b2a7 263d 0b80 0ebb
00000020: 8391 89bd aeca 9c3d 8330 83bd 7b6b 99bd
00000030: d30d 42bd 0c1a 8c3d 64f9 b63d 8962 eb3c
00000040: 867c cc3d 6538 adbc 67e5 c2bd cf03 b03d
00000050: 31a9 f9bd 0f3f 0a3c 9bda e1bd 840e 143d
00000060: ad9e 9d3d ba0f 813d 9d0e fe3c e0e5 cbbd
00000070: 153d 163d d4d3 363d e7c2 d43d 9e63 88bd
00000080: 7fb7 673d 28fe 393d 8c0c bd3d ca5e 753d
00000090: 5988 133c 66b5 c7bd 2691 90bd 2960 debd
000000a0: 3556 c8bd 99a1 b93c be43 98bd a693 01be
000000b0: 358a 963d a398 24bd d1b5 e2bd 10b2 1bbc
000000c0: b134 f53d e476 f03d bc7f 44bc e05a d6bd
000000d0: 44fe a6bd 618d bf3d 04eb d4bd

fc3.weight f4 [55, 55]
0.058331333 -0.1347361 0.13402258 0.072582684 0.060689535 -0.07890277 -0.13326648 0.014364565
-0.048203703 0.12565596 -0.09665118 0.11103145 -0.13344716 -0.09968296 -0.03736131 0.043187797
0.12010986 0.03706156 0.1240925 0.091963254 -0.13288555 -0.10856776 -0.0033653716 -0.048512865
0.06261298 -0.10405324 -0.012065287 0.06707042 0.09151802 0.026057066 0.07528639 0.01735808
-0.09574547 0.029115416 0.12476595 -0.1159629 -0.063272 -0.025609856 0.117668934 0.032976177
-0.106285036 -0.06328485 0.097292885 0.025066532 -0.04980571 0.09650237 0.0066189426 0.07234364
0.12974988 -0.028963096 0.08893483 -0.06250295 -0.049125034 -0.00923217 0.084968686 -0.124449186
-0.11522486 -0.016775949 -0.09589413 -0.07624175 0.021977834 0.078861736 0.054703575 0.113388024
-0.06993083 0.048786648 -0.05875417 -0.112129174 0.09349605 -0.03160511 -0.07227495 -0.05423071
-0.096087396 0.009876344 -0.035260193 0.07296549 -0.015770586 -0.1003019 0.08387273 0.09799524
0.048847917 0.07140441 -0.04013488 -0.11840007 -0.10196567 -0.042462595 0.12976997 0.09783907
-0.118872836 -0.1119784 0.012922837 -0.10975872 -0.13346574 0.09691453 -0.0135822445 0.086234294
0.023796327 0.027922368 0.10138034 -0.11255547 0.08509846 -0.1322877 -0.13386159 -0.12713854
-0.038246676 -0.015971761 0.080043234 -0.06722849 -0.063454606 0.07721998 0.1039221 0.06343606
-0.04315945 0.12219374 -0.015309594 -0.017074931 -0.05406607 -0.039169487 0.08202643 0.054078758
-0.014433684 0.015265407 0.072596185 0.037266146 -0.0004218265 0.04313038 0.02704541 -0.013140817
-0.11776087 0.071324 -0.1235059 0.066436104 -0.0014327544 -0.08424554 -0.027750378 0.069288425
0.024187088 -0.12116994 0.0746153 -0.0986925 -0.10403546 -0.064797215 -0.08895692 0.13099663
0.045574825 -0.08220988 -0.043984693 0.11452841 -0.031724136 -0.02392765 0.12037723 -0.07188342
-0.093459114 0.044709228 0.11291174 0.0502473 -0.09280749 0.10746576 -0.0018947343 -0.11427228
0.0019204373 0.038467932 0.09150505 -0.11025992 -0.077089444 0.13077949 -0.13447122 0.03782309
-0.055263434 -0.039806247 -0.038104806 0.07482664 -0.09327636 -0.06255891 -0.01598449 0.12518428
0.043824792 -0.11974564 0.05146338 0.058095153 0.089194134 -0.08159413 -0.060036767 0.123847604
0.056694884 0.06602923 -0.11387046 -0.033298414 0.11070346 -0.035118792 -0.06938869 0.06342869
-0.055227477 0.0911432 0.1203555 0.078997225 -0.12202938 -0.012722635 -0.10224801 -0.042231116
0.12527783 -0.108461216 0.030067822 0.020701775 0.06583502 -0.017387448 0.06405371 0.11037563
0.11052858 0.016186621 -0.035842728 0.13051198 -0.1270452 -0.025469812 0.03722871 -0.1340327
-0.04190301 -0.08951771 0.02740859 0.12005184 -0.0861362 0.12754822 -0.09816773 0.0067521115
-0.12730685 0.11547939 -0.013304401 -0.048779737 -0.027031293 -0.001038398 0.10111808 -0.10108384
-0.04133397 -0.050911404 0.082762964 -0.12715176 0.010944605 0.12036013 0.033347055 0.0027898303
-0.06397276 -0.102485806 0.07741905 -0.07528167 0.12550586 -0.07444428 0.05220289 0.043877255
-0.021715995 0.089845516 -0.062243808 -0.07317779 -0.0044833007 0.08278304 0.090755776 0.05821904
00000000: d6ec 6e3d 43f8 09be 373d 093e 3ba6 943d
00000010: 9795 783d c797 a1bd 0277 08be 5a59 6b3c
00000020: 3f71 45bd f5ab 003e 0ef1 c5bd 7564 e33d
00000030: 5fa6 08be 9426 ccbd 2c08 19bd b0e5 303d
00000040: 29fc f53d ddcd 173d 3524 fe3d 3b57 bc3d
00000050: 2613 08be c658 debd 918d 5cbb 6db5 46bd
00000060: 3c3b 803d dd19 d5bd 7bad 45bc 375c 893d
00000070: cd6d bb3d a175 d53c c02f 9a3d 8832 8e3c
00000080: 3316 c4bd 7483 ee3c 4a85 ff3d f57d edbd
00000090: c094 81bd c3cb d1bc 69fc f03d 0712 073d
000000a0: f8ab d9bd 7d9b 81bd 7e41 c73d 5458 cd3c
000000b0: 1201 4cbd 09a3 c53d b7e3 d83b e728 943d
000000c0: 27dd 043e 0444 edbc 7723 b63d 8c01 80bd
000000d0: 5537 49bd 8742 17bc 1004 ae3d 37df febd
000000e0: 03fb ebbd b76d 89bc 2464 c4bd a224 9cbd
000000f0: dc0a b43c 4382 a13d db10 603d fb37 e83d
00000100: e537 8fbd 82d4 473d 36a8 70bd fba3 e5bd
00000110: db7a bf3d 5c74 01bd e404 94bd 0521 5ebd
00000120: 78c9 c4bd 64d0 213c fe6c 10bd ee6e 953d
00000130: 5131 81bc 156b cdbd 77c5 ab3d bab1 c83d
00000140: c114 483d 7a3c 923d 7964 24bd bc7b f2bd
00000150: 61d3 d0bd 42ed 2dbd 6be2 043e da5f c83d
00000160: 9a73 f3bd ee54 e5bd 4fba 533c 2ec9 e0bd
00000170: 3eab 08be 207b c63d 1088 5ebc 9b9b b03d
00000180: 84f0 c23c 73bd e43c 7fa0 cf3d 7b83 e6bd
00000190: 1a48 ae3d 6d76 07be 0313 09be 9b30 02be
000001a0: 8ca8 1cbd 36d7 82bc b5ed a33d 17af 89bd
000001b0: 7df4 81bd 8225 9e3d 1cd5 d43d c4ea 813d
000001c0: f7c7 30bd b640 fa3d 17d5 7abc bae0 8bbc
000001d0: 6274 5dbd 2f70 20bd 79fd a73d b081 5d3d
000001e0: 427b 6cbc c21b 7a3c 4fad 943d 63a4 183d
000001f0: 9828 ddb9 7ba9 303d 568e dd3c 954c 57bc
00000200: 9c2c f1bd 5112 923d a9f0 fcbd a70f 883d
00000210: 43cb bbba ed88 acbd c354 e3bc 17e7 8d3d
00000220: 0024 c63c f227 f8bd e8cf 983d 4b1f cabd
00000230: 8b10 d5bd 67b4 84bd 0c2f b6bd fb23 063e
00000240: abac 3a3d a75d a8bd 4b29 34bd df8d ea3d
00000250: 2bf1 01bd eb03 c4bc 5688 f63d 9d37 93bd
00000260: 7e67 bfbd 0621 373d 453e e73d 1dd0 4d3d
00000270: da11 bebd 0217 dc3d bc58 f8ba 9607 eabd
00000280: 2fb7 fb3a 8d90 1d3d 0067 bb3d f4cf e1bd
00000290: 12e1 9dbd 0feb 053e d3b2 09be 62ec 1a3d
000002a0: e95b 62bd e00b 23bd c913 1cbd b63e 993d
000002b0: ad07 bfbd e31e 80bd e8f1 82bc 4f30 003e
000002c0: a081 333d 343d f5bd 44cb 523d 2ff5 6d3d
000002d0: 6aab b63d d31a a7bd 1de9 75bd d0a3 fd3d
000002e0: e538 683d 553a 873d ea34 e9bd eb63 08bd
000002f0: 7fb8 e23d b9d8 0fbd a81b 8ebd e7e6 813d
00000300: 3536 62bd 49a9 ba3d f27c f63d 4cc9 a13d
00000310: 8aea f9bd 9972 50bc 6867 d1bd 89fa 2cbd
00000320: d548 003e ea20 debd cb50 f63c c596 a93c
00000330: 83d4 863d 1f70 8ebc 972e 833d 9e0c e23d
00000340: cf5c e23d ce99 843c d3cf 12bd efa4 053e
00000350: 2318 02be 11a6 d0bc 227d 183d de3f 09be
00000360: 7ea2 2bbd 1055 b7bd fb87 e03c bddd f53d
00000370: 2d68 b0bd 009c 023e 2a0c c9bd d140 dd3b
00000380: ba5c 02be 7580 ec3d b4fa 59bc 43cd 47bd
00000390: bb70 ddbc db1a 88ba ff16 cf3d 0b05 cfbd
000003a0: cf4d 29bd 7a88 50bd a17f a93d 1234 02be
000003b0: 0051 333c 5f7f f63d ec96 083d 96d5 363b
000003c0: 2704 83bd 14e4 d1bd e18d 9e3d 472d 9abd
000003d0: 9c84 003e 3e76 98bd b3d2 553d a3b8 333d
000003e0: bee5 b1bc ed00 b83d 5df3 7ebd 3dde 95bd
000003f0: a7e8 92bb 288a a93d 2ade b93d 1777 6e3d

fc3.bias f4 [55]
-0.125587 0.13302676 0.0268722 -0.13288838 -0.09418568 0.09858252 0.0373995 0.12415463
0.07783627 -0.11107215 -0.050375752 -0.09272723 0.096868314 0.12201281 0.024953572 -0.018519556
0.0427552 -0.014324225 0.03018498 0.003117856 -0.021715658 -0.12961206 -0.055329 -0.055516984
-0.09915225 -0.11826175 -0.037387084 0.11342006 -0.13212158 -0.0892266 -0.11476632 -0.040071238
0.020070216 -0.008986378 0.091964416 0.07586719 -0.09961686 -0.04796915 -0.07190755 -0.120068826
0.015469728 -0.008414712 0.038145702 0.0016594103 -0.10166725 -0.09752221 -0.12778509 -0.0072214534
-0.10122065 0.020657651 -0.085724995 -0.012772007 -0.042856265 0.08645774 -0.017737225
00000000: e199 00be 2b38 083e 1723 dc3c e413 08be
00000010: 6ce4 c0bd a2e5 c93d 3830 193d c844 fe3d
00000020: 9f68 9f3d cc79 e3bd ce56 4ebd c6e7 bdbd
00000030: e562 c63d dae1 f93d 6f6b cc3c 53b6 97bc
00000040: 1420 2f3d 27b0 6abc 7e46 f73c f254 4c3b
00000050: 09e5 b1bc 06b9 04be a9a0 62bd c765 63bd
00000060: 5610 cbbd 3733 f2bd 3323 19bd c748 e83d
00000070: e14a 07be 70bc b6bd 9b0a ebbd bd21 24bd
00000080: 4b6a a43c 9a3b 13bc d757 bc3d 4260 9b3d
00000090: ed03 ccbd 4d7b 44bd 4444 93bd a5e6 f5bd
000000a0: be74 7d3c dcdd 09bc ab3e 1c3d 9280 d93a
000000b0: eb36 d0bd b9b9 c7bd 18da 02be f1a1 ecbb
000000c0: c64c cfbd 3c3a a93c 9690 afbd ae41 51bc
000000d0: 0d8a 2fbd c110 b13d a84d 91bc

fc4.weight f4 [1, 55]
0.0983227 -0.003320527 -0.018050374 0.07082186 0.06476572 -0.09844041 -0.0798959 0.025823347
0.029240107 0.13102268 -0.06704899 -0.10700988 0.080742694 0.051271368 0.062369883 -0.10719284
-0.12357088 0.111807056 0.08759401 -0.13805442 0.07587941 0.05086252 0.08777406 -0.05441482
-0.088111594 -0.11480799 0.07282473 -0.0763874 -0.083105 -0.12601218 -0.033451427 0.041936338
0.11303383 0.013168973 0.044609044 0.096440196 -0.012176472 0.13092896 -0.07490899 0.07318163
-0.008541236 -0.1255735 0.11149844 0.00517826 -0.0002801158 -0.071048744 0.118543506 -0.10845136
-0.072043575 -0.12762561 0.033458184 -0.015194653 0.12886257 -0.0026864214 0.089225724
00000000: 695d c93d 339d 59bb 61de 93bc 0d0b 913d
00000010: e4a3 843d 209b c9bd 76a0 a3bd 7c8b d33c
00000020: f388 ef3c cf2a 063e fb50 89bd ff27 dbbd
00000030: 6d5c a53d ed01 523d 9077 7f3d eb87 dbbd
00000040: bb12 fdbd 19fb e43d 7d64 b33d 235e 0dbe
00000050: aa66 9b3d 3855 503d e3c2 b33d 13e2 5ebd
00000060: da73 b4bd 7420 ebbd 2225 953d ff70 9cbd
00000070: f432 aabd 5609 01be 5d04 09bd 70c5 2b3d
00000080: 487e e73d adc2 573c f9b7 363d 7082 c53d
00000090: d37f 47bc 3e12 063e e269 99bd 40e0 953d
000000a0: 8af0 0bbc 5796 00be 4b59 e43d 65ae a93b
000000b0: 82dc 92b9 0182 91bd f0c6 f23d bf1b debd
000000c0: 958b 93bd 4ab0 02be 730b 093d fef2 78bc
000000d0: 8df4 033e ac0e 30bb fabb b63d
